checkpoint/Focal/interpolate/classifier.pt (torch, 3111 bytes, 1 tensors)

linear.weight f4 [1, 512]
00000000: 152b ecbc 98b5 d2bc 138e 2a3d a76e f7bc
00000010: ab08 73bb 287e 54bd 12a2 1a3c ec5e 103d
00000020: c31d ffbc 07e7 ea3b 7d1f 5abd 4f94 653c
00000030: e057 81bc e512 353c 82be bfbc b2c0 24bb
00000040: eafa 5bbd ed9b be3d c651 f2bc 3280 c13c
00000050: 025b 1abb c1c9 92bd 1fc1 e9bb 87d0 8cbd
00000060: 425f a43d 869b 4ebc c762 f4bc 3fa9 093c
00000070: 33ba 42bd b9ce d73d c352 34bd 4140 8abd
00000080: a350 04bd 4ffc 4bbd a322 14bd 55cf 17bd
00000090: fd60 ccbc 398a 903d 112b 3abd cc51 00bd
000000a0: 7610 c0bc 7bbb 77bd c9eb 393d b70d 72bd
000000b0: de91 8dbd b7d4 62bd d608 83bd 4ce4 343d
000000c0: 3e17 793d f2cd 5dbd b30a de3c 9e34 0e3c
000000d0: cf6c 4a3d 0fc7 873d ba56 5a3d 6696 87bd
000000e0: c8ff 6bbd 8e87 1bbd 3528 863b 7bff 0fbd
000000f0: f36d f53c 1c7f 433c 640c 06bd 7c40 3abd
00000100: 4bb1 20bd e12b 64bd 2b53 533b 37c5 abbb
00000110: e27d dfbc 8667 09bd b9d1 ea3c 330b 03bd
00000120: 3e3a 4bbd d10d c83c 2aa5 0abd 7037 e53c
00000130: dc35 1fbd 75bd 80bd a726 da3c afe6 7ebd
00000140: fb9b 8fbd 6b4d ac3b 9324 48bd e517 0bbd
00000150: c98c 3cbc dc59 983b cc03 d93a 717e 573d
00000160: 14e8 4dbd ecaa 8ebb 5d96 2cbc 777a 2e3c
00000170: 0742 19bd f04a 1dbd b63a 2cbd ca79 3dbd
00000180: da72 1fbb 6b77 123d b698 85bd c110 883c
00000190: 08ca 50bd a554 073c 6e08 f93b d078 a83b
000001a0: 198a 49bd d932 b93a 8ac8 c4bc 8a2f 623c
000001b0: 72de f8bc 5bdf 4abd 7d2a 17bd f674 ec3d
000001c0: 44b2 8ebc 243a 42bc 7f48 9ebc e3db da3b
000001d0: f860 1bbc cca8 213a df04 baba 11b8 c23d
000001e0: 71b5 68bd 737b 5dbd bba6 1ebd e320 903d
000001f0: 63f5 a03d 544a edbc dc32 14bd ccde 39bd
00000200: c442 6dbd 6fcb 3d3d 1c4b 823c 35e2 293d
00000210: 6ef6 1cbd 4c63 2abd 2bea 853c caff 82bd
00000220: cd2c 20bb d6c2 8c3b 3d5a 7a3d 0892 37bd
00000230: df42 5a3d 941f f83c 7b12 80bd f22b 9fbc
00000240: 0730 da3b c9c6 2ebd a407 753c 3c21 5bbd
00000250: 56fc 1fbd 1ef1 c63b 1d4a 33bc 462b 6fbd
00000260: 4dc3 a13d 4468 d2bb 05fb a13d 4224 c13b
00000270: 269c 22bd 8aed 35bc 7c22 3dbd 1cdd 59bc
00000280: ef2c 8dbc 8547 09bd 35e3 77bd a4bc 82bd
00000290: d435 97bd 7b2e 583c 6582 cebc dc74 1ebd
000002a0: afa0 e8bc 1173 95bd dfe6 95bd c02b 54bb
000002b0: fe41 6f3d 8003 49bc 96bb 073d 533b 2abd
000002c0: 1f16 893b 91eb babb 38d7 053c dcec cabc
000002d0: 56eb 6cbc 6778 203d 8ff7 8fbb 2228 57bd
000002e0: b417 29bd b77a 57bd 2293 2bbd 101a 673d
000002f0: 6420 d83c 3925 29bd 241c 633c ccf3 973d
00000300: e14f ca3b 8d9e 50bc 9cd3 7f3a 6dfa 6e3b
00000310: 7980 99bd 7c35 a3bc 3d39 2a3d ed9c a8bb
00000320: 828a a3bc 5f5a 17bd e79f 513c 86b3 ba3d
00000330: e61d 5abc 1109 29bd dcf1 cabb 077a 883d
00000340: 2879 06bd b965 75bd 52cd 80bc e906 01bd
00000350: a55a 1cbc 26f8 653d 61ea 913b 9f05 413c
00000360: ccd3 be3b b626 c5bc 823c b03c 8d59 42bd
00000370: 51a8 a33b e188 3fbd 908d 85bc 7c35 e73c
00000380: 2f72 01bc 0d4c aa3d 610c 633d fb89 4ebd
00000390: 4e8f 9ebc 9558 50bc fcfd 46bd 59fb 47bd
000003a0: aacf 93bd e785 2ebd 82bc be3b 2c85 923b
000003b0: ff4a 8abd a837 45bd a8aa 8cbd b0a5 e5bb
000003c0: 9a0c 08bd 45ba 79b9 2610 103d 9f18 d5bc
000003d0: c5f9 84bd dfbf 89bd 004b af3c 95fe af3c
000003e0: 8c73 c93c 03b2 10bd e218 96bd f12b 04bd
000003f0: 868e 8a3c 27fc fa3c beb3 10bd 2018 943d
-0.028829137 -0.025721356 0.0416394 -0.03020413 -0.0037084024 -0.051878124 0.009438055 0.035246775
-0.031142121 0.007168654 -0.053252686 0.01401241 -0.015788972 0.011051868 -0.02340627 -0.002513927
-0.053706087 0.09307084 -0.029580008 0.023620699 -0.002355278 -0.07167388 -0.0071336175 -0.06875711
0.080259815 -0.012610322 -0.029832257 0.008402168 -0.047540855 0.10537476 -0.04402424 -0.06750537
-0.032303464 -0.049801167 -0.036165845 -0.03706296 -0.024948591 0.07057614 -0.045451228 -0.031328008
-0.02344535 -0.06048153 0.045390878 -0.05909511 -0.069125876 -0.055378642 -0.0639817 0.044163033
0.06081318 -0.054151483 0.027104711 0.008679537 0.049420174 0.06629764 0.053305365 -0.06620483
-0.05761698 -0.037971072 0.0040941485 -0.035155755 0.029959654 0.011932161 -0.03272666 -0.045471653
-0.03923158 -0.05570591 0.0032245617 -0.0052420157 -0.027281705 -0.033545993 0.028664457 -0.031993102
-0.04961609 0.02442065 -0.03384892 0.027980536 -0.038869724 -0.06286136 0.026629759 -0.062231716
-0.07012173 0.0052582524 -0.048863005 -0.033958334 -0.011508175 0.004649384 0.0016556918 0.05261082
-0.050270155 -0.0043538716 -0.010533896 0.010649315 -0.037416484 -0.038401544 -0.04204818 -0.046258725
-0.0024329931 0.035758417 -0.06523268 0.016609551 -0.050973922 0.008259927 0.007599882 0.005141355
-0.049203966 0.0014129534 -0.024021406 0.0138052795 -0.030379508 -0.049529415 -0.036905754 0.11545746
-0.017418988 -0.011854682 -0.019321678 0.0066790446 -0.009483568 0.00061668153 -0.0014192126 0.09507764
-0.05681366 -0.05407281 -0.038733225 0.07037523 0.07859304 -0.028966106 -0.036181316 -0.04537849
-0.057925 0.046336588 0.015904956 0.041475493 -0.03832095 -0.041598603 0.016347012 -0.06396444
-0.0024440766 0.004295687 0.061121214 -0.044817 0.05328643 0.030288495 -0.06253525 -0.019430134
0.0066585573 -0.042670045 0.014955435 -0.05349849 -0.039059006 0.006071224 -0.010942963 -0.05839088
0.07898579 -0.006421121 0.07909206 0.005894215 -0.039699696 -0.011103997 -0.046175465 -0.0132973455
-0.01723334 -0.033515472 -0.060519416 -0.063836366 -0.07383314 0.013194676 -0.025208661 -0.038685665
-0.028396932 -0.07297338 -0.07319426 -0.003237471 0.058412544 -0.012268901 0.03313788 -0.041560482
0.0041835452 -0.0057043512 0.008168988 -0.024771146 -0.014460405 0.039177325 -0.004393525 -0.052528508
-0.04128237 -0.052607264 -0.041888364 0.05642134 0.026382633 -0.041295264 0.01386169 0.074195474
0.006174073 -0.012733114 0.000975901 0.0036465183 -0.07495207 -0.019922964 0.041558493 -0.00514566
-0.019963507 -0.03695142 0.012794471 0.09116273 -0.013312792 -0.041268412 -0.0061933827 0.066639
-0.032830387 -0.059911463 -0.015722904 -0.03150073 -0.009543096 0.056144856 0.004452989 0.011781125
0.005823588 -0.02406631 0.021513227 -0.047448684 0.00499443 -0.046761397 -0.016302854 0.028223746
-0.007900759 0.08315287 0.055431727 -0.050424557 -0.019355442 -0.012716432 -0.048582062 -0.04882369
-0.07217343 -0.042608168 0.0058208117 0.0044714417 -0.067525856 -0.04814878 -0.068684876 -0.007008277
-0.033215143 -0.00023815881 0.03517165 -0.026012717 -0.06492952 -0.0672605 0.021398067 0.021483699
0.02459123 -0.035326015 -0.07328965 -0.03226847 0.016913664 0.030637814 -0.035327666 0.07231164
