checkpoint/Focal/random-noise/classifier.pt (torch, 3111 bytes, 1 tensors)

linear.weight f4 [1, 512]
0	0xbda2a96e	-0.079424724
1	0xbc90ff97	-0.0177
2	0x3b0ce860	0.002150081
3	0xbd30d827	-0.04317489
4	0xbd693ed4	-0.056944683
5	0xbc0ad282	-0.008473041
6	0xbc12bb16	-0.008955738
7	0x3c806c9c	0.015676789
8	0xbccc41e0	-0.024933755
9	0x3b212dba	0.0024593906
10	0xbc4872da	-0.012234414
11	0xbc2b0b92	-0.01043977
12	0xbd64f28b	-0.05589537
13	0xbcce69fa	-0.025197018
14	0xbd80c22b	-0.062870346
15	0xbc85057c	-0.016237967
16	0xbcff6204	-0.031174667
17	0x3dc536c7	0.096295886
18	0xbcd39ebd	-0.025832528
19	0xbd5dd8ef	-0.054161962
20	0xbd7403ef	-0.059574064
21	0xbd5c846b	-0.05383722
22	0xbbd384ce	-0.0064550405
23	0xbc60fd29	-0.013732233
24	0x3d8d80a7	0.06909304
25	0xbcb91746	-0.022594105
26	0xbd2cf31d	-0.04222404
27	0xbd8e9f09	-0.06963927
28	0xbd29b3fc	-0.041431412
29	0x3cff170d	0.031138921
30	0xbd9c8d12	-0.076440945
31	0x3bb0408d	0.005378789
32	0xbd9ccf36	-0.0765671
33	0xbd2b361e	-0.041799657
34	0xbd78ec8f	-0.060772475
35	0xbc2d8bd1	-0.010592417
36	0xbd4687f2	-0.04846949
37	0x3dc01591	0.093791135
38	0xbd5ecef9	-0.054396603
39	0xbdab173b	-0.0835404
40	0xbd11d462	-0.035602935
41	0xbd14bac2	-0.03631092
42	0x3c272dcd	0.010203791
43	0xbd5b5880	-0.053551197
44	0x3a4d72bf	0.0007837228
45	0xbbe6e546	-0.0070463745
46	0xbd6b5015	-0.05744942
47	0x3d07adbc	0.03312467
48	0x3d10df8b	0.035369437
49	0xbcbace17	-0.02280335
50	0x3bb554d4	0.005533794
51	0xbda43444	-0.080177814
52	0xbcb764aa	-0.022386868
53	0x3db4c567	0.08826714
54	0x3c59f5ab	0.013303201
55	0xbc2d5b1e	-0.010580806
56	0xbcad5c58	-0.021162197
57	0xbbbf2561	-0.0058333133
58	0xbb922cc6	-0.004460904
59	0xbc0a6be4	-0.008448575
60	0x3d6d2927	0.057900574
61	0xbd2cc3a5	-0.04217877
62	0x3bbe6712	0.005810627
63	0xbd890f3e	-0.0669236
64	0xbd7885bd	-0.060674418
65	0xbcf20a77	-0.029546006
66	0x3c854fb7	0.016273363
67	0xbd024f66	-0.031814
68	0xbd355204	-0.04426767
69	0x3a0852fc	0.0005200354
70	0xbca8b735	-0.020595172
71	0xbcef97ac	-0.029247127
72	0xbd73bd71	-0.059506837
73	0x3d393de9	0.045225058
74	0xbcdfba49	-0.027310507
75	0x3c57d559	0.013173425
76	0xbd816201	-0.06317521
77	0xbd2cdf17	-0.042204943
78	0x3dd5f262	0.104466215
79	0xbb972f04	-0.004613759
80	0xbc3ce15a	-0.011528337
81	0xbd405ae5	-0.046961684
82	0xbd37b9ad	-0.04485481
83	0xbd314563	-0.043279063
84	0xbc036601	-0.008019925
85	0xbd425892	-0.04744775
86	0xbd814887	-0.063126616
87	0x3cb9b2f2	0.022668336
88	0xbd2f31af	-0.04277199
89	0x3c204059	0.009780967
90	0xbc61e583	-0.01378763
91	0x3d096840	0.033546686
92	0xbbf4a1ae	-0.007465563
93	0xbd0378d4	-0.032097653
94	0xbca3758b	-0.01995351
95	0xbd3a300e	-0.045455985
96	0x3c296cb9	0.010340863
97	0x3bdd602b	0.006755849
98	0xbd891036	-0.06692545
99	0xbca824ec	-0.020525418
100	0xbc8625e8	-0.016375497
101	0xbcb09b2a	-0.021558363
102	0xb96918ef	-0.000222299
103	0xbd8d8ea7	-0.069119744
104	0x38d5ada4	0.000101889746
105	0xbd08913c	-0.03334163
106	0xbd96e3a2	-0.07367636
107	0xbd81f130	-0.06344831
108	0xbd80ad85	-0.06283096
109	0xbd17cece	-0.03706246
110	0xbca2c0d6	-0.019867342
111	0x3d5e801f	0.054321405
112	0x3c35a6e8	0.011087157
113	0xbd8cc568	-0.0687359
114	0xbd604f68	-0.054763228
115	0xbc21ce84	-0.009875897
116	0xbd72a3b1	-0.05923814
117	0xbc593d6c	-0.013259273
118	0xbc855ed5	-0.016280571
119	0x3cc7f999	0.02441101
120	0xbc8cf612	-0.01720718
121	0xbdb88926	-0.09010534
122	0xbd2af57e	-0.041738026
123	0x3c817874	0.015804507
124	0x3d58ec1d	0.05295955
125	0xbd899c4e	-0.06719266
126	0xbd625f85	-0.055266876
127	0xbcd9305e	-0.026512321
128	0xbd9f9b56	-0.077933
129	0x3da26fc4	0.07931474
130	0xbc6d08cf	-0.014467432
131	0x3d4a16b3	0.049338054
132	0xbd29fb8a	-0.041499652
133	0xbd4ef527	-0.050526764
134	0xbd8c03b8	-0.06836647
135	0xbcd3d9d1	-0.025860699
136	0xbd2691a9	-0.040666256
137	0xbc709e97	-0.014686248
138	0x3d3a11f9	0.045427296
139	0xbd437c00	-0.047725677
140	0xbae0391c	-0.0017106864
141	0x3d641f76	0.055694066
142	0xbd747ec9	-0.059691224
143	0xbd1b0968	-0.037850767
144	0x3a57b5cd	0.00082286895
145	0xbd3a9bc2	-0.0455587
146	0xbc5865aa	-0.013207832
147	0x3b9852f0	0.004648559
148	0xbc7f841b	-0.015595461
149	0xbcd08501	-0.025454046
150	0xbd366cce	-0.044537358
151	0xbd14a630	-0.0362913
152	0x3d737123	0.059434067
153	0xbd4c4e98	-0.04987964
154	0x3cd30200	0.02575779
155	0xbcce1091	-0.025154384
156	0xbb9e31e9	-0.004827727
157	0xbd47af68	-0.048751265
158	0xbd81654e	-0.063181505
159	0xbd0015e3	-0.031270873
160	0xbd59808e	-0.053101115
161	0xbd52f7f2	-0.05150599
162	0xbd671b75	-0.05642267
163	0xbd4f565d	-0.05061947
164	0xbd52c134	-0.051453784
165	0x3c0166c1	0.007898034
166	0xbdb3c2a7	-0.08777361
167	0xbda253f6	-0.079261705
168	0xb83b9aa5	-4.47283e-05
169	0xbd3a02dd	-0.045412887
170	0xbd0528ca	-0.032509603
171	0xbcfdd147	-0.03098358
172	0x3cdf920e	0.027291324
173	0xbce61b20	-0.028089106
174	0x3ce405a1	0.027834715
175	0xbd9a9662	-0.075482145
176	0xbd314873	-0.043281984
177	0xbd491b02	-0.049098022
178	0x3d95be63	0.07311704
179	0xbcd72ca0	-0.026266396
180	0x3ca0f1c0	0.019646525
181	0x3cf4f333	0.029901123
182	0xbcea3c45	-0.028593192
183	0xbc8d8186	-0.017273676
184	0xbc25cf99	-0.010120296
185	0xbd8953c5	-0.06705431
186	0xbd95346b	-0.072853886
187	0x3db2a849	0.08723504
188	0x3db25ba2	0.08708884
189	0x3bef2dd1	0.007299163
190	0xbc329e0a	-0.010901937
191	0x3d9ac73c	0.07557532
192	0xbc9b7161	-0.018974962
193	0xbd29869c	-0.04138814
194	0xbd43beba	-0.047789313
195	0xbd1fe88a	-0.039040126
196	0xbd0b1600	-0.033956528
197	0x3c214d57	0.009845099
198	0x3d16ada5	0.036786694
199	0x3c5ec54f	0.013596847
200	0xbd3a99b1	-0.045556728
201	0xbb829f31	-0.0039862623
202	0x3d09e49c	0.033665285
203	0x3d087c14	0.033321455
204	0xbcaadc00	-0.020856857
205	0xbcc3a076	-0.023880225
206	0xbcf732e6	-0.030175637
207	0x3db09206	0.08621602
208	0xbd3f7e5c	-0.046751365
209	0xbca3caf9	-0.019994246
210	0xbda062d1	-0.07831348
211	0xbd3dd276	-0.04634329
212	0x3b9815f3	0.0046412884
213	0x3bea5e16	0.007152329
214	0xbcc2ec4d	-0.023794318
215	0x3d995b24	0.07488087
216	0x3ac27770	0.001483662
217	0xbcb487ac	-0.02203735
218	0xbcd8c339	-0.026460277
219	0xbd7c4f89	-0.061599288
220	0xbc081a3c	-0.008307036
221	0xbcbc4994	-0.022984304
222	0xbc88d73e	-0.016704198
223	0x3da93ad1	0.082631715
224	0x3a1d5078	0.00060010655
225	0x3da2b134	0.07943955
226	0x3d8def6c	0.06930432
227	0xbd602db5	-0.05473109
228	0xbd64b999	-0.055841062
229	0xbd50cc6e	-0.05097621
230	0xbd215790	-0.039390147
231	0xbcc2e41e	-0.023790415
232	0xbd985191	-0.074374326
233	0xbcbd8891	-0.023136409
234	0xbd4ade1f	-0.049528237
235	0x3d3a41f1	0.045473043
236	0xbbef57f7	-0.0073041874
237	0xbc40a546	-0.011758154
238	0xbc353ff1	-0.011062608
239	0xbd9515d6	-0.072795555
240	0xbd33e491	-0.04391915
241	0xbca7ee98	-0.020499513
242	0xbc655638	-0.013997607
243	0xbc227b7d	-0.009917137
244	0xbb0eebc3	-0.0021808005
245	0xbd38f536	-0.045155726
246	0x3b169977	0.0022979656
247	0x3d9254f4	0.0714511
248	0x3dd0d483	0.101967834
249	0xbd79dbed	-0.061000753
250	0xbd67b8fd	-0.056572903
251	0xbd2bb822	-0.04192365
252	0xbc9a9c7c	-0.018873446
253	0xbd216a2f	-0.039407905
254	0xbc58fa3f	-0.013243257
255	0x3c9eba81	0.019376041
