checkpoint/CB/random-noise/classifier.pt (torch, 3111 bytes, 1 tensors)

linear.weight f4 [1, 512]
-0.041396867 -0.020639934 -0.002229889 -0.0068371817 -0.008350507 -0.016112171 -0.0034730225 -0.0020340616
-0.013398104 -0.04516444 -0.013449622 0.020443743 -0.0049753343 0.00351191 0.036413822 -0.021574028
-0.0066153808 -0.018004118 -0.02864488 0.021724993 -0.02206539 -0.019413598 0.03641223 -0.010491576
0.038779818 0.0029959604 -0.014908338 -0.0046291593 0.001055261 -0.0006523435 -0.040447697 0.003778144
-0.010540005 0.0031182012 0.033732936 -0.026936704 -0.021097234 -0.005247878 -0.022614418 0.0393627
0.03053749 -0.0423847 -0.016131228 0.011884321 -0.04332143 0.018532936 -0.0023380774 0.05044996
-0.011415265 0.011000792 -0.005066384 0.0013014504 0.025504662 -0.01038722 -0.039879497 -0.039549828
-0.03518052 0.031550527 -0.015528352 -0.048671592 0.007895118 0.02486369 -0.03787808 0.039562166
-0.047408093 0.015394759 0.0006706789 -0.00698805 -0.034758095 0.007347261 -0.010537603 -0.03608418
-0.018517263 -0.04365348 -0.03848098 -0.020290487 -0.010323988 -0.0153610995 0.002631221 0.036661733
0.034512363 0.043237165 -0.038019814 0.005659403 -0.0060861562 0.032105487 0.024541594 -0.03705312
-0.005015924 0.008337222 -0.014039328 -0.028167507 -0.0060387296 -0.02141442 0.03992625 0.020302122
-0.0004063696 -0.0021393143 -0.05086125 0.032381892 -0.03494536 -0.007716341 0.00394703 0.025109675
-0.03363482 0.004334182 -0.019744076 0.0017877194 0.0058145984 -0.0143774515 -0.008486928 -0.023327105
-0.0026307208 0.0015382342 0.030973356 -0.01684007 -0.01816646 0.015415363 0.029073697 -0.031697165
0.0031431282 0.01503947 0.040500388 0.0012561159 -0.008259469 -0.036164243 -0.030483434 -0.051803596
-0.023714501 0.016354958 -0.019063195 -0.030481938 0.00076495734 0.034027163 0.038952146 -0.049574398
-0.034081016 -0.019566517 -0.038106173 -0.020112509 -0.026966842 -0.043069024 -0.04340826 0.026995083
0.018607838 0.0059204497 -0.052898873 -0.0300007 -0.04941656 0.0069391374 0.041710317 -0.014596238
-0.049964342 -0.028321618 0.0047448156 -0.0006166893 0.014074118 -0.026398318 -0.0036894532 -0.009745165
-0.038975146 0.0004604337 -0.045643765 0.0020016576 0.00828869 0.03782178 -0.019859843 -0.04520267
0.03882455 -0.018871984 0.02501193 0.0423754 -0.003162092 -0.008255361 0.036915164 0.0064295195
-0.014861879 -0.034395754 0.02897309 0.04233731 0.029027581 -0.023135943 -0.026587758 -0.027199535
-0.01762417 0.016287208 -0.0019900347 0.028981006 -0.015030391 -0.013034074 0.0036970654 0.029349217
-0.0004007161 0.033213247 0.017486302 0.004579147 0.02546085 -0.028208379 -0.03711291 -0.036218077
0.03765508 0.01382983 -0.030133838 -0.03464779 -0.012000748 -0.049837995 0.012982186 -0.009743399
-0.038685232 0.02520937 0.012200499 -0.006530589 -0.024536027 -0.0025056526 -0.029723357 0.00062314695
0.0009844512 -0.00042953412 -0.03763247 0.007290645 0.054584526 -0.02772206 0.012225836 0.023636317
0.008823183 -0.014915968 -0.036608137 -0.025469571 -0.03593258 -0.027528457 0.03950681 -0.03406814
0.011329378 0.0012472958 0.03556926 -0.032657865 -0.003172311 -0.04038925 0.013973493 0.040628236
0.019098666 0.0047663916 -0.02524555 -0.0026574514 -0.013844142 0.036372356 -0.0164534 -0.0030118104
-0.049768873 -0.0023390101 0.010200308 0.005149738 -0.00028364614 0.03326013 0.040285487 0.010536011
00000000: c38f 29bd 1415 a9bc 5423 12bb 700a e0bb
00000010: 91d0 08bc acfd 83bc a69b 63bb e44d 05bb
00000020: b983 5bbc 59fe 38bd ce5b 5cbc a379 a73c
00000030: 2108 a3bb 1328 663b a926 153d 04bc b0bc
00000040: d6c5 d8bb 5f7d 93bc aba8 eabc 9df8 b13c
00000050: 7ac2 b4bc 4409 9fbc fe24 153d dce4 2bbc
00000060: 96d7 1e3d e057 443b 1a42 74bc 34b0 97bb
00000070: af50 8a3a 0802 2bba 7cac 25bd bd9a 773b
00000080: fcaf 2cbc bc5a 4c3b 8c2b 0a3d 5daa dcbc
00000090: 1bd4 acbc 64f6 abbb df41 b9bc c83a 213d
000000a0: c229 fa3c 949b 2dbd a325 84bc 75b6 423c
000000b0: d071 31bd 62d2 973c 6e3a 19bb 9ea4 4e3d
000000c0: 1707 3bbc aa3c 343c e903 a6bb 6e95 aa3a
000000d0: 27ef d03c 292f 2abc af58 23bd 00ff 21bd
000000e0: 7319 10bd 203b 013d a16a 7ebc dd5b 47bd
000000f0: 865a 013c f0ae cb3c 0c26 1bbd f00b 223d
00000100: fd2e 42bd 4d3a 7c3c 80d0 2f3a 03fc e4bb
00000110: 815e 0ebd 4bc1 f03b e9a5 2cbc 01cd 13bd
00000120: 84b1 97bc fecd 32bd 3b9e 1dbd 3c38 a6bc
00000130: f225 29bc 1fad 7bbc 9070 2c3b 9d2a 163d
00000140: d65c 0d3d 7419 313d aaba 1bbd 8372 b93b
00000150: 616e c7bb 0b81 033d 740b c93c 03c5 17bd
00000160: 9f5c a4bb d898 083c 3605 66bc 8bbf e6bc
00000170: 89e0 c5bb 4b6d afbc b589 233d a350 a63c
00000180: 010e d5b9 bd33 0cbb e353 50bd e0a2 043d
00000190: de22 0fbd 5cd9 fcbb 1656 813b ceb2 cd3c
000001a0: aac4 09bd c105 8e3b 54be a1bc e951 ea3a
000001b0: 6388 be3b 678f 6bbc c20c 0bbc 7c18 bfbc
000001c0: 2c68 2cbb 939e c93a d6bb fd3c 30f4 89bc
000001d0: d4d1 94bc b890 7c3c f62b ee3c e3d4 01bd
000001e0: f1fc 4d3b 1c68 763c bce3 253d 41a4 a43a
000001f0: b952 07bc f520 14bd 65b8 f9bc 0230 54bd
00000200: ea44 c2bc d5fa 853c 6b2a 9cbc 42b5 f9bc
00000210: 6b87 483a 1160 0b3d 498c 1f3d 860e 4bbd
00000220: 8998 0bbd f649 a0bc 3815 1cbd fdc2 a4bc
00000230: 91e9 dcbc 2569 30bd dccc 31bd cb24 dd3c
00000240: 776f 983c 5500 c23b 7dac 58bd 07c4 f5bc
00000250: 0569 4abd b461 e33b 70d8 2a3d 0f25 6fbc
00000260: 69a7 4cbd bd02 e8bc 667a 9b3b 52a9 21ba
00000270: 2197 663c 4941 d8bc c1ca 71bb 2faa 1fbc
00000280: 67a4 1fbd 5d66 f139 f5f4 3abd 3e2e 033b
00000290: 49cd 073c 03eb 1a3d 1cb1 a2bc 6f26 39bd
000002a0: 7e06 1f3d 6b99 9abc d2e5 cc3c d491 2d3d
000002b0: 1a3b 4fbb 7e41 07bc 5b34 173d b8ae d23b
000002c0: 3d7f 73bc 90e2 0cbd f958 ed3c e369 2d3d
000002d0: 40cb ed3c 9787 bdbc 92ce d9bc 8fd1 debc
000002e0: 9060 90bc c06c 853c 3e6b 02bb 9369 ed3c
000002f0: 0742 76bc de8c 55bc 774a 723b c56d f03c
00000300: 3417 d2b9 9d0a 083d 6f3f 8f3c ab0c 963b
00000310: 4693 d03c 4215 e7bc b503 18bd 6859 14bd
00000320: 373c 1a3d 8396 623c 3ddb f6bc d7ea 0dbd
00000330: c99e 44bc ed22 4cbd 3cb3 543c c7a2 1fbc
00000340: 6874 1ebd e183 ce3c 9ae4 473c 8dfe d5bb
00000350: c7ff c8bc e035 24bb 667e f3bc af5a 233a
00000360: b308 813a 1833 e1b9 8124 1abd 5de6 ee3b
00000370: 0694 5f3d 6019 e3bc df4e 483c f3a0 c13c
00000380: 1d8f 103c 1b62 74bc 6af2 15bd 90a5 d0bc
00000390: 0a2e 13bd 5c83 e1bc e5d1 213d 098b 0bbd
000003a0: db9e 393c 4d7c a33a 13b1 113d 41c4 05bd
000003b0: 8ce6 4fbb 336f 25bd 14f1 643c cb69 263d
000003c0: ce74 9c3c 642f 9c3b c1cf cebc a328 2ebb
000003d0: 8ad2 62bc 2efb 143d 48c9 86bc cb61 45bb
000003e0: 72da 4bbd 144a 19bb 311f 273c 22bf a83b
000003f0: 57b6 94b9 c63b 083d 6502 253d 3c9f 2c3c
