checkpoint/CB/interpolate/classifier.pt (torch, 3111 bytes, 1 tensors)

linear.weight f4 [1, 512]
0	0xbc23b882	-0.009992721
1	0xbd45e86c	-0.048317358
2	0xbcb4dce3	-0.022077983
3	0xba9b4fdb	-0.001184936
4	0x3c9b81ea	0.018982846
5	0xbc1789f9	-0.009249204
6	0x3b261561	0.0025342333
7	0xbcd1259e	-0.025530633
8	0x3cf401d7	0.029786034
9	0xbd3bd2a6	-0.045855187
10	0xbd09e5d5	-0.03366645
11	0xbab053f4	-0.0013452754
12	0xbd39d083	-0.045364868
13	0xbcf29fe1	-0.029617252
14	0x3bf8af1f	0.0075892354
15	0x3c30020c	0.0107426755
16	0xbb281ede	-0.0025653164
17	0xbcccc46e	-0.024996009
18	0xbd5f83a1	-0.05456889
19	0x3c1620e6	0.009163117
20	0xbd58b8f4	-0.05291076
21	0x3b58f4ed	0.0033104972
22	0x3ccaa739	0.024737941
23	0xbcea9391	-0.028634818
24	0x3cab729b	0.020928672
25	0xbb519b54	-0.0031983452
26	0xbd660578	-0.05615756
27	0xbbb69611	-0.0055720885
28	0xbbe3921d	-0.0069449083
29	0xbb7dec52	-0.0038745594
30	0xbbf4f3ae	-0.007475338
31	0x3ab67b50	0.0013922248
32	0xbc6c0594	-0.014405627
33	0xbd2e0e48	-0.04249409
34	0x3c3da0b0	0.011573955
35	0xbd109871	-0.03530163
36	0x3b8a8653	0.0042274385
37	0xbb0be6c5	-0.0021347266
38	0xbc7747ed	-0.015092832
39	0xbbfa0ab9	-0.007630673
40	0x3cc40dd2	0.023932371
41	0xbcece8f2	-0.02891967
42	0xbbe86275	-0.007091815
43	0x3c8a9a19	0.016919183
44	0xbcb5f8e3	-0.022213405
45	0x3cfd9130	0.03095302
46	0xbd2afc91	-0.041744772
47	0x3d1a4504	0.037663475
48	0xbd01f7ae	-0.031730346
49	0x3d1ac3b1	0.037784282
50	0xbcb486c1	-0.022036912
51	0xbcaa96ac	-0.0208238
52	0x3c3fc478	0.011704557
53	0xbafb50c7	-0.0019173854
54	0xbc2b9735	-0.010473062
55	0xbc2ceb50	-0.01055415
56	0xbc6b2caf	-0.014353915
57	0x3c185b78	0.009299152
58	0x3b191d64	0.0023363465
59	0xbd4ac7bb	-0.049506884
60	0x3c5c029e	0.013428358
61	0x3c0f3793	0.008741277
62	0xbd261cb7	-0.04055473
63	0x3cc4388a	0.023952741
64	0x3b4c7281	0.003119618
65	0x3c83c4da	0.016085077
66	0x3b5b1899	0.003343141
67	0x3cfecef6	0.031104546
68	0xbd546fbb	-0.051864367
69	0x3d407a82	0.046991833
70	0xbd049dad	-0.032376934
71	0xbc14c03e	-0.009079037
72	0xbd115f0a	-0.035491027
73	0xbbf161d3	-0.007366398
74	0xbd1fa5b2	-0.03897638
75	0xbc7d0baf	-0.01544468
76	0xbd052ff2	-0.032516427
77	0xbd0ea4a0	-0.034824967
78	0x3cd76549	0.026293414
79	0x3d31b6e6	0.043387316
80	0x3c050053	0.008117753
81	0x3c783e1f	0.01515153
82	0xbd64a2aa	-0.05581919
83	0xbaa2d03b	-0.0012421677
84	0xbd385f28	-0.045012623
85	0x3c94e4b8	0.018175468
86	0xbb15213d	-0.0022755407
87	0xbd48c6ec	-0.04901783
88	0xbbe117c5	-0.0068692886
89	0xba94a44d	-0.0011340469
90	0xbbe3a0a0	-0.006946638
91	0xbd503cbb	-0.050839167
92	0xbc73d98c	-0.01488341
93	0xbc1002f3	-0.008789766
94	0x3d4b67e9	0.049659643
95	0x3c3049c0	0.010759771
96	0x3d15e8fe	0.03659915
97	0x39edd4d4	0.00045362732
98	0xbd4c5eda	-0.049895145
99	0x3c4bbdeb	0.012435417
100	0xbcb39dc4	-0.021925814
101	0xbc2d6fba	-0.01058572
102	0x3d1a9d08	0.037747413
103	0x3b4a1e56	0.0030840836
104	0xbb36d13b	-0.0027895707
105	0x3ce68758	0.028140709
106	0xbcf31d83	-0.029677158
107	0xbc042bcf	-0.008067085
108	0xbc76be21	-0.015059979
109	0xbc835efa	-0.0160365
110	0x3ac8d2c5	0.0015321603
111	0xbd1fa175	-0.038972337
112	0x3c302f25	0.010753428
113	0xbd0e1b98	-0.034694284
114	0xbb54e56e	-0.0032485384
115	0xbbbef453	-0.0058274656
116	0xbd00943e	-0.031391375
117	0x3d1a40ae	0.03765934
118	0x3c29d031	0.010364578
119	0xbd286a13	-0.041116785
120	0x3d145618	0.036214918
121	0x3d111327	0.035418656
122	0xbb93a3c1	-0.004505605
123	0x3a065da3	0.00051256473
124	0x3cb26744	0.021777757
125	0xbd332a88	-0.043741733
126	0xbc892f23	-0.01674611
127	0xbac0cb75	-0.0014709072
128	0xbd1c29a7	-0.03812566
129	0xbb28106f	-0.002564456
130	0xbd148de3	-0.036268126
131	0xbd11c7ed	-0.035591055
132	0x3d249e75	0.04019018
133	0x3d05a7d9	0.032630775
134	0x3d04906b	0.03236429
135	0xbce729a7	-0.028218104
136	0xbcaaffda	-0.020873953
137	0xbca5838d	-0.02020433
138	0xbcb8858e	-0.022524621
139	0xbce4c450	-0.02792564
140	0x3c03ed8b	0.00805224
141	0xbd28faec	-0.041254923
142	0xbd4893e4	-0.048969164
143	0x3d3eccf0	0.046582162
144	0x3ca8773e	0.020564672
145	0x3990b7e6	0.00027602835
146	0xbc32dc4f	-0.0109167835
147	0xbd1c48cc	-0.038155362
148	0xbc9461e8	-0.018113092
149	0x3d514f05	0.05110075
150	0x3d245950	0.040124238
151	0xbc4142fb	-0.011795755
152	0xbd4356df	-0.04769027
153	0xbc0e538a	-0.008686909
154	0x3ac11a5b	0.0014732586
155	0xbcb7a8fe	-0.022419449
156	0xbc592bb4	-0.013255049
157	0xbc677927	-0.014128006
158	0x3c80342d	0.01564988
159	0xbccd01b8	-0.025025234
160	0xbb872156	-0.004123847
161	0x3c5ee9f8	0.013605587
162	0xbd0f47cd	-0.034980584
163	0xbc1d44dd	-0.009598938
164	0xbcff5223	-0.031167096
165	0x3d2b4ed6	0.04182323
166	0xbba50126	-0.0050355373
167	0xbd537857	-0.051628437
168	0x3b76ae7c	0.0037640622
169	0xbb96543a	-0.0045876773
170	0x3d3ce550	0.046117127
171	0x3cb69ebd	0.02229249
172	0x3c3a8c6b	0.011386017
173	0x3c76aa62	0.015055271
174	0x3cee5210	0.029091865
175	0x3d205554	0.039143875
176	0x3a9700a0	0.0011520572
177	0xbc8efa08	-0.017453209
178	0xbbcec358	-0.006309908
179	0xbbf774d4	-0.007551769
180	0x3cb00cb5	0.021490434
181	0xbc238633	-0.009980726
182	0xbd31274c	-0.043250367
183	0xbbe036b5	-0.006842459
184	0xbd49be2d	-0.04925363
185	0xbbb81359	-0.005617541
186	0x3ce09ae9	0.027417617
187	0x3cf935c9	0.030421155
188	0xbcfced5a	-0.030874897
189	0xbd22294a	-0.039590158
190	0xbb6e38da	-0.0036349804
191	0x3cc1cd66	0.023657512
192	0xbd2bee03	-0.041975033
193	0x3d23fe46	0.040037416
194	0x3d283be4	0.04107274
195	0xbcffbd94	-0.031218328
196	0x3c128162	0.00894198
197	0xbbe82ab0	-0.007085167
198	0xbbf03cb1	-0.0073314537
199	0x3c72d714	0.014821786
200	0x3a8d26e4	0.0010769037
201	0x3916a0b2	0.00014364978
202	0xbc17867a	-0.00924837
203	0xbcf99ef5	-0.030471304
204	0xbbe0c918	-0.0068599097
205	0xbd3f7c18	-0.046749204
206	0x3bcb49d5	0.00620387
207	0xba97d127	-0.0011582718
208	0xbc2c1bf0	-0.010504708
209	0x3d6a9423	0.05727018
210	0xbc3e7c55	-0.011626323
211	0xbba06c5b	-0.0048957295
212	0xbd550142	-0.052003153
213	0xbd4aa5c5	-0.049474496
214	0xbc4fab71	-0.012675152
215	0x3b7b98b3	0.0038390576
216	0x3d38e6fc	0.04514216
217	0xbbe0d4aa	-0.006861289
218	0x3aed8132	0.0018120168
219	0xbd341ee5	-0.043974776
220	0x3c505872	0.0127163995
221	0xbd19b73c	-0.03752826
222	0x3c89a70a	0.016803283
223	0x3cc0eb89	0.023549812
224	0x3c91da90	0.017804414
225	0xbbf0ece1	-0.007352457
226	0xbbde3af7	-0.0067819315
227	0xbd18c236	-0.03729459
228	0xbcad4888	-0.02115275
229	0x3bc46b67	0.0059942487
230	0x3bd16d3b	0.006391195
231	0x3b1232d3	0.0022308126
232	0xbbcdec2b	-0.006284257
233	0xbd49c39c	-0.049258813
234	0x3cba3434	0.02272997
235	0xbd62eb53	-0.055400204
236	0xbb28d93f	-0.0025764254
237	0xbd36aa45	-0.044595975
238	0x3c198b57	0.0093716
239	0x3ced37b3	0.028957224
240	0x3d012bb7	0.03153583
241	0xbb078b92	-0.0020682556
242	0xbcf96895	-0.030445376
243	0x3c8e134d	0.017343188
244	0x3b46ef90	0.0030355193
245	0x3c45ac46	0.012064999
246	0xbcf4ed0b	-0.029898187
247	0xbc7adee5	-0.015311931
248	0xbb03f93a	-0.0020137564
249	0x3ac4f134	0.0015025497
250	0x3bd2c829	0.0064325524
251	0xbd118c08	-0.035533935
252	0x3972f42a	0.00023169877
253	0x3cdfb18d	0.027306342
254	0x3d0a8fdc	0.0338286
255	0xbd05a0ce	-0.03262406
