checkpoint/Base/extrapolate-inter/classifier.pt (torch, 3111 bytes, 1 tensors)

linear.weight f4 [1, 512]
000000 98 a7 c9 3d 0a dd a8 3c 8b 52 9c bd 64 33 22 bf
       0.09846419 0.020613212 -0.07632931 -0.63359666
000010 4e 03 18 bc d3 8d bb 3c 1d a3 2c 3f 46 bc 3a bd
       -0.009278132 0.022894775 0.6743639 -0.045589708
000020 ed db 06 3f 23 59 25 3e 05 6d 89 bc 24 a4 c1 bd
       0.5267933 0.16147284 -0.016775617 -0.094551355
000030 7d 92 d0 bd 74 37 c0 3c eb 66 62 3e fd e7 0b 3e
       -0.101841904 0.023463942 0.22109573 0.13662715
000040 30 c0 bc bd b8 c0 2c 3e 08 c0 d9 bd c0 a3 d2 be
       -0.09216344 0.16870391 -0.1063233 -0.41140556
000050 1c 08 b5 3d f5 3a 8e bd 24 08 ba bd dd 43 86 bd
       0.08839437 -0.06944839 -0.09083584 -0.06555913
000060 d8 8c dc 3d fd 43 44 3e fb 69 1a 3d 7d 5e 23 be
       0.10769051 0.1916656 0.037698727 -0.15954013
000070 71 55 9b 3d 5c 76 06 be c8 43 1a bd 5d 5e 8f bd
       0.07584656 -0.13131088 -0.037662297 -0.0700042
000080 e9 87 ea 3d 8d ac a5 bc c1 9a 2c be 0a da 3b bd
       0.11451704 -0.02022388 -0.16855909 -0.045862235
000090 45 4f 67 bb 7f 54 88 3d 8b 88 24 3c 12 ff 40 3e
       -0.003529505 0.06656741 0.01004232 0.18847302
0000a0 38 f7 b3 3e 72 3a 1b bd ec bc 49 3e d1 5b 60 be
       0.3514955 -0.037897535 0.19700974 -0.21910025
0000b0 65 7c 87 3d 61 fe 98 3e fb c5 fe 3d e5 6e 30 be
       0.06615523 0.29881576 0.124401055 -0.17229803
0000c0 66 31 44 be a7 73 e2 bb bd 80 f5 3d 84 73 5e 3d
       -0.19159469 -0.0069107595 0.119874455 0.054309383
0000d0 7b 79 97 3d 6f e1 13 3e 11 8e 79 3d bd 75 8b bc
       0.073962174 0.14441465 0.0609265 -0.017023915
0000e0 a3 e0 4f 3e ed 9a 08 be ea 02 9a bd dc 47 13 be
       0.20300536 -0.1334035 -0.07520087 -0.14382881
0000f0 e3 d9 75 bc dd 5b 0b 3e 2a ee 11 be 37 81 9a bd
       -0.0150055615 0.13609262 -0.14251009 -0.07544177
000100 3e 07 0c 3f 08 c8 1d 3e 25 bc 9f 3d a3 20 2e 3e
       0.5469855 0.15408337 0.077995576 0.17004637
000110 df 4c 0c be 2e db 40 bc 0c 8b f8 bd 63 e3 21 bd
       -0.13701199 -0.0117710065 -0.12135896 -0.039523493
000120 f3 a2 fb 3d 87 cf 88 3e e0 a8 49 3d 15 2c e9 bc
       0.122869395 0.2672083 0.049233317 -0.028463403
000130 ef 0d 85 be 25 20 22 bd a7 1e b1 bd 6a cb 84 bc
       -0.25987193 -0.039581437 -0.086484246 -0.016210277
000140 dd 1d 05 bd 9c 7a c6 bd f7 18 1b 3c 02 3f 96 3d
       -0.032499183 -0.09691355 0.009466401 0.073362365
000150 28 0e 19 3e a8 ed d6 bd cc ac b1 3a 11 e3 c1 3e
       0.14946806 -0.10494548 0.0013555526 0.3786855
000160 ee 08 f9 3d bd ba 06 3b 89 42 c3 3c 0d 71 b7 bd
       0.12159906 0.0020558082 0.023835437 -0.089571096
000170 6b 05 84 3d b2 19 7b 3d f3 3a c0 bd df 2b f6 bd
       0.06446346 0.0613038 -0.09386244 -0.120200865
000180 af c1 97 3d f9 67 a4 3c 4e ab e1 bd 78 a5 ff be
       0.07409989 0.02006911 -0.11019002 -0.4993093
000190 f9 44 9c 3d 83 b7 eb bc fd 19 df bc 5d 68 23 be
       0.07630343 -0.028774029 -0.027234072 -0.1595778
0001a0 38 fe 3c bd bc 61 17 3d e8 97 c1 bc bb be c5 ba
       -0.04614088 0.03695844 -0.023632005 -0.0015086749
0001b0 09 be e1 bd 79 c1 b0 bd a9 3e 3f 3d be d0 64 3d
       -0.110225745 -0.08630652 0.046690617 0.055863135
0001c0 67 32 ab 3e 24 1a 16 bd e0 20 58 be c1 e1 0b 3f
       0.3343689 -0.036646023 -0.21106291 0.5464135
0001d0 e9 c9 7c bd e6 27 d4 bd 8e cf 0f be eb 39 93 bc
       -0.061715994 -0.103591725 -0.1404402 -0.017971953
0001e0 2d f0 99 bd 08 cc 97 3d b3 d5 28 3c cd 86 18 be
       -0.07516513 0.07411963 0.010304856 -0.14895172
0001f0 e2 38 03 3d c2 f1 3a 3e b5 aa 15 3d 8e a4 3f 3e
       0.03203667 0.18256286 0.036539752 0.18715116
000200 b5 6b 21 3f 52 0f fa bb c7 6f 8f bc 42 15 aa 3c
       0.6305497 -0.007631221 -0.017509354 0.02076209
000210 6b 06 21 bd 5b ff 74 3e 9b 3b f7 bd 61 ac 46 3d
       -0.03931276 0.23925535 -0.12071916 0.048504237
000220 a8 ee e4 bd db 96 68 be 09 40 fd bd a4 bb 5d bc
       -0.111783326 -0.22713797 -0.12365729 -0.013533507
000230 40 f9 6d be 56 49 bd bc 2f ac b8 3d a0 ae dd 3d
       -0.23239613 -0.023106258 0.090172164 0.10824323
000240 d5 80 02 3c 43 2c 73 bd 3d 11 aa 3d 26 93 d1 bd
       0.007965286 -0.059368383 0.08304069 -0.102331445
000250 a1 14 a1 3d 8a 8e 14 3a e1 0b 9d 3d 4b ec ac bd
       0.07865263 0.0005666992 0.07668281 -0.08443507
000260 56 ce 3e 3e ef e1 27 bd c8 56 38 be ac 0a 87 3e
       0.18633398 -0.04098695 -0.18001854 0.2637533
000270 02 45 09 bd 73 fe 0f 3d fc ac af bc d8 57 7e 3d
       -0.033513077 0.03515477 -0.02144479 0.062095493
000280 05 da a7 bd 40 5f da 3d 64 59 3f be 71 ac fd bc
       -0.08195881 0.10662699 -0.18686444 -0.030966016
000290 c4 cd 6c bd cb 2c b5 3d d3 0a 31 3c d6 da c1 3d
       -0.05781342 0.08846434 0.010805803 0.09465568
0002a0 34 bd 6c 3e dc d1 92 3e 1e 24 3a be 4e 77 29 be
       0.2311905 0.28675735 -0.1817784 -0.16549417
0002b0 a1 8c ed 3d ab fd 07 bd 81 aa 45 3c 6c ac d4 bd
       0.115990885 -0.0332009 0.012064577 -0.10384449
0002c0 18 6e b7 3d b8 dc f0 bc a7 8a 98 bd 9c 02 08 be
       0.089565456 -0.029402122 -0.07448321 -0.13282245
0002d0 b1 28 3b 3e 2e 89 8f 3d a9 5f b3 3e 8b 8b 79 be
       0.18277241 0.07008587 0.3503392 -0.24369638
0002e0 b4 b9 46 3e 75 9f e6 bc 02 c0 1c 3e d2 97 55 be
       0.19406778 -0.028152207 0.1530762 -0.20858696
0002f0 14 b4 04 be c0 45 21 bd cf 37 a0 bc e2 11 5f 3f
       -0.1295932 -0.03937316 -0.019557862 0.8713666
000300 35 32 07 be 1d 01 e0 bd 7e 22 fe 3c 50 97 28 3b
       -0.13202746 -0.10937712 0.031022307 0.0025724955
000310 43 04 57 3e 5d 79 02 3e 29 8a eb 3d 3e 82 a7 3b
       0.2099772 0.12741609 0.11500961 0.0051119616
000320 87 cf 44 be 8a ef 02 bc 58 d6 28 be 67 de c0 bc
       -0.1921979 -0.007991681 -0.16488016 -0.02354355
000330 bd 37 80 3d e7 e0 e9 bd 9a 08 ec bc 6f fc 66 3d
       0.06260631 -0.1141985 -0.028812695 0.056393083
000340 51 ad eb bd 50 66 e5 3d 65 30 06 3e a0 03 63 bd
       -0.11507667 0.11201155 0.13104399 -0.05542338
000350 f1 40 34 be 7c ba a0 be c0 80 27 3e bc ab 34 3f
       -0.17602898 -0.31392276 0.16357708 0.70574546
000360 17 31 5d bc ec 35 28 bd f7 29 c3 3d 75 5c 4b 3d
       -0.013500473 -0.04106705 0.095294885 0.04964872
000370 ea 65 c4 3e ec dd 50 bd 1d 77 2d bd e5 03 75 3c
       0.38359004 -0.05099289 -0.042349923 0.014954542
000380 48 cb e2 3d b2 dc 31 3d b2 95 95 3d bd 79 e2 bd
       0.11073929 0.043423362 0.07303943 -0.11058376
000390 a0 33 17 3e 85 eb c7 3c 59 62 0e 3f 61 82 25 3e
       0.14765787 0.024404297 0.55618817 0.16163017
0003a0 7c 8d 74 3d b7 21 89 3e 8a 77 8e ba 59 3f 81 bd
       0.059705243 0.26783535 -0.0010869366 -0.06310911
0003b0 15 e5 32 3e f3 47 b6 3e 0a 8b 2e 3e 42 47 8b 3d
       0.174702 0.35601768 0.17045227 0.06800701
0003c0 4a c5 18 3f ed 69 51 3d 11 d0 76 3c 05 f9 64 3d
       0.5967604 0.05112641 0.015064255 0.055901546
0003d0 05 e1 26 bd 7b 91 5a 3d 48 b4 1e be db b8 1c be
       -0.04074194 0.053361397 -0.1549846 -0.15304892
0003e0 24 1f 95 bb 6c 5f 9a bd e5 3e 33 be 0e 3a 0c 3f
       -0.0045508314 -0.075377315 -0.17504461 0.54776084
0003f0 03 48 d3 bc 75 e2 4d be 5e 2e 3a bd 00 2f ae bc
       -0.025791174 -0.20105918 -0.045454375 -0.021262646
