checkpoint/US/classifier.pt (torch, 3111 bytes, 1 tensors)

linear.weight f4 [1, 512]
000000 b6 c2 6e be 7b 13 1c be cc 95 03 3e 72 54 9a 3e
       -0.23316464 -0.15241806 0.12850112 0.30142552
000010 06 1f 6a bc 62 60 a4 3e 9a 7b 38 bd be c9 73 bd
       -0.014289623 0.32104784 -0.04503975 -0.05951857
000020 fe 8b 2c be 30 d0 75 bd b5 19 bf bd 8f ff 5d 3e
       -0.16850278 -0.060012996 -0.09331075 0.21679519
000030 24 d6 d4 3d 5d d7 71 bd e1 e9 94 3d b3 f4 84 3e
       0.103924066 -0.059043277 0.07271171 0.2596794
000040 1a 1a 74 be dd 41 fe bc 0f 3d 9c 3c e6 32 84 3b
       -0.23838082 -0.031037265 0.019072084 0.004034388
000050 6c ea d5 3d 28 3e 03 be 22 aa 39 bd c2 42 d7 bd
       0.10445103 -0.1281668 -0.045328267 -0.1051078
000060 ec e3 12 3d a9 fb 74 3d 54 2d 14 3d c1 53 81 be
       0.035861894 0.059810314 0.03617604 -0.25259212
000070 d5 8f 95 bd 75 a9 e0 3c 3a 6f 8f 3d 15 7b 1e bd
       -0.073028244 0.027424553 0.07003637 -0.0386916
000080 4a 71 13 3d de 53 14 be f1 39 cb bd 67 44 69 be
       0.035996713 -0.14485118 -0.09923161 -0.2278
000090 e6 90 be 3d 7c ec c9 3c b6 5e 64 bd c2 95 cb bc
       0.09304981 0.024648897 -0.055754386 -0.024851684
0000a0 06 ac 9b 3d 9b 32 28 be 52 6b 6a be c4 bd 2e 3e
       0.0760117 -0.16425554 -0.22892502 0.17064577
0000b0 e7 79 1d 3c 3d ce 42 3d be 7e 92 be 1e 2c 8e 3d
       0.009611583 0.047559965 -0.28612322 0.069420084
0000c0 32 ef 6b 3d 70 65 67 bb c5 2d 7b 3e 18 74 2a bd
       0.05760116 -0.0035308264 0.24529178 -0.041614622
0000d0 a2 fe 6a be 00 7e ac 3e 19 af da bd 77 47 ea 3d
       -0.22948697 0.3368988 -0.106779285 0.11439412
0000e0 68 23 49 be 05 60 27 be b0 cf 1b bd fc 01 dd bd
       -0.19642413 -0.16345222 -0.038039863 -0.10791394
0000f0 1f ba 1f bc 91 d7 8c 3d f9 e5 e3 3c 2d 08 db bd
       -0.009748965 0.068770535 0.02781962 -0.10694919
000100 7c 1d 5a ba 3d 6c 6d 3c f3 07 fb 3d 44 37 49 3e
       -0.00083204336 0.014491138 0.122573756 0.19649988
000110 ab 46 48 bd 0b 46 05 be 31 93 13 3d 0f 06 0b 3d
       -0.04889552 -0.13015 0.036029045 0.033941325
000120 3a 9f 51 3e 8d 22 47 be 11 df 81 bc 3d ba ec bc
       0.20470896 -0.19446774 -0.015853437 -0.0288974
000130 0f c2 5d 3c 03 b1 87 be 06 39 05 3e 0c cc dc 3d
       0.013535037 -0.26502237 0.13010034 0.10781106
000140 1b c3 3c be 4b bc cf 3d c0 22 2b 3d 23 7e 58 be
       -0.18433802 0.10143336 0.041781187 -0.21141867
000150 0f 65 09 be 39 b4 82 3d 52 91 e3 bd 3d 60 c3 bc
       -0.13417457 0.06382031 -0.11111702 -0.0238496
000160 ea af 04 3d 59 34 1a 3d 6a f0 dd 3c e9 dd 91 3d
       0.032394327 0.03764758 0.027092177 0.07122404
000170 fd a4 42 be 14 e4 16 3e 51 20 92 3d 75 d2 f6 3d
       -0.1900825 0.14735442 0.0713507 0.1205186
000180 d2 ef 55 3d a8 b8 c7 bd 02 06 a9 bd 9f 44 58 3e
       0.052230664 -0.09752017 -0.08253099 0.21119927
000190 5f 65 60 bd 7d 66 26 3e 4c 87 e4 bd 7d 2b 90 bd
       -0.054784175 0.16250034 -0.11158618 -0.07039545
0001a0 ed 65 f3 3c bc 4d 0f be 1e 79 90 3c 4b 97 e4 3d
       0.029711688 -0.13994497 0.017635878 0.11161669
0001b0 de 5d 84 bd 8a b0 c7 bc 47 08 9b bd ed 2d 47 3d
       -0.06463216 -0.024376173 -0.07569938 0.048627783
0001c0 3d 7a 3f bd 09 99 90 3d 62 ec bc bc a3 e0 38 bd
       -0.046747435 0.07060439 -0.023061935 -0.045136105
0001d0 88 5b 99 bb 3f bb 3a 3e 97 bd d6 3d 3a 16 ec 3d
       -0.004680101 0.18235491 0.1048538 0.11527677
0001e0 0d 37 f1 3d 8f d8 58 3e b9 7b 4e be 20 e9 1a 3b
       0.11778078 0.2117636 -0.20164384 0.0023637488
0001f0 b7 a1 9e bd b9 d2 24 3c 54 22 48 bd ca 24 f9 bd
       -0.077456884 0.010060006 -0.048860863 -0.1216522
000200 0e 1b 2a bc a3 d4 94 bd bd 49 0b bd a8 53 09 be
       -0.010382427 -0.0726712 -0.03400587 -0.13410819
000210 62 fa 29 3e a2 f9 04 3e 28 2d b9 bd 35 4f 1d be
       0.1659942 0.12985852 -0.09041816 -0.15362246
000220 02 00 e7 bd 63 86 19 bd ec 8c 51 3d 44 2a 58 be
       -0.11279298 -0.037481677 0.051159784 -0.21109873
000230 71 37 90 3c b2 4f b1 3d 58 f8 3b bd 04 0b 9a 3e
       0.017604562 0.08657779 -0.045891136 0.3008653
000240 a3 a0 1b be 4d fc fa bd cc 97 5a be 2b b0 93 3d
       -0.15197997 -0.12255154 -0.21346968 0.07211336
000250 41 7c a2 3e ee ae ae bc 0a 13 26 be 9e 01 12 3c
       0.31735423 -0.021323647 -0.162182 0.008911518
000260 f8 34 15 be 06 7e 19 be f0 89 ff bc 16 b4 74 3d
       -0.14570987 -0.1498948 -0.031193703 0.059742056
000270 51 65 cf 3c 07 07 79 be ad c6 82 3d 7e 22 c7 bd
       0.025316866 -0.24319087 0.06385551 -0.09723376
000280 3b e4 ed bd 5f 9e 16 bd 75 5e a0 3d 0c 44 29 bc
       -0.11615797 -0.03677213 0.07830516 -0.010331165
000290 02 d5 a3 bd 36 39 dd 3c d9 74 95 3d 3b e7 84 bc
       -0.079996124 0.02700482 0.072976775 -0.01622354
0002a0 e6 79 7b 3e f2 1a 2f 3e f0 30 e6 3d b8 b5 a3 3d
       0.2455822 0.17100123 0.11239803 0.079936445
0002b0 26 44 ad 3c 29 94 ce 3d 40 1b 45 3d ce c1 fa 3c
       0.02115066 0.10086853 0.04812169 0.030609991
0002c0 b1 58 23 be 66 20 ce 3b f3 bd 1b bd 51 02 b8 3d
       -0.15951802 0.0062904833 -0.038022947 0.08984817
0002d0 f8 49 5f 3d 18 e5 64 bd f9 d0 c3 3d 34 09 f5 3d
       0.0545139 -0.055882543 0.09561343 0.11964646
0002e0 e3 4c 40 be 9b 2c 4b 3d 62 27 17 3d 50 1d 90 bd
       -0.1877933 0.049603086 0.036902793 -0.07036841
0002f0 3f a0 72 3c 42 11 c2 3d f9 a7 2d 3d 0c 68 45 3c
       0.014808713 0.09475948 0.04239652 0.0120487325
000300 da 92 3c be 90 8e 8a bc 0d e6 cc bd 95 8d 00 3e
       -0.18415394 -0.016913682 -0.10004816 0.1255401
000310 fb 0d 55 bd 61 e9 c1 3d eb ff 45 be 05 8f 39 be
       -0.052015286 0.094683416 -0.19335906 -0.18120964
000320 07 05 10 3d a7 74 f0 bd 10 96 15 be 19 8e e7 3d
       0.035161044 -0.11741 -0.14608026 0.113064
000330 a7 0f bb 3d 62 47 f5 3d 01 c0 83 bb 2d c8 03 bd
       0.09133845 0.11976506 -0.0040206914 -0.032173324
000340 2c f7 52 3d b2 60 3d be 8b 25 f8 3c ae cf 3e 3d
       0.051505253 -0.18493918 0.03029134 0.046584778
000350 3c 81 8a 3c 9a 14 36 be de 8e 5e 3d 5e a4 ba 3d
       0.016907327 -0.17781296 0.054335468 0.09113382
000360 76 59 5c 3d 4f a7 b5 bd 6c 97 1f be 2d 23 4a be
       0.053796254 -0.08869802 -0.15585107 -0.19739981
000370 3d 76 05 3e dd fd 09 3d 2e 25 89 bd 21 18 5e bd
       0.13033386 0.03368937 -0.066965446 -0.05422223
000380 f7 2a 2a be 9c fa b8 bd 03 d3 17 3e 1f 07 ed bd
       -0.16617952 -0.09032175 0.14826588 -0.11573624
000390 60 34 28 bc d2 bc 9e bd 8b f7 04 3e f8 12 c7 3b
       -0.010266393 -0.07750858 0.12985055 0.0060752593
0003a0 35 a0 c6 3c eb 79 0f 3d ba 7d 3b ba a7 dc 0c be
       0.024246315 0.03502838 -0.00071522186 -0.13756047
0003b0 7a 29 8f be 3e 93 c3 3c ca 29 19 be 23 9f 51 bd
       -0.27961332 0.023873921 -0.14957348 -0.051177155
0003c0 56 75 0e 3e bf 53 7f bc c3 d7 d4 3d 24 71 c2 bd
       0.13911948 -0.0155839315 0.10392716 -0.09494236
0003d0 fd 93 f7 bd dd 85 ca 3d 85 3f 06 be 51 a6 d8 bd
       -0.120887734 0.09888814 -0.13110168 -0.10578597
0003e0 5f d6 99 3d 20 20 01 3e 29 f0 1d be dd 21 e3 3d
       0.07511591 0.12609911 -0.15423645 0.11090443
0003f0 fb 8b 33 3e 92 83 05 3e 6a 79 10 bc e5 9d a1 bd
       0.17533867 0.13038471 -0.00881801 -0.07891444
