checkpoint/Focal/extrapolate-intra/classifier.pt (torch, 3111 bytes, 1 tensors)

linear.weight f4 [1, 512]
-0.007634134 -0.0158904 0.019200264 -0.01210186 -0.06544887 -0.0018515724 -0.0303307 -0.0028693257
-0.0392001 -0.041555397 -0.011750795 -0.034607973 -0.018542536 -0.019160867 -0.07297532 -0.019155603
-0.025003077 0.055667143 -0.027281381 -0.0057864473 0.010328195 -0.033216916 -0.03587009 -0.06558798
0.024002193 -0.06822859 -0.0009793214 -0.024169795 -0.005528406 0.092580676 -0.06268103 -0.0733279
-0.05651073 -0.0655406 -0.027074782 -0.063822515 -0.00054310204 0.078996114 -0.0104084 -0.07198309
-0.008493536 -0.033651754 0.060751498 -0.015840389 -0.07455041 -0.009666397 -0.06887007 0.03017681
0.0691312 -0.03804788 0.031237619 -0.032893877 0.037603285 0.039031915 0.056042686 -0.06654801
-0.015732553 -0.07991895 -0.026668102 -0.003411001 0.06382066 -0.002073706 -0.031421766 -0.011192664
-0.0077123684 -0.024037518 0.045657817 -0.036674038 -0.04863312 -0.033877656 -0.006018864 0.004380987
-0.05731755 0.009436056 -0.07000229 0.008824741 -0.052588116 -0.037236456 0.08330899 -0.062863715
-0.049309205 -0.03839212 -0.054130077 -0.02269635 -0.049998313 -0.051780224 -0.086619 0.02787633
-0.039604526 0.008122391 -0.0046632425 0.044977028 -0.044575974 -0.061798602 0.014901854 -0.005222085
-0.026897136 0.0479261 -0.054071702 -0.00063755974 -0.031742666 -0.0007589985 -0.023908444 -0.04275004
-0.076849185 -0.044610675 -0.036461215 -0.0056264307 -0.0053817034 -0.0773993 -0.052485507 0.0888784
-0.009279667 -0.043029003 -0.055928744 -0.0394628 -0.060542952 -0.049701788 -0.089679584 0.01029144
-0.004126935 -0.058929503 -0.032371275 0.039260775 0.067323826 -0.04153367 -0.06591703 -0.017632565
-0.06293513 0.09482559 0.012831129 0.075051986 -0.050231628 -0.05113083 -0.004258146 0.0037469054
-0.005442204 -0.038331773 0.087765194 -0.03313656 0.028869467 0.036343846 -0.012492611 -0.03931887
-0.034872424 -0.034137018 -0.018315036 0.0029755933 -0.0024286353 -0.021197196 -0.055661533 -0.0031316567
0.0644154 0.02177913 0.051369987 -0.05499436 -0.042356133 -0.015995832 -0.07572872 0.0065465174
0.01332744 -0.060201656 -0.055568647 -0.06445335 -0.061439388 0.03968282 -0.08736868 -0.025107838
-0.023853883 -0.042209398 -0.013323393 -0.0557381 0.08212152 -0.032824375 0.018940128 -0.029625839
0.0091591235 -0.049022507 0.051161535 -0.033881977 -0.02890796 0.04307107 -0.01274079 -0.022363381
-0.08447763 -0.050286878 -0.06995896 0.093506575 0.031301737 -0.054131296 -0.024865812 0.023151586
-0.07489659 -0.0105311815 -0.008469448 -0.04410401 -0.0102741355 -0.022490822 0.02734098 -0.016066458
-0.025192643 -0.0554006 0.049787242 0.059291184 0.0093931435 -0.045133818 -0.02734848 0.07715687
-0.04179064 -0.05863453 -0.07646856 -0.05959051 -0.0259173 0.07179074 -0.0009546351 0.03165066
-0.05765803 -0.01898878 0.01757138 -0.014238949 -0.04558067 -0.049997877 0.054623134 0.037923057
-0.026801782 0.07448972 0.05943594 0.0022961984 -0.052696444 -0.006990692 -0.011538482 -0.040947687
-0.036229476 -0.05362635 -0.039313044 0.04675983 -0.08315694 -0.068572715 -0.016344432 -0.07091641
-0.063316934 -0.018611118 0.059244923 -0.010314805 -0.004582213 -0.020886498 0.022655789 0.07016906
0.055710312 -0.0645236 -0.019160956 0.008719376 -0.010217999 -0.05390497 -0.060471408 0.08180234
00000000: c227 fabb 962c 82bc df49 9d3c e146 46bc
00000010: 0f0a 86bd 76b0 f2ba 1778 f8bc 4c0b 3cbb
00000020: 4990 20bd fe35 2abd 6886 40bc 17c1 0dbd
00000030: 84e6 97bc 40f7 9cbc 1674 95bd 36ec 9cbc
00000040: 41d3 ccbc 3b03 643d 347d dfbc 3d9c bdbb
00000050: 9737 293c 760e 08bd 84ec 12bd fe52 86bd
00000060: 3fa0 c43c 6ebb 8bbd 935c 80ba bcff c5bc
00000070: a127 b5bb f09a bd3d e95e 80bd f02c 96bd
00000080: cc77 67bd 263a 86bd efcb ddbc 61b5 82bd
00000090: f65e 0eba b7c8 a13d fe87 2abc df6b 93bd
000000a0: 7928 0bbc 6cd6 09bd 90d6 783d b4c3 81bc
000000b0: e3ad 98bd cf5f 1ebc c00b 8dbd 5c35 f73c
000000c0: a994 8d3d 18d8 1bbd 09e6 ff3c bbbb 06bd
000000d0: e705 1a3d eedf 1f3d 048d 653d 534a 88bd
000000e0: 8ee1 80bc 8cac a3bd 1077 dabc 1a8b 5fbb
000000f0: 68b4 823d 03e7 07bb 1cb4 00bd 6f61 37bc
00000100: 09b8 fcbb 54ea c4bc b103 3b3d 8437 16bd
00000110: 8633 47bd 4cc3 0abd e439 c5bb 628e 8f3b
00000120: cfc5 6abd b099 1a3c 5c5d 8fbd a595 103c
00000130: a366 57bd 4185 18bd e79d aa3d b1be 80bd
00000140: 73f8 49bd 0e41 1dbd 80b7 5dbd b2ed b9bc
00000150: 08cb 4cbd 8017 54bd 4d65 b1bd e75c e43c
00000160: 5b38 22bd c713 053c 1dce 98bb d539 383d
00000170: 4c95 36bd 8820 7dbd e826 743c 061e abbb
00000180: 6257 dcbc 294e 443d 4a7a 5dbd e921 27ba
00000190: 9904 02bd 87f7 46ba a4db c3bc aa1a 2fbd
000001a0: 1b63 9dbd afb9 36bd 5b58 15bd ec5d b8bb
000001b0: 0059 b0bb 8683 9ebd 0bfb 56bd e105 b63d
000001c0: bf09 18bc 2e3f 30bd 8a15 65bd bfa3 21bd
000001d0: e3fb 77bd 1a94 4bbd eea9 b7bd 6e9d 283c
000001e0: 3d3b 87bb 1060 71bd be97 04bd e8cf 203d
000001f0: 13e1 893d 361f 2abd 82ff 86bd 2b72 90bc
00000200: 22e4 80bd eb33 c23d a839 523c dbb4 993d
00000210: aebf 4dbd 906e 51bd eb87 8bbb a48e 753b
00000220: 8454 b2bb c701 1dbd 3dbe b33d 34ba 07bd
00000230: a97f ec3c 49dd 143d cfad 4cbc d30c 21bd
00000240: 63d6 0ebd 42d3 0bbd 6a09 96bc 2c02 433b
00000250: bd29 1fbb bea5 adbc 59fd 63bd 7b3c 4dbb
00000260: 39ec 833d 256a b23c 5669 523d c441 61bd
00000270: a07d 2dbd b109 83bc a917 9bbd 2b84 d63b
00000280: 565b 5a3c 0396 76bd f39b 63bd 1e00 84bd
00000290: dea7 7bbd 748a 223d 5aee b2bd f4ae cdbc
000002a0: 3869 c3bc c3e3 2cbd 5c4a 5abc a24d 64bd
000002b0: 542f a83d da72 06bd 5428 9b3c e3b1 f2bc
000002c0: 2610 163c d3cb 48bd c28e 513d d4c7 0abd
000002d0: 63d0 ecbc 4a6b 303d bfbe 50bc 6933 b7bc
000002e0: 9c02 adbd 9df9 4dbd a546 8fbd 6080 bf3d
000002f0: 4036 003d c7b8 5dbd 63b3 cbbc 65a8 bd3c
00000300: 6263 99bd fa8a 2cbc 71c3 0abc 68a6 34bd
00000310: d954 28bc ac3e b8bc 31fa df3c ce9d 83bc
00000320: cd60 cebc bdeb 62bd b5ed 4b3d 50db 723d
00000330: b3e5 193c 3dde 38bd eb09 e0bc 6c04 9e3d
00000340: aa2c 2bbd c32a 70bd 8c9b 9cbd 2e15 74bd
00000350: 8450 d4bc 0607 933d 7a40 7aba 1fa4 013d
00000360: d42a 6cbd 5c8e 9bbc dbf1 8f3c 7b4a 69bc
00000370: ccb2 3abd 93ca 4cbd 82bc 5f3d 3555 1b3d
00000380: 698f dbbc 118e 983d 1a73 733d d17b 163b
00000390: 3ad8 57bd 2d12 e5bb e70b 3dbc c3b8 27bd
000003a0: 5c65 14bd 4ea7 5bbd b706 21bd 3c87 3f3d
000003b0: 304e aabd da6f 8cbd c2e4 85bc 9f3c 91bd
000003c0: 4fac 81bd 5876 98bc ceaa 723d 6eff 28bc
000003d0: 6326 96bb 291a abbc a298 b93c ccb4 8f3d
000003e0: 7f30 643d f324 84bd 70f7 9cbc b7db 0e3c
000003f0: 6569 27bc 75cb 5cbd deb0 77bd fc87 a73d
