checkpoint/SupCon/extrapolate_inter/classifier.pt (torch, 3111 bytes, 1 tensors)

linear.weight f4 [1, 512]
000000 0c c4 96 bd 25 e0 cb be 04 a1 77 3d b2 53 21 3e
       -0.07361612 -0.39819446 0.06045629 0.15754583
000010 e4 05 ff 3d 0d 03 3d 3e 85 42 ca bd 83 d2 29 be
       0.124522954 0.18458195 -0.09875969 -0.1658421
000020 4b 7c 0a 3e 5f 5f 76 3d 50 2e b7 bb 21 49 eb bd
       0.13523977 0.060149547 -0.0055902377 -0.114885576
000030 8e 10 dc 3c 5e 1f e0 bd 61 c5 26 3e 6d 36 09 bd
       0.026863363 -0.10943483 0.16286232 -0.03349917
000040 6a 93 26 bd a9 e4 c0 3b 38 ec 09 bd ba d7 8c bd
       -0.04066793 0.0058866334 -0.03367254 -0.06877084
000050 a5 c8 9a bc a3 54 a5 be 28 2e 72 3d 2b 6b 30 be
       -0.018894503 -0.32291135 0.05912605 -0.17228381
000060 b3 ee 0d 3e 95 f4 17 3e 71 f7 5f 3e 00 6c dd 3d
       0.13860588 0.14839394 0.21871735 0.10811615
000070 00 88 da be 3f 44 40 3e c0 cb 96 3d 30 66 04 3d
       -0.42681885 0.18776034 0.07363081 0.032324016
000080 e3 0e 7a 3e 0e 34 ea 3c 9c 88 8b 3e 1e 90 6e bd
       0.24419741 0.028589275 0.27252662 -0.05824291
000090 e3 cd 23 bd b9 22 cd 3c 22 dd bf 3d d3 7c 4e bc
       -0.03999127 0.025040971 0.093683496 -0.012603003
0000a0 59 3f 64 be 10 2b 2c 3c 52 21 78 3d 86 26 3e 3e
       -0.2228979 0.010508314 0.06057865 0.18569383
0000b0 af 2d 9e 3d fa cd 42 be ea bb 42 3e 2c 1f 1b 3d
       0.07723557 -0.19023886 0.19016996 0.037871525
0000c0 69 e8 18 be a3 ab 95 3c d9 06 11 3d 14 85 4b 3d
       -0.14932407 0.01827032 0.03540692 0.04968746
0000d0 c9 b1 a1 bd 41 44 e0 be c6 e7 da 3a 70 bd 9e 3c
       -0.07895238 -0.43802074 0.0016701154 0.01937744
0000e0 a2 2c 6a bd 6d 47 73 be 60 6e c6 bb 1a 51 91 3d
       -0.05717147 -0.23757716 -0.006055638 0.07095547
0000f0 4d 74 6e bb a7 e5 53 3e 45 13 6d 3e e4 fb 16 3e
       -0.0036385239 0.20693074 0.23151882 0.14744526
000100 bc 98 f1 bd e0 36 09 3e 91 f4 0e be c4 fb 48 be
       -0.1179671 0.1339984 -0.13960482 -0.19627291
000110 b9 9b 78 3e d8 da 90 be fb 60 07 be c8 d7 58 be
       0.24278153 -0.28291965 -0.13220589 -0.21176064
000120 4c 22 b2 3d a7 d0 ff 3d 35 20 80 bd 39 89 48 be
       0.08697948 0.12490969 -0.06256143 -0.19583596
000130 fa b5 a7 3c 4c d0 8a 3d 63 3f 6b b9 e8 e0 ba be
       0.020472515 0.06778011 -0.0002243496 -0.36499715
000140 59 74 74 3e e6 68 d0 bd e8 23 aa bd ff 18 ce bd
       0.23872508 -0.10176258 -0.0830763 -0.100633614
000150 35 aa 59 bd 56 f4 2b 3e f9 1d bb bd 50 14 1f be
       -0.053140838 0.16792426 -0.09136576 -0.15535092
000160 12 b8 de 3e 69 ff 02 3e ff 60 c1 3d 57 2a 85 3d
       0.4349981 0.12792744 0.09442329 0.06502216
000170 4e 7e fb 3d 45 09 67 3d 20 6b 1a be 87 da 8f 3e
       0.1227995 0.056405324 -0.15079927 0.2809641
000180 05 db d5 bd 07 26 9a 3c b8 b4 75 3d 9d fa 8a 3d
       -0.10442165 0.018816961 0.0599868 0.06786082
000190 24 01 f5 bc 8b 4d 26 bd 9e c7 ab 3d 3f 90 2c bd
       -0.02990777 -0.040601294 0.08387683 -0.04212975
0001a0 fd 17 c2 3d 26 41 cb 3e a6 b0 15 3c 4f 28 86 bc
       0.09477232 0.39698142 0.009136355 -0.016376643
0001b0 f5 36 80 3b 10 13 87 be 48 bc ce bd de 50 90 3d
       0.0039128014 -0.2638173 -0.100945055 0.07046674
0001c0 3c 1d 92 3d ac 03 18 be 1f e3 38 3d 5f e3 f1 3d
       0.07134482 -0.1484515 0.045138475 0.11810946
0001d0 a0 fb 8e 3c 97 ce 0f 3e a8 9c b5 3d 20 a7 ab bd
       0.017453969 0.14043652 0.088677704 -0.08381486
0001e0 27 ce 53 3e 79 ff 8c 3c af 6c 11 bd ca 2a 39 bd
       0.2068411 0.017211663 -0.03550404 -0.045206822
0001f0 73 f3 13 be 5e bc c8 bd 80 d3 3e 3d a0 94 ea 3e
       -0.14448337 -0.09801553 0.04658842 0.45816517
000200 44 21 7f 3e 5d 4f 32 3e 9b 6d 52 3e 96 1f c7 bd
       0.24915034 0.17413087 0.20549624 -0.097228214
000210 17 f4 d2 3c 2b f5 46 be ee aa b2 3d de b3 1e 3d
       0.025751157 -0.19429462 0.087240085 0.038745753
000220 f4 1a b7 bc fd 9b 1d be 6a 0a 88 bb c6 de fb bd
       -0.02235172 -0.15391536 -0.004151632 -0.1229835
000230 7a 91 ab bd 6c 9e 2f be 6f e1 1e 3e ee dd a8 3d
       -0.08377357 -0.17150277 0.15515684 0.08245455
000240 d6 43 d8 3e 47 4e 96 be 21 37 3f 3e 76 82 8a 3e
       0.42239255 -0.29356596 0.18673374 0.2705266
000250 9b 7f 1c 3e de 74 4e 3e f5 23 a2 be 98 94 38 3e
       0.15283053 0.20161769 -0.31668058 0.18025434
000260 48 1c f0 bd 94 cb 03 3e 8e fc 5e 3e 1e cb bc 3e
       -0.11724144 0.12870628 0.2177603 0.36873716
000270 2c 07 a6 3d b5 a7 01 be 76 d0 7e 3d 08 13 f9 3d
       0.08106837 -0.12661631 0.062210523 0.12161833
000280 42 c2 59 3e 5b 08 db bd 5f b4 f8 bd 6b a5 36 3e
       0.2126551 -0.10694953 -0.12143778 0.1783654
000290 59 e9 7d bd 89 0b 8c 3d 44 20 53 3b 7a c7 0b 3e
       -0.061990116 0.06838138 0.0032215277 0.13650313
0002a0 69 e6 2c 3e f0 a8 6a 3d 0c 26 34 be 3e ab fa 3d
       0.1688477 0.057290018 -0.17592639 0.12239693
0002b0 03 7b b9 bd ce 60 1b 3e 8e bc 56 3e d4 a3 aa 3e
       -0.09056666 0.15173647 0.20970365 0.33328116
0002c0 0f 02 b4 3d ad 98 37 3d d9 e5 ee bc 6d 7e 6b 3e
       0.08789455 0.044823337 -0.029162334 0.22997446
0002d0 ce d9 44 3d 0b 41 38 bc f2 0f c9 bd b5 ac b3 3d
       0.048059277 -0.011245976 -0.098174945 0.087731756
0002e0 01 e7 3a 3c d2 a7 1c 3d 9a 47 e8 3d ed 4c a2 3d
       0.011407615 0.038245983 0.11341782 0.07924829
0002f0 a5 ed bb 3e ae 68 39 bb c4 c4 77 bd f9 94 05 be
       0.36704746 -0.0028291154 -0.060490385 -0.1304511
000300 65 91 03 be e7 b9 d6 3d d6 2d bf bc b0 f5 3b 3e
       -0.12848432 0.10484677 -0.023337286 0.18355441
000310 49 d2 a8 3e af f6 28 3e a2 4c 1f be eb 59 69 be
       0.32972935 0.16500352 -0.15556577 -0.22788207
000320 99 11 8d 3e 21 d7 52 3e 45 0e 05 3e 87 32 a1 bc
       0.27552488 0.20589878 0.12993725 -0.019677414
000330 60 71 19 3e ee a3 d0 bd 1f bf bd 3c fe 7b 22 be
       0.14984655 -0.10187517 0.023162423 -0.15867612
000340 69 8a 1d 3d 6b 0c e9 3d 3c 6d e0 3b 22 2a 8a be
       0.038462076 0.11379322 0.0068489593 -0.2698527
000350 f2 ec 23 3e 5b 27 2f 3e 47 62 82 3c c4 2b 1a be
       0.16008356 0.17104857 0.015916003 -0.15055758
000360 ee 4c d0 3d 81 59 e7 3d 70 5c df bd da 6f 96 3d
       0.10170923 0.112963684 -0.10906303 0.07345553
000370 aa fd e2 3e 8c 39 aa 3c 10 91 41 be 89 1f 2b bd
       0.44334155 0.020779394 -0.18902993 -0.04177812
000380 99 0f 00 bd 5b 47 03 bf 52 18 5f 3d f4 9c 07 be
       -0.031264875 -0.51280755 0.054466553 -0.13243467
000390 7b f0 8b be 5e b9 69 3d c1 52 11 be ba dc d9 3b
       -0.2733191 0.057061546 -0.14191724 0.006648627
0003a0 4d 83 10 be aa 91 90 bc f6 39 1f bc 37 b8 c7 3e
       -0.14112587 -0.017647583 -0.009718409 0.39007732
0003b0 de 8f 01 bc ce 08 05 bd 02 78 d0 3d 72 c7 52 3e
       -0.007907836 -0.0324791 0.1017914 0.20583895
0003c0 d5 ec 4e be 7f c3 74 bb df 07 0a 3d d8 3e 8c 3d
       -0.20207532 -0.003734797 0.033698913 0.06847924
0003d0 a6 bc 58 be e1 30 c8 3b bf fa 37 bc c0 4b 99 3e
       -0.21165714 0.0061093424 -0.011229216 0.29940605
0003e0 d9 8d 84 bd 0f da 02 3e b6 41 17 be a9 5d 18 be
       -0.06472368 0.12778495 -0.1477116 -0.14879479
0003f0 b1 2a 05 bc e2 32 64 3c 25 f1 f6 bc 91 d1 31 be
       -0.008127854 0.013928147 -0.030144284 -0.173651
