checkpoint/SupCon/extrapolate_intra/classifier.pt (torch, 3111 bytes, 1 tensors)

linear.weight f4 [1, 512]
-0.12978579 -0.15554398 0.016277308 0.16282852 -0.18446657 -0.19383998 -0.14620943 0.16015665
-0.097970635 0.12039675 -0.1494643 -0.14193913 0.13419731 -0.11097393 0.10523522 -0.13294831
-0.20442063 0.16211773 0.20043297 0.12512639 -0.14093451 -0.15704721 -0.17695244 -0.12822746
-0.12606123 -0.16488263 -0.13995206 -0.10500654 0.15940805 0.20612723 -0.09636818 0.1590821
0.19458966 0.1560922 0.18644394 -0.13347428 -0.15735139 -0.15189289 -0.14360057 -0.16306968
-0.1224856 0.24565092 -0.14683402 0.06381368 0.19310036 -0.14257146 0.18600196 -0.17731409
-0.13867195 -0.188017 0.11285101 -0.18267836 -0.11164422 0.0045454917 -0.17662665 -0.15203516
-0.14434224 -0.1723486 -0.12683941 -0.11295261 0.15477344 -0.19498952 -0.17059064 0.19151431
-0.1470371 0.16130255 -0.15805836 -0.1417596 0.15687013 -0.15507536 -0.117227785 0.08515264
-0.16826063 0.14921312 -0.18434812 0.0978916 -0.15878692 -0.1933729 -0.18083736 0.119472824
0.14052895 -0.12777467 -0.16697901 -0.09622607 0.15613751 -0.14858161 -0.17938572 -0.16004325
0.1863976 -0.18141952 -0.1212676 -0.13702731 -0.19485046 -0.16734166 -0.112102576 -0.18845178
-0.16741706 -0.1383036 -0.15321538 -0.19698381 -0.14797351 -0.16957363 -0.16948909 -0.15564047
-0.17836504 0.20111404 0.21821271 -0.1410912 -0.13263465 0.13390292 -0.13620454 -0.15126234
-0.11377649 -0.15746456 -0.1602011 -0.11934679 -0.13696563 -0.15122806 0.14737724 -0.16003072
-0.13541013 -0.17884904 -0.14206772 -0.19432516 -0.12734069 -0.16244997 -0.1592719 0.21403176
0.17802465 -0.16206595 -0.1646548 -0.15203248 0.14266133 -0.122732334 -0.15568554 -0.12780778
-0.1706646 0.07362916 0.09676918 0.18595892 -0.20561804 -0.12936907 0.21482608 -0.17153174
-0.14805189 0.09525719 -0.19958022 -0.14733802 0.15376247 -0.1510818 -0.07829183 0.15403055
-0.13423577 -0.15148982 0.22711408 0.22640912 -0.18915643 0.17996033 -0.14036015 0.19594988
-0.13825679 -0.14382939 -0.17534223 0.19257946 -0.14837548 -0.10001139 -0.09847611 0.12639038
-0.17532812 0.20352408 0.046498507 0.18350954 -0.19022751 -0.18453269 -0.17336707 -0.16493595
0.18081252 -0.12731604 -0.117457315 -0.16110247 0.16587618 -0.15834247 -0.17751911 -0.15462907
-0.15683115 -0.1313029 -0.088707425 0.122230075 0.16376707 -0.16625787 -0.10465934 -0.18826234
0.15633416 0.1463272 -0.104762495 -0.17191549 -0.13767472 -0.12621333 -0.18255658 -0.1511963
-0.15483846 -0.1114803 -0.12710176 -0.17356357 -0.13780446 -0.22098537 -0.11997137 -0.13176985
-0.14517479 0.11641677 0.14746976 -0.13300893 0.18894769 0.19313218 -0.19275954 -0.16807836
-0.12385499 -0.18209487 -0.15672685 -0.10561129 -0.14131874 0.11930513 -0.108671226 0.14692628
0.119460255 0.11383165 0.16743676 -0.11671873 -0.17736152 -0.103555255 0.15770091 -0.12442909
0.14540687 -0.12760955 -0.15849009 0.17448199 -0.11469357 -0.1359067 -0.18066749 -0.09906866
0.088413335 0.17444408 -0.11521875 0.20016436 -0.057074267 -0.14475222 -0.15987724 0.18618077
-0.1872807 -0.11579463 0.13123894 -0.12256968 0.10634928 -0.13789567 0.16193767 -0.13373956
00000000: 91e6 04be ec46 1fbe fd57 853c 85bc 263e
00000010: cee4 3cbe fd7d 46be edb7 15be 1b00 243e
00000020: d4a4 c8bd 9292 f63d 2b0d 19be 7e58 11be
00000030: 056b 093e 4d46 e3bd 9085 d73d 9a23 08be
00000040: a453 51be 3102 263e 4d3e 4d3e 2221 003e
00000050: 2351 10be fcd0 20be 0533 35be 0f4e 03be
00000060: 3216 01be fed6 28be 984f 0fbe ab0d d7bd
00000070: dd3b 233e 0413 533e ae5c c5bd 6be6 223e
00000080: 8342 473e a2d6 1f3e 29eb 3e3e 7bad 08be
00000090: b920 21be cf89 1bbe 070c 13be bdfb 26be
000000a0: bbd9 fabd ea8b 7b3e a85b 16be bfb0 823d
000000b0: 1abc 453e 41fe 11be 4c77 3e3e d391 35be
000000c0: 0500 0ebe 8787 40be 6e1e e73d 0910 3bbe
000000d0: baa5 e4bd 59f2 943b 9edd 34be 1baf 1bbe
000000e0: 74ce 13be 277c 30be 31e2 01be b353 e7bd
000000f0: ee7c 1e3e 55ab 47be 50af 2ebe 541c 443e
00000100: e590 16be 7f2c 253e 0dda 21be 6e29 11be
00000110: 90a2 203e 13cc 1ebe 1f15 f0bd 8264 ae3d
00000120: 844c 2cbe 53cb 183e c1c5 3cbe 647b c83d
00000130: 0a99 22be 8c03 46be 6e2d 39be 2bae f43d
00000140: d2e6 0f3e 5dd7 02be 8cfc 2abe 2c12 c5bd
00000150: 83e2 1f3e c725 18be e4b0 37be 61e2 23be
00000160: 03df 3e3e 0ac6 39be 265b f8bd e350 0cbe
00000170: e186 47be 9d5b 2bbe 0996 e5bd 81f9 40be
00000180: 616f 2bbe 759f 0dbe 7ee4 1cbe 20b6 49be
00000190: 5e86 17be b6a4 2dbe 8c8e 2dbe 3760 1fbe
000001a0: 53a5 36be d7f0 4d3e 2773 5f3e 367a 10be
000001b0: 61d1 07be d91d 093e 3479 0bbe 84e4 1abe
000001c0: a603 e9bd 643e 21be c20b 24be 176c f4bd
000001d0: b840 0cbe 87db 1abe 0fea 163e 18df 23be
000001e0: f4a8 0abe 3424 37be 337a 11be 2dfd 46be
000001f0: 9965 02be 4959 26be 2c18 23be 242b 5b3e
00000200: 184c 363e 9ef4 25be 459b 28be 67ae 1bbe
00000210: d015 123e 175b fbbd 086c 1fbe 0be0 02be
00000220: b3c2 2ebe e3ca 963d eb2e c63d 046c 3e3e
00000230: 898d 52be 5379 04be 5efb 5b3e 04a6 2fbe
00000240: ea9a 17be 3416 c33d c25e 4cbe c7df 16be
00000250: e973 1d3e 30b5 1abe 7857 a0bd 2fba 1d3e
00000260: 1a75 09be 2620 1bbe 9890 683e cbd7 673e
00000270: 39b2 41be 8547 383e 92ba 0fbe 16a7 483e
00000280: 3093 0dbe 0348 13be ea8c 33be 8d33 453e
00000290: beef 17be c6d2 ccbd d8ad c9bd 7b6c 013e
000002a0: 3789 33be 9e68 503e 3875 3e3d ede9 3b3e
000002b0: 00cb 42be 23f6 3cbe 2387 31be f8e4 28be
000002c0: eb26 393e 235f 02be 768d f0bd 0cf8 24be
000002d0: 72db 293e 8724 22be 92c7 35be 1557 1ebe
000002e0: 5898 20be 4474 06be 3dac b5bd c353 fa3d
000002f0: 8eb2 273e 813f 2abe a357 d6bd d8c7 40be
00000300: 1016 203e ccd6 153e b88d d6bd 9d0a 30be
00000310: 9afa 0cbe 113e 01be 1df0 3abe 34d3 1abe
00000320: f98d 1ebe c94f e4bd f726 02be a6ba 31be
00000330: 9d1c 0dbe fd49 62be 8db3 f5bd adee 06be
00000340: b3a8 14be ea6b ee3d 5002 173e 7e33 08be
00000350: 817b 413e 71c4 453e c262 45be bc1c 2cbe
00000360: afa7 fdbd 1477 3abe 017d 20be bb4a d8bd
00000370: dcb5 10be 3f56 f43d 058f debd d873 163e
00000380: 94a7 f43d 9120 e93d 8b74 2b3e 3b0a efbd
00000390: 429e 35be c714 d4bd 597c 213e aed4 febd
000003a0: 8ae5 143e 14ac 02be 3a4b 22be 68ab 323e
000003b0: 76e4 eabd 202b 0bbe e600 39be 82e4 cabd
000003c0: 0d12 b53d 78a1 323e cff7 ebbd e3f7 4c3e
000003d0: b5c6 69bd ed39 14be dcb6 23be 2ca6 3e3e
000003e0: 83c6 3fbe bc25 edbd 8063 063e d005 fbbd
000003f0: a7cd d93d 8634 0dbe fdd2 253e 06f3 08be
