checkpoint/SupCon/random-noise/classifier.pt (torch, 3111 bytes, 1 tensors)

linear.weight f4 [1, 512]
-0.18980424 -0.112928584 -0.024124017 0.15162952 -0.11696521 -0.09794653 -0.14580728 0.108739614
-0.090908736 0.1940643 -0.1619888 -0.16323166 0.12429493 -0.14889336 0.14279978 -0.111069724
-0.104371846 0.19716279 0.1717045 0.09799244 -0.10923312 -0.15892293 -0.16800833 -0.14630194
-0.1485461 -0.10192007 -0.17009431 -0.09489786 0.12773168 0.14375679 -0.13788992 0.14104344
0.20853502 0.19248424 0.13261357 -0.17495523 -0.107440196 -0.17175478 -0.14857157 -0.13350603
-0.14945215 0.19745953 -0.1384745 0.112630196 0.21260333 -0.13898724 0.1452207 -0.117905624
-0.120738894 -0.15783313 0.13449165 -0.170172 -0.1370188 -0.02104208 -0.16767663 -0.18591534
-0.12944223 -0.17223312 -0.09071877 -0.07954342 0.11945338 -0.14480722 -0.13111368 0.19547018
-0.14451107 0.18380716 -0.13539077 -0.098308325 0.1826349 -0.11339089 -0.13205735 0.15508257
-0.15522735 0.18291031 -0.15465398 0.15961097 -0.12644027 -0.15836845 -0.17620693 0.14085287
0.17553385 -0.13589612 -0.18164532 -0.14538775 0.2047178 -0.14628556 -0.16248126 -0.16984555
0.12899227 -0.10619517 -0.13721775 -0.11257494 -0.116531365 -0.1042714 -0.15258847 -0.14580634
-0.12204229 -0.11534881 -0.13833873 -0.10673802 -0.121332034 -0.16036664 -0.12624523 -0.12142729
-0.13325284 0.15526167 0.19862734 -0.11532009 -0.10386021 0.18870911 -0.05463508 -0.17905892
-0.16520594 -0.1329338 -0.18627754 -0.12311892 -0.069478475 -0.10386729 0.17738128 -0.16221166
-0.12565066 -0.16893348 -0.1746098 -0.13933471 -0.155276 -0.13470192 -0.13693775 0.14184433
0.18904462 -0.15996692 -0.1489451 -0.1481027 0.16122808 -0.14995916 -0.116523705 -0.09973494
-0.09893222 0.09966213 0.11567711 0.20783688 -0.13698396 -0.11079415 0.2086697 -0.075657025
-0.14321737 0.09063028 -0.1668553 -0.10063087 0.1633402 -0.12517488 -0.10187037 0.17738895
-0.10989695 -0.1557969 0.1582097 0.20445001 -0.15789022 0.14328527 -0.106068514 0.15035844
-0.13108204 -0.098238766 -0.110731535 0.1743294 -0.1375798 -0.11324234 -0.11809767 0.20244448
-0.10359963 0.16111372 0.07926868 0.1668816 -0.16936468 -0.099579275 -0.14632446 -0.11066538
0.13465327 -0.1736536 -0.11236387 -0.12805487 0.1394865 -0.16287358 -0.09664174 -0.18155009
-0.13867305 -0.114758514 -0.08964243 0.18705675 0.16516133 -0.12455012 -0.13164902 -0.10445161
0.11822745 0.1950049 -0.10849892 -0.11296631 -0.10068096 -0.12205988 -0.14631927 -0.13825703
-0.1020684 -0.08955964 -0.088692196 -0.13421647 -0.11728613 -0.15903889 -0.12283043 -0.16748103
-0.15349579 0.1260231 0.20065448 -0.18138167 0.13770583 0.1681171 -0.13931766 -0.11324883
-0.16040334 -0.16888411 -0.11822342 -0.0853271 -0.13002154 0.08451266 -0.10769109 0.12405423
0.13639465 0.068384916 0.194306 -0.12330864 -0.11434879 -0.09524838 0.11434167 -0.16054274
0.17426062 -0.16259445 -0.15581687 0.16969235 -0.12886252 -0.12317764 -0.09756358 -0.13548884
0.15379356 0.10486911 -0.09157314 0.14231838 -0.05159156 -0.11046577 -0.16472004 0.18680376
-0.16519499 -0.114723854 0.15910582 -0.14904441 0.097933665 -0.16565576 0.14075667 -0.17780937
00000000: 0b5c 42be 1a47 e7bd bb9f c5bc c544 1b3e
00000010: 758b efbd 3198 c8bd 814e 15be e0b2 de3d
00000020: 5c2e babd cbb8 463e 64e0 25be 3326 27be
00000030: 578e fe3d 8077 18be 1b3a 123e 8678 e3bd
00000040: e8c0 d5bd 0be5 493e 4ed3 2f3e 43b0 c83d
00000050: 9db5 dfbd b1bc 22be 600a 2cbe 2dd0 15be
00000060: 781c 18be 78bb d0bd 342d 2ebe cf59 c2bd
00000070: 18cc 023e fb34 133e 0433 0dbe b16d 103e
00000080: 348a 553e 971a 453e dacb 073e 7727 33be
00000090: 9b09 dcbd 7ce0 2fbe 2523 18be ceb5 08be
000000a0: fc09 19be d532 4a3e 42cc 0dbe a9aa e63d
000000b0: b0b4 593e ac52 0ebe bcb4 143e 8178 f1bd
000000c0: f445 f7bd 029f 21be 2eb8 093e 9241 2ebe
000000d0: a84e 0cbe 7160 acbc 6cb3 2bbe 9760 3ebe
000000e0: 818c 04be e15d 30be c3ca b9bd a9e7 a2bd
000000f0: f9a3 f43d 5848 14be aa42 06be 5629 483e
00000100: b6fa 13be f237 3c3e e1a3 0abe e055 c9bd
00000110: a504 3b3e 7c39 e8bd 0b3a 07be f7cd 1e3e
00000120: ebf3 1ebe d74c 3b3e 9d5d 1ebe 0f71 233e
00000130: 8f79 01be 572b 22be 976f 34be bc3b 103e
00000140: 25bf 333e 5a28 0bbe 3b01 3abe 87e0 14be
00000150: 8ba1 513e e2cb 15be 7d61 26be feeb 2dbe
00000160: 8d16 043e da7c d9bd cf82 0cbe b18d e6bd
00000170: ffa7 eebd 3e8c d5bd 2740 1cbe 424e 15be
00000180: 4ff1 f9bd ff3b ecbd aba8 0dbe 7799 dabd
00000190: ee7c f8bd 2737 24be 6e46 01be dfae f8bd
000001a0: 6f73 08be eafc 1e3e f764 4b3e f02c ecbd
000001b0: a9b4 d4bd f63c 413e 09c9 5fbd 395b 37be
000001c0: bf2b 29be cc1f 08be 8abf 3ebe c625 fcbd
000001d0: bb4a 8ebd 60b8 d4bd 70a3 353e d01a 26be
000001e0: 91aa 00be e6fc 2cbe e9cc 32be c2ad 0ebe
000001f0: ac00 1fbe 4def 09be 6939 0cbe a43f 113e
00000200: ea94 413e 5ece 23be 1085 18be 3ca8 17be
00000210: f918 253e e58e 19be fba3 eebd d541 ccbd
00000220: fa9c cabd a91b cc3d 1fe8 ec3d 31d3 543e
00000230: 8645 0cbe 0be8 e2bd 83ad 553e 12f2 9abd
00000240: 93a7 12be 5e9c b93d 1edc 2abe 8f17 cebd
00000250: a742 273e d82d 00be 6aa1 d0bd 73a5 353e
00000260: a711 e1bd 3989 1fbe b901 223e 585b 513e
00000270: f9ad 21be 60b9 123e 733a d9bd 90f7 193e
00000280: 5f3a 06be 6831 c9bd 37c7 e2bd 6883 323e
00000290: b8e1 0cbe 9aeb e7bd 31dd f1bd 9b4d 4f3e
000002a0: 0b2c d4bd fffa 243e 9e57 a23d 03e3 2a3e
000002b0: ef6d 2dbe 38f0 cbbd 14d6 15be 88a4 e2bd
000002c0: 8ce2 093e 40d2 31be 071f e6bd d120 03be
000002d0: 8dd5 0e3e 55c8 26be 1bec c5bd 44e8 39be
000002e0: 4f00 0ebe 8306 ebbd 7396 b7bd ce8b 3f3e
000002f0: 0d20 293e 2214 ffbd 00cf 06be baea d5bd
00000300: 3c21 f23d 5daf 473e af34 debd e15a e7bd
00000310: d231 cebd 88fa f9bd b8d4 15be 4093 0dbe
00000320: 3d09 d1bd 0b6b b7bd 41a4 b5bd 0b70 09be
00000330: b633 f0bd 17db 22be 858e fbbd 2680 2bbe
00000340: 002e 1dbe 330c 013e 5e78 4d3e 1ebc 39be
00000350: c202 0d3e e426 2c3e 4aa9 0ebe 01ef e7bd
00000360: c640 24be f5ef 2cbe 1f1f f2bd f9bf aebd
00000370: 5e24 05be f914 ad3d 258d dcbd 2510 fe3d
00000380: 0aab 0b3e 640d 8c3d 27f8 463e 3e89 fcbd
00000390: b32f eabd 9511 c3bd f72b ea3d 5165 24be
000003a0: 6071 323e 297f 26be 758e 1fbe d5c3 2d3e
000003b0: 89f4 03be 8f44 fcbd 6acf c7bd 96bd 0abe
000003c0: 0f7c 1d3e 9ec5 d63d b38a bbbd e9bb 113e
000003d0: ac51 53bd e13b e2bd 5fac 28be 7c49 3f3e
000003e0: e028 29be 57f4 eabd a3ec 223e 199f 18be
000003f0: 7291 c83d aaa1 29be 8422 103e a913 36be
