checkpoint/Base/extrapolate-intra/classifier.pt (torch, 3111 bytes, 1 tensors)

linear.weight f4 [1, 512]
-0.12415008 -0.11649712 -0.06605285 0.109971955 -0.068004854 -0.1402995 0.3013696 -0.1726937
0.32234526 -0.14039938 -0.10867557 -0.08616356 -0.15226725 -0.14899047 -0.11872786 -0.13519935
-0.1395183 -0.13423198 -0.17415673 -0.1408422 -0.10247915 -0.13236257 -0.10092293 -0.15074004
-0.13038336 -0.078764774 -0.115943186 -0.121267214 -0.15590882 -0.0747894 -0.13447727 -0.113191575
-0.08723944 -0.12637338 -0.0803622 -0.16623317 -0.08342663 -0.14822103 -0.07167753 -0.08715196
0.304714 -0.09509882 -0.1344745 -0.19070598 -0.08560722 0.3230038 -0.12225766 -0.12510341
-0.14384596 -0.071767405 -0.07015439 -0.12981719 -0.114543274 -0.14574453 -0.08433434 -0.06496255
-0.0712423 -0.15238562 -0.07855055 -0.1457452 -0.1409648 -0.10833075 -0.20462655 -0.117104284
0.4105074 -0.120030776 -0.08413378 -0.17258096 -0.1278895 -0.15833804 0.25586453 -0.12870787
-0.11702423 -0.12876783 -0.11331086 -0.16250715 -0.09095785 -0.08002392 -0.1432966 -0.11488075
-0.09652956 -0.05341481 -0.13589679 -0.080122486 -0.14221607 -0.10257383 -0.09311925 0.36082274
-0.16640851 -0.112936296 -0.074866034 -0.120392084 -0.14128162 -0.06680047 -0.0918077 -0.15278803
-0.0832032 -0.13585119 -0.022179876 -0.038077235 -0.06967903 -0.11686165 -0.16390404 -0.20291379
-0.102196895 -0.11976838 -0.07068684 -0.11699274 -0.11657925 -0.066135965 -0.12058495 -0.1346623
0.300078 -0.15092881 -0.086147934 0.28005525 -0.0713913 -0.06614615 -0.14775977 -0.13590328
-0.12450758 -0.08970028 -0.0931933 -0.08557668 -0.19155625 -0.106639124 -0.10041664 -0.11612211
0.34606576 -0.10108433 -0.08303497 -0.13140321 -0.10942333 -0.10590075 -0.14522834 -0.10678435
-0.11917064 -0.18287556 -0.121195175 -0.11926927 0.29675928 -0.15756023 -0.10780615 -0.08448874
-0.13972256 -0.12251891 -0.100542545 -0.10581076 -0.085436985 -0.080025114 -0.108686686 -0.08259361
-0.08949952 -0.06526405 -0.1131209 0.27542043 -0.09565407 -0.13785824 -0.05835234 -0.09452217
-0.09149494 -0.12424637 -0.08397677 -0.15368536 -0.092444666 -0.11539839 -0.14170378 -0.11790669
-0.11722157 -0.12882231 -0.15646593 -0.13387626 0.23809987 -0.09613579 -0.13576636 -0.12554324
-0.12446492 -0.11286093 -0.07642269 -0.16952547 -0.16169256 -0.11247951 0.27859777 -0.12738909
-0.11978548 -0.18846361 -0.09348157 -0.16915216 -0.13484351 0.394146 -0.12989716 0.3729188
-0.15050057 -0.12603603 -0.113810584 -0.0957354 -0.08855163 -0.12634632 -0.08528029 -0.06831844
-0.083910905 -0.17732885 -0.15062186 -0.090509705 -0.10967228 -0.1274439 -0.105302684 -0.113292284
-0.16630708 -0.12784676 -0.06693607 -0.08260659 -0.14415625 -0.11904263 -0.11193618 0.3190569
-0.1479781 -0.1070189 -0.13547504 -0.13882239 0.32781038 -0.1534973 -0.10597497 -0.0879916
-0.082842894 -0.14326967 -0.094749674 -0.091852635 -0.09435791 -0.12405466 0.37836722 -0.11418124
-0.07923557 -0.061418045 -0.078812994 -0.1254892 0.26184973 0.19761157 0.20205866 -0.15058655
0.31433746 -0.06734824 -0.14867301 -0.15683672 -0.09734956 -0.11127271 -0.15133923 -0.11711867
-0.13643153 -0.06759687 -0.12034979 0.39944074 -0.13350765 -0.12216855 -0.06750821 -0.10672209
00000000: 6642 febd 0b96 eebd b746 87bd fa38 e13d
00000010: 2146 8bbd acaa 0fbe 1e4d 9a3e 9ed6 30be
00000020: 700a a53e dbc4 0fbe 4c91 debd 8576 b0bd
00000030: f2eb 1bbe f590 18be 9827 f3bd b371 0abe
00000040: e3dd 0ebe 1c74 09be 2456 32be f038 10be
00000050: 97e0 d1bd 0e8a 07be aeb0 cebd 995b 1abe
00000060: 3783 05be 6d4f a1bd 9f73 edbd f25a f8bd
00000070: 90a6 1fbe 2f2b 99bd 69b4 09be fcd0 e7bd
00000080: 97aa b2bd 0668 01be f094 a4bd 0739 2abe
00000090: 95db aabd 41c7 17be abcb 92bd ba7c b2bd
000000a0: 7903 9c3e 2cc3 c2bd afb3 09be 6e48 43be
000000b0: d752 afbd c160 a53e 3962 fabd 1c1b 00be
000000c0: 5b4c 13be cafa 92bd 1bad 8fbd ccee 04be
000000d0: aa95 eabd 0e3e 15be 7cb7 acbd 160b 85bd
000000e0: 7ce7 91bd fa0a 1cbe 1cdf a0bd 3b3e 15be
000000f0: 1459 10be 83dc ddbd 9f89 51be 5fd4 efbd
00000100: 072e d23e b2d2 f5bd 554e acbd 10b9 30be
00000110: 77f5 02be 5e23 22be ad00 833e ffcb 03be
00000120: 66aa efbd b7db 03be 860f e8bd 4668 26be
00000130: 1c48 babd 95e3 a3bd 58bc 12be 9946 ebbd
00000140: 4ab1 c5bd 7dc9 5abd 8728 0bbe 4217 a4bd
00000150: 17a1 11be 3a12 d2bd 4eb5 bebd c2bd b83e
00000160: fe66 2abe 254b e7bd 5d53 99bd 2090 f6bd
00000170: 21ac 10be afce 88bd ad05 bcbd 7774 1cbe
00000180: 7066 aabd 931c 0bbe 92b2 b5bc e0f6 1bbd
00000190: e1b3 8ebd 2955 efbd 76d6 27be a2c8 4fbe
000001a0: 9b4c d1bd 2049 f5bd 43c4 90bd e499 efbd
000001b0: 1ac1 eebd 4b72 87bd 3ef5 f6bd eae4 09be
000001c0: d3a3 993e 158d 1abe 546e b0bd 6763 8f3e
000001d0: 9a35 92bd a277 87bd 564e 17be 3b2a 0bbe
000001e0: d5fd febd c8b4 b7bd 21dc bebd d442 afbd
000001f0: 5227 44be 9d65 dabd 3da7 cdbd 6ed1 edbd
00000200: 882f b13e 4d05 cfbd 3d0e aabd 908e 06be
00000210: 5719 e0bd 7ee2 d8bd bdb6 14be c1b1 dabd
00000220: bd0f f4bd bb43 3bbe 2d35 f8bd 7243 f4bd
00000230: d5f0 973e 7857 21be 79c9 dcbd 6f08 adbd
00000240: 6e13 0fbe 32eb fabd 40e9 cdbd 50b3 d8bd
00000250: 96f9 aebd 35e4 a3bd 2097 debd d726 a9bd
00000260: 864b b7bd 29a9 85bd eeab e7bd e803 8d3e
00000270: 48e6 c3bd b62a 0dbe dd02 6fbd d794 c1bd
00000280: b361 bbbd e174 febd 03fc abbd b25f 1dbe
00000290: a153 bdbd fe55 ecbd cc1a 11be 1079 f1bd
000002a0: dd11 f0bd ffe9 03be 9b38 20be dc16 09be
000002b0: 74d0 733e d7e2 c4bd 5606 0bbe 688e 00be
000002c0: 77e7 febd a223 e7bd 8083 9cbd 1698 2dbe
000002d0: bc92 25be a85b e6bd 5ea4 8e3e 4972 02be
000002e0: 1752 f5bd 9bfc 40be 4473 bfbd 3936 2dbe
000002f0: 6b14 0abe 81cd c93e c303 05be 37ef be3e
00000300: d21c 1abe 970f 01be 8615 e9bd ec10 c4bd
00000310: 8f5a b5bd ee60 01be 6fa7 aebd 8aea 8bbd
00000320: 7bd9 abbd b295 35be 9e3c 1abe 275d b9bd
00000330: dc9b e0bd a780 02be efa8 d7bd c905 e8bd
00000340: 674c 2abe 43ea 02be c715 89bd a52d a9bd
00000350: b29d 13be 9fcc f3bd cc3e e5bd 6d5b a33e
00000360: 9287 17be ba2c dbbd f8b9 0abe 7527 0ebe
00000370: c3d6 a73e 652e 1dbe 6809 d9bd f134 b4bd
00000380: 89a9 a9bd 49b5 12be 1e0c c2bd 3c1d bcbd
00000390: b83e c1bd 5f10 febd 59b9 c13e dbd7 e9bd
000003a0: 4246 a2bd 7d91 7bbd b568 a1bd 3e80 00be
000003b0: 2b11 863e b05a 4a3e 77e8 4e3e 5c33 1abe
000003c0: d7f0 a03e e0ed 89bd bd3d 18be ce99 20be
000003d0: 355f c7bd f2e2 e3bd acf8 1abe eadb efbd
000003e0: b5b4 0bbe 3a70 8abd f379 f6bd 7f83 cc3e
000003f0: 3bb6 08be 8133 fabd bf41 8abd 1c91 dabd
