checkpoint/Focal/extrapolate-inter/classifier.pt (torch, 3111 bytes, 1 tensors)

linear.weight f4 [1, 512]
0	0xbc2a74fc	-0.010403868
1	0xbdb49ad2	-0.08818592
2	0x3df47260	0.11935878
3	0x3cef4288	0.02920653
4	0xbd7cde82	-0.061735637
5	0xbdb7f16a	-0.08981593
6	0x3d005a65	0.031336207
7	0x3d207035	0.03916951
8	0xbd996513	-0.074899815
9	0x3c877fc4	0.016540416
10	0xbb5f31ef	-0.0034056862
11	0xbc56e07b	-0.013115044
12	0xbb81574f	-0.0039471756
13	0x3d55746e	0.05211299
14	0x3b333ac1	0.0027348252
15	0xbd8c2df7	-0.068447046
16	0xbd2756b3	-0.040854167
17	0x3e0548b3	0.13016014
18	0xbd462f84	-0.04838516
19	0xbd1ad41f	-0.03779995
20	0x3d6afd89	0.057370696
21	0xbc1957e5	-0.009359335
22	0x3c86ecc1	0.016470315
23	0x3c2bf854	0.010496218
24	0x3d8ff924	0.07029942
25	0x3d510368	0.05102864
26	0x3bdfbfc3	0.0068282797
27	0x3c7508a0	0.01495567
28	0xbcf4bf9b	-0.02987652
29	0x3e006d28	0.1254164
30	0x3cfd4aff	0.03091955
31	0x3cb5944e	0.022165444
32	0x3c8db8b2	0.017299984
33	0x3a6c7fd7	0.0009021735
34	0xbda61d86	-0.081111
35	0x3b24ea10	0.0025163926
36	0x3bcb038f	0.0061954926
37	0x3e30aa61	0.17252494
38	0xbd210d7c	-0.0393195
39	0xbb00ad24	-0.001963445
40	0xbd5aad9d	-0.053388227
41	0x3d74abe4	0.05973424
42	0x3d652df2	0.05595202
43	0x3d0080be	0.031372778
44	0xbd50de57	-0.05099329
45	0xbd8900f7	-0.06689637
46	0x3b412c4f	0.0029475873
47	0xbdac5978	-0.08415502
48	0xbd4f9d31	-0.05068702
49	0x3dea92a6	0.11453752
50	0xbc8705a4	-0.016482182
51	0x3c3e3708	0.0116098
52	0xbde7cb10	-0.11318028
53	0x3d93b78f	0.072127454
54	0x3d3cb4fc	0.046071038
55	0xbc419d3d	-0.011817274
56	0xbd161090	-0.03663689
57	0x3cdec119	0.027191686
58	0x3c68419f	0.014175802
59	0xba8bb78f	-0.0010659563
60	0x3da683d2	0.081306115
61	0xbbb390b9	-0.005479899
62	0x3d17d609	0.037069354
63	0xbd5a7448	-0.05333355
64	0xbd3164f3	-0.043309163
65	0x3acdbf8c	0.0015697344
66	0x3d39a90e	0.04532724
67	0xbcb55e9b	-0.022139838
68	0x3c098cea	0.008395413
69	0xbc44e964	-0.012018535
70	0xbde89f4f	-0.11358511
71	0x3d5c1b4e	0.053736977
72	0x3d6a4675	0.0571961
73	0x3df43c0d	0.11925516
74	0x3d3ca576	0.046056233
75	0xbdb16e58	-0.086636245
76	0x3cd1ab20	0.025594294
77	0x3d3d76ba	0.046255805
78	0x3dfa9a77	0.12236493
79	0x3be75160	0.007059261
80	0xbc669061	-0.014072509
81	0x3ca41ccd	0.020033265
82	0x3cc1e517	0.023668809
83	0x3c03f886	0.008054858
84	0xbbfae0d6	-0.007656197
85	0xbae11335	-0.0017171862
86	0xbc88cdbf	-0.01669967
87	0x3d02ce3a	0.031934954
88	0xbcf01512	-0.029306922
89	0xbd93ab18	-0.07210368
90	0x3c2d613d	0.010582265
91	0x3c59abb2	0.013285564
92	0xbd8bb646	-0.06821875
93	0xbd491a27	-0.049097206
94	0xbe1b6055	-0.15173467
95	0xbc92b2bd	-0.017907495
96	0x3da24655	0.07923571
97	0x3cc78fe2	0.0243606
98	0xbdcc253e	-0.09968041
99	0xbda7ef5b	-0.0819995
100	0x3c45a734	0.01206379
101	0xbd4341b5	-0.047670085
102	0xbcd74da6	-0.026282143
103	0x3d7722b2	0.060335822
104	0x3cbe44d6	0.023226183
105	0xbc8ce7fc	-0.017200463
106	0x3c300d8a	0.010745415
107	0x3d1ec073	0.038757753
108	0xba8f51dd	-0.0010934431
109	0xbcb53764	-0.022121139
110	0x3bbbd3f9	0.005732056
111	0x3e134103	0.14380269
112	0x3ccabfb1	0.024749609
113	0x3c2d7bc7	0.010588593
114	0x3983ffcf	0.0002517686
115	0x3d13e92d	0.036111046
116	0x3b7bc6bf	0.0038418022
117	0x3d123d43	0.035702955
118	0x3b2b836f	0.002617087
119	0x3de2fae8	0.11083013
120	0xbc454dff	-0.0120425215
121	0x3cef05ba	0.029177535
122	0x3c86d480	0.01645875
123	0x3d7b1a58	0.06130442
124	0xbd373ded	-0.04473679
125	0x3d70114a	0.058610238
126	0x3bf624f3	0.007511729
127	0xbb864a0a	-0.0040981816
128	0x3d19c551	0.03754169
129	0x3e1781dc	0.14795631
130	0xbd75ce52	-0.060011216
131	0x3e33701d	0.17523237
132	0x3c9d37af	0.019191591
133	0x3d0a8d2d	0.033826042
134	0x3c04ed25	0.00811318
135	0x3c65fea2	0.01403776
136	0xbd41c1c9	-0.04730395
137	0x3c38960d	0.011266244
138	0x3d0310bf	0.031998392
139	0x3d217e37	0.03942701
140	0xbcf6d9ac	-0.03013309
141	0x3d64edca	0.055890836
142	0x3d04dba2	0.03243602
143	0xbd4bf666	-0.04979553
144	0xbd20eb95	-0.03928717
145	0x3d21b8ba	0.03948281
146	0xbd8f1ee9	-0.069883175
147	0xbdff3cba	-0.124627545
148	0x3c9f550f	0.019449739
149	0x3cb92fff	0.022605894
150	0xbd33f88d	-0.04393821
151	0x3ccb546e	0.024820533
152	0x3e062698	0.1310066
153	0xbdc4cfdd	-0.09609959
154	0x3dd55033	0.104156874
155	0xbcc36402	-0.023851398
156	0x3ced9d06	0.029005539
157	0xbdab3428	-0.083595574
158	0xbd4b9adb	-0.04970823
159	0xbc9196e1	-0.01777214
160	0xbe24c439	-0.16090478
161	0xbc9b4eba	-0.018958438
162	0x3d90f61e	0.07078193
163	0xbc41c750	-0.011827305
164	0x3c8b6393	0.017015254
165	0xbd5295b2	-0.05141229
166	0xbb9a46d0	-0.0047081485
167	0xbcc4af72	-0.02400944
168	0x3c2978c8	0.010343738
169	0x3d49c665	0.04926147
170	0x3d90e663	0.07075193
171	0x3c0a36d1	0.008435921
172	0x3e051d03	0.12999348
173	0xbe14b7e4	-0.14523274
174	0x3cd8b5b6	0.026453834
175	0xbd9a8551	-0.07544959
176	0xbd6c863d	-0.057745207
177	0xbc143ee6	-0.009048199
178	0x3bf6b6d3	0.0075291186
179	0x3c99d0ba	0.018776286
180	0xbe302a1d	-0.17203565
181	0x3e05fa84	0.13083845
182	0x3c66b605	0.014081483
183	0x3d80fd36	0.06298296
184	0x3c93836d	0.018007005
185	0xbcb1cf2a	-0.021705229
186	0xbd441d20	-0.04787934
187	0x3e20be4e	0.15697595
188	0x3dd15388	0.102210104
189	0xbca6c103	-0.020355707
190	0xbbe34c83	-0.006936611
191	0x3da28095	0.07934681
192	0x3d88b593	0.066752575
193	0xbd3e20c5	-0.04641797
194	0xbd8903a5	-0.06690148
195	0xbd64a6e8	-0.055823237
196	0xbca96d97	-0.02068214
197	0xbd2d5808	-0.04232028
198	0xbca7784a	-0.0204431
199	0x3baf37b5	0.005347217
200	0x3d401091	0.0468908
201	0xbd712a5e	-0.058878295
202	0x3d55e9c4	0.05222489
203	0x3e552914	0.20816451
204	0xbcfb63c5	-0.030687222
205	0x3d841be6	0.06450634
206	0x3db334e5	0.08750323
207	0x3e03b57e	0.12862203
208	0x3bafa31f	0.0053600217
209	0xbd208006	-0.039184593
210	0x3cb2a44d	0.02180686
211	0x3cc6f6bf	0.02428758
212	0x3c48e1ad	0.012260837
213	0x3ce0768d	0.02740028
214	0x3d89d069	0.06729204
215	0x3dd2ff3b	0.103025876
216	0x3c350ec0	0.01105088
217	0x3d863c70	0.06554496
218	0xbdec0456	-0.115242645
219	0xbd1c3bfa	-0.038143136
220	0x3d6bed85	0.057599563
221	0xbd19ef13	-0.037581515
222	0xbdcf5333	-0.10123291
223	0x3df18dd3	0.11794629
224	0xbdb9cb2a	-0.090719536
225	0x3e12ebaa	0.14347711
226	0x3e0eaedb	0.1393389
227	0xbd22e138	-0.039765567
228	0xbd11b7a3	-0.03557552
229	0x3cedd4fe	0.029032227
230	0xbcc0ee76	-0.023551207
231	0x3a7010be	0.0009157768
232	0xbcb1d0c5	-0.021705994
233	0x3d2da254	0.042391136
234	0xbce9fc81	-0.028562786
235	0xbccd2e78	-0.025046572
236	0x3ba9323a	0.005163458
237	0x3b9970ee	0.0046826517
238	0x3afbcb9c	0.0019210461
239	0xbb84ac95	-0.0040488937
240	0x3d5c500f	0.053787287
241	0x3cd44d57	0.025915785
242	0x3b27b511	0.0025590102
243	0x3c906845	0.017627845
244	0x3c88b576	0.01668809
245	0xbcd50fe7	-0.02600856
246	0xbd7f171a	-0.06227789
247	0x3e29c933	0.16580658
248	0x3e18f864	0.14938504
249	0xbcae2b68	-0.021260932
250	0xba4fa020	-0.0007920284
251	0xbde3da4c	-0.11125621
252	0x3d0d31e9	0.034471426
253	0xbe4a75a8	-0.19771445
254	0x3dd88361	0.105719335
255	0x3ca9e719	0.020740079
