checkpoint/US/extrapolate-inter/classifier.pt (torch, 3111 bytes, 1 tensors)

linear.weight f4 [1, 512]
00000000: 71b3 383d 585d 823c f80a 963d cad4 563e
00000010: b5e8 313d 6a03 e13d 4242 d6bd ea0f debd
00000020: 6dbd 4f3d f5ec a9bc a976 bd3d ca4a 473e
00000030: 1ae3 113e ad73 843d 740a c2bd 412a 193e
00000040: d839 cf3c 6e48 3e3c 58d9 e8bd 5c96 2fbd
00000050: e77c 0f3e 5ea2 3b3d cde3 b0bb 3d84 9e3c
00000060: 61aa d8bc 60d8 713d 6f87 553c 8c76 8bbc
00000070: cb29 8fbc 4b97 fdbd 449d b13d 4518 b6bd
00000080: 2816 12bc 99eb d5bd c663 9f3d 5b32 433d
00000090: 3808 613e 7c2c 48bc fdd1 0a3e 1e3c 10be
000000a0: c8c5 e83d b0ca 373d a3e2 353d 7858 263e
000000b0: 85f8 6ebd bb25 433c b25c cb3c 78a7 983d
000000c0: 56c2 12bd b4f1 fbbd 349a 573d 67ae 05be
000000d0: 4f03 f23c 7702 ef3d beb6 833d b4da bf3d
000000e0: 3832 90bd e42e 033d 652b a3bc c6f0 d83d
000000f0: 3905 e3bd 3044 143d 3d59 dabd c2f0 79bc
00000100: 1eb3 87bd ebd5 bcbd 0bf2 2d3e 9232 4c3e
00000110: 6ef4 2b3c dc19 503d 7011 ffbd 8d12 7fbd
00000120: de87 063e 4772 143d 2bc6 dbbb f26e 10be
00000130: a8e0 853c c5db 823d cdf3 243e 7f23 713d
00000140: a435 0abd d996 ea3c a28f 53bd 4d14 653d
00000150: a4c8 3f3c b243 a73d 4813 e83c 952e 17be
00000160: ca47 ba3b 9daf 60bc 31ad 92bd fd00 d23b
00000170: f469 833d 46c9 333d 1549 17bd 0188 f9bb
00000180: 0c68 b6bc bee9 4f3d 2851 343d 36b7 573e
00000190: 4302 943c 1156 e43d 0d4d 893c 95a3 b9ba
000001a0: be1b 77bd c103 923c 0b66 1ebd 2453 22bd
000001b0: d92b 89bc 9cb8 d13c 73ce 033c a123 32bd
000001c0: a51b 123d 6299 8cbd fc07 64bd ecca 03bd
000001d0: 4e95 613b 415a 9a3e de4b 03be 601b 59bd
000001e0: eceb fd3d c839 b73d 16d2 c33a c5c6 cdbd
000001f0: 90d2 a1bc 4f51 70bb 54ce 4dbd 45fe 2cbc
00000200: a823 a0bd b09e c63c bede 99bd 73f0 a43d
00000210: 2163 b73d 7566 9c3d 5a17 4fbd 3091 78bd
00000220: 2697 123e fa99 a9bc f1ee 613d e962 813c
00000230: 7465 cabd 6de9 63bd 3394 a0bd f22f b5bc
00000240: b3e9 253d 1326 743c 35ae 54bd b4ef bfbd
00000250: d589 c33c 338b fa3c f835 863c 9ea4 f6bd
00000260: dac4 85bd ae2f 043e 44d5 94bd c600 74bd
00000270: 7c50 96bd 0a1f e83c b1d1 4c3d 7860 05be
00000280: e4bb 1b3d d0b5 30bd 983c 033e bd9b c8bd
00000290: 8fc9 883d 77c3 2dbe 941e 1d3e d967 243b
000002a0: 3e19 253e cc0c aa3d df0c a33e 0c5a 553e
000002b0: c0eb fa3d 5b74 f9bd f44a 973d e0ca d3bd
000002c0: adcf a53d 2369 0cbe 88a4 65bd 1f34 5f3e
000002d0: 8b31 2ebe d1b3 78bd d935 be3d 7103 2f3e
000002e0: 756d 263d 1f87 10bd 16c4 88bd 66fc 2ebd
000002f0: fbe0 b4bd a7ff 103e d1f3 debd 6e46 40bd
00000300: 9a43 c63d 3f3f 863b 9b8e 203d 23cf 643d
00000310: b6ad 11bd 9323 3f3e bc0e 7b3d 8d62 e93c
00000320: 2657 32bd e5e0 f73c e695 b83c 1517 b63d
00000330: 3467 313d 9860 e33d a56d aebc 1ecc 05be
00000340: 2bfa ce3d c193 793d 0c79 04be e3e7 4e3d
00000350: d937 98bd 3d74 9a3d c26f bcbb c9d9 20bd
00000360: cdf6 143d 73e2 8a3d c6d7 7b3d 3971 edbc
00000370: fea7 cf3d 7910 6ebd 5470 13be d921 d9bc
00000380: 30ab 063b 2426 8c3d b9e7 743c 1c6b e43d
00000390: faf9 39bd 42c1 6a3c 9540 2b3e b886 96bd
000003a0: 71b9 d6bd b8e8 b7bd fbdc e9bd d89e 0f3e
000003b0: d17d 8f3d 0dca 7dbd 0cd4 9f3d 8ef8 b03d
000003c0: 29fa 703d ea5f 14bd fa06 0f3c a8b2 cf3c
000003d0: 6faf 463d 46b1 543c 8dcb e83c 1d9a fa39
000003e0: 7999 b53d c6af 423e 2f45 4b3d 73d0 843d
000003f0: f89b 3e3e 20af 563e f403 69bd c5bb c1bc
0.045093004 0.01591365 0.07326311 0.2097961 0.043434817 0.10986979 -0.104618564 -0.10842879
0.05071776 -0.020742873 0.09251148 0.19462124 0.14246789 0.06467376 -0.0947465 0.14957525
0.025296137 0.011613948 -0.1136958 -0.042868003 0.1401249 0.045809142 -0.0053982497 0.019350166
-0.02644843 0.059044242 0.013032778 -0.017024301 -0.017475983 -0.123823725 0.08672574 -0.08891348
-0.008916415 -0.10445327 0.07782702 0.047655445 0.21975791 -0.012217637 0.13556667 -0.14085433
0.11365849 0.044871032 0.04440559 0.16244686 -0.058342475 0.011910851 0.024824474 0.07453817
-0.035829864 -0.123019606 0.052637294 -0.1305481 0.029542593 0.11670392 0.0643134 0.09367886
-0.070408285 0.03202714 -0.019918153 0.10592799 -0.110849805 0.03619784 -0.10661552 -0.015255155
-0.06625961 -0.09220489 0.16986863 0.19941166 0.010495288 0.05080591 -0.12454498 -0.06227355
0.13137767 0.036241796 -0.006706973 -0.14104822 0.016342476 0.06389574 0.16108628 0.058871742
-0.033742562 0.028636383 -0.05165065 0.055927563 0.011705551 0.08167209 0.028329507 -0.14763863
0.0056848275 -0.0137137445 -0.0716194 0.006408809 0.06416693 0.04389312 -0.03693493 -0.00761509
-0.02226641 0.050760023 0.04402271 0.21065983 0.018067485 0.11149228 0.016760373 -0.0014163131
-0.06032919 0.017824056 -0.038671535 -0.03963007 -0.016744541 0.025600724 0.008044827 -0.04349101
0.035670895 -0.06865193 -0.055671677 -0.032175943 0.0034421268 0.30146983 -0.1282191 -0.053004622
0.12398514 0.08946568 0.001493993 -0.10047678 -0.019753724 -0.0036669557 -0.050245598 -0.010558669
-0.07819301 0.02424559 -0.07513188 0.080536745 0.08954454 0.0763673 -0.05055938 -0.060685337
0.14315471 -0.020703305 0.055159513 0.015794234 -0.09882632 -0.055642534 -0.07840767 -0.022117589
0.040506076 0.014901656 -0.05192395 -0.093718916 0.023869434 0.030583953 0.016383156 -0.12043117
-0.06531687 0.12908813 -0.0726724 -0.05957105 -0.0733957 0.028335113 0.050004665 -0.13025081
0.038020983 -0.04314214 0.12816083 -0.0979533 0.06679069 -0.16969095 0.15343696 0.0025086312
0.1612291 0.08303222 0.31845757 0.20835131 0.12251997 -0.12180396 0.07387343 -0.1034143
0.08096252 -0.13711981 -0.056065112 0.21797226 -0.17011087 -0.06071836 0.092876144 0.17091157
0.04063173 -0.03528511 -0.066780254 -0.042721175 -0.08831974 0.14160024 -0.10886348 -0.046942167
0.09680863 0.004096895 0.0391985 0.055861603 -0.035566054 0.18665914 0.06129335 0.028489375
-0.043540142 0.030258605 0.022532415 0.08891121 0.043311313 0.11102408 -0.021292517 -0.13066146
0.101063095 0.060931925 -0.129368 0.050514113 -0.07432527 0.07541702 -0.0057506273 -0.039270196
0.03636818 0.06781473 0.061485074 -0.028984653 0.10139464 -0.05812118 -0.14398319 -0.026505398
0.0020548813 0.06843212 0.014947825 0.11153242 -0.04540441 0.014328303 0.16723855 -0.07349914
-0.10484589 -0.089799345 -0.11419102 0.14025438 0.070064195 -0.06196027 0.078041166 0.08641158
0.05883232 -0.036224283 0.008729691 0.025353745 0.04850715 0.012981718 0.028417373 0.0004779854
0.08867163 0.19012365 0.049626525 0.06485071 0.18614185 0.20965242 -0.056888536 -0.023649106
