checkpoint/CB/classifier.pt (torch, 3111 bytes, 1 tensors)

linear.weight f4 [1, 512]
000000 1c 7f e7 bb 97 50 0e bd 99 fd 86 bc 0f 5f 07 bd
       -0.007064713 -0.034744825 -0.016478347 -0.03304964
000010 79 e6 89 3b b3 9d 94 bb f4 13 68 bb 62 0e 1c bd
       0.0042083827 -0.004535401 -0.0035412284 -0.038099654
000020 47 fb 9a 3c 31 a1 28 bd f7 f5 af bc 9d 86 95 3a
       0.018918646 -0.04116935 -0.02147959 0.0011407916
000030 b5 31 01 bd 5b 02 af bc cb e2 1f 3d 74 97 a4 bb
       -0.031541545 -0.021363428 0.039034646 -0.0050229374
000040 50 36 0f 3d 90 10 2f bd ad d3 1e bd 0c e9 e0 bb
       0.034963906 -0.042740405 -0.03877609 -0.006863719
000050 9e 8c f0 bc 39 b2 cf bc 76 b9 a8 3b 6b 2d 90 bc
       -0.029363927 -0.025353538 0.005149062 -0.017599782
000060 d8 8d 41 3c dd 7b 0e bd 50 52 24 bd e0 6d 22 bd
       0.011813603 -0.034786094 -0.04011756 -0.039655566
000070 ea 00 03 bd 93 7f b9 bc 8b 27 a6 bc 8c 92 c4 3c
       -0.031983294 -0.02264384 -0.020282527 0.02399566
000080 7d 8f 21 bd 91 24 aa bc 85 cc 1d 3d 6e 53 21 bd
       -0.03944348 -0.02076939 0.038525123 -0.039386205
000090 eb 3d f1 bc 7e 3c 04 3d 9b 1e 99 bc 20 82 ea 3c
       -0.02944847 0.032284252 -0.018691352 0.028626502
0000a0 30 15 9a 3c 93 6b 16 bd 97 b3 03 bd c2 4c c6 ba
       0.018808931 -0.036723685 -0.032153692 -0.0015129077
0000b0 9a 93 0c bd 33 ed b5 3b 25 ac b3 bc e1 5d ae 3c
       -0.03432045 0.005551958 -0.02193267 0.021285
0000c0 36 6a bd bc 91 7e 40 3c 93 86 74 bc c5 68 fc bc
       -0.023121934 0.011748926 -0.014924663 -0.030811677
0000d0 d8 7b 0a 3d 37 d3 18 3c 3f 9b 10 bd 39 4c e5 bb
       0.033809513 0.009327701 -0.035304304 -0.006997612
0000e0 94 fc 98 bc 1e a9 82 3b fd f2 6d bc 36 e2 a0 bc
       -0.018675126 0.0039874455 -0.014523265 -0.019639116
0000f0 d1 96 ac 3b 11 5e 5b 3c 16 70 aa bc 64 53 e7 3c
       0.005267002 0.013389126 -0.0208054 0.028238006
000100 0a da f0 bb d3 44 fe 3c 5a 8a c1 3c cb 99 4a 3c
       -0.007350211 0.031038677 0.023625541 0.012365769
000110 c3 06 aa bc 8e db b3 3c 77 54 9c bc 1e f9 cf bc
       -0.020755177 0.021955278 -0.019083245 -0.025387343
000120 4c 8b fa bb f9 6b 29 bc fe 2b a1 bc 67 7d 03 bd
       -0.007646 -0.010340684 -0.019674297 -0.032102015
000130 14 f1 c2 bc ea d9 fc bc 00 5d bb 3c be a3 99 3c
       -0.023796596 -0.030865628 0.022871494 0.018754836
000140 1c 7d dd 3c 9d 74 b8 3c a4 a6 30 bd a8 f1 3b 3c
       0.027037196 0.022516543 -0.04312767 0.01147119
000150 1a 75 db bc 45 a1 0f 3d ec 48 9d 3b 64 ef 2c bd
       -0.026789237 0.035065908 0.0047999527 -0.04222049
000160 6b 8f 24 bd a2 1a 7b 3c bd cf ae bc 48 52 9a bc
       -0.040175837 0.015326174 -0.021339292 -0.018838063
000170 a6 4d 53 bc e4 9b 12 bb 1d 3f ff 3c 0c eb 74 3b
       -0.012896931 -0.002237075 0.031158024 0.0037371544
000180 96 aa 8d 3c 3d e9 16 3c c2 04 db bc 1f 0b f6 3c
       0.017293256 0.009210882 -0.026735667 0.0300346
000190 85 d7 05 bd a2 87 ad bc 0e 7f a3 3c 41 ac cf 3c
       -0.03267624 -0.021182839 0.019958045 0.025350692
0001a0 1e 5e 14 bd 1f c7 80 3c 2e 06 8a bc 0e 49 b5 bc
       -0.03622257 0.015719948 -0.01684865 -0.022129562
0001b0 d7 ba db bc 44 ae 20 3b a5 61 00 bd 4b b8 29 bd
       -0.02682249 0.0024517933 -0.03134312 -0.04143552
0001c0 7c 0e 97 3c 87 c4 d2 bb 14 38 d2 3c e8 c2 23 3b
       0.018439524 -0.0064321193 0.025661506 0.0024988
0001d0 25 cf fe bb 76 c4 9a 3c 13 b0 de 3c cb a6 1d bd
       -0.0077761584 0.018892508 0.027183568 -0.038489144
0001e0 50 b3 1c 3c b4 bc 0f 3d 27 f3 36 3c ae 46 28 bd
       0.009564236 0.03509207 0.0111663705 -0.04108303
0001f0 2c 56 41 3c fd e9 0d bc f9 ea a9 bb 7d 3c 26 bd
       0.01180033 -0.008661744 -0.0051854816 -0.04058503
000200 9b 95 a4 bc 8d 59 18 bb aa e5 df bc 7e 29 27 bd
       -0.020090869 -0.0023246736 -0.027331192 -0.040811054
000210 6e b5 cf 3c 63 5d fb 3c 38 88 14 3c ef 50 20 bd
       0.025355067 0.030684179 0.00906568 -0.039139684
000220 3e 59 f5 bc 3d c1 99 bc 45 6e ff bc dd 56 2a ba
       -0.02994978 -0.018768901 -0.03118051 -0.0006497929
000230 76 f3 5b 3a 51 01 f6 bc 27 41 aa bc 79 21 e6 3c
       0.00083904655 -0.030029925 -0.02078302 0.028092133
000240 7d f3 58 3c 4a 67 1c bd 6d 7a b3 bc ef be 03 bd
       0.013241646 -0.03818444 -0.021908963 -0.03216451
000250 ab df 1e bd 0e 97 09 3d 7a 9e b8 3c 3a 13 38 bb
       -0.038787525 0.033591323 0.022536505 -0.0028087632
000260 1b 02 26 bd 0e 5e 77 bc 44 c8 8d bb e1 5e fe bc
       -0.04052935 -0.015098108 -0.004326852 -0.031051101
000270 10 eb 4d 3c 00 b6 af 37 4c 5d 82 3c c6 f0 e6 3a
       0.01256825 2.0946376e-05 0.015913628 0.0017619363
000280 44 ce 75 bc 33 97 13 bc 32 66 a1 bc d8 5b 0d bd
       -0.015002791 -0.009008217 -0.01970205 -0.034511417
000290 4e 61 83 bc 10 ed 25 3c 12 43 fa bc 9a a5 17 bd
       -0.01603761 0.010127321 -0.03054956 -0.037023164
0002a0 f7 27 02 3d 74 9f a4 bc a6 49 80 3c 01 bf 29 3c
       0.031776395 -0.020095564 0.015660118 0.01036048
0002b0 63 7c 97 3c 4c 3a c7 3c fc d3 13 3c 9e fd 38 3c
       0.01849193 0.02431979 0.009022709 0.011290936
0002c0 9b 82 66 bc 67 da 73 bc 12 cd 3f 3c 23 65 93 3c
       -0.014069225 -0.014883614 0.011706607 0.017992562
0002d0 66 47 87 3c 16 36 47 bc b2 27 82 bc 89 34 56 bb
       0.016513538 -0.012158891 -0.015888069 -0.0032685122
0002e0 f4 74 1e bd 41 77 d7 3c d3 ba fc 3c b8 aa a6 3c
       -0.038685754 0.026301982 0.030850803 0.020345077
0002f0 fe 2b 96 bc bb 79 cc bb 10 2e c7 bc 7d 83 e0 3c
       -0.018331524 -0.0062400973 -0.024313956 0.027406448
000300 df 04 00 bd e0 2f fc 3c fc 6c 5a 3c 9e 92 b9 bb
       -0.031254645 0.030784547 0.013331648 -0.00566323
000310 5a 4b a7 3c bc 56 3e bb c5 57 92 bc 92 e7 12 bc
       0.020421673 -0.0029043397 -0.017864117 -0.0089663435
000320 02 39 e7 3c e6 9a 15 bc 94 01 61 bc 0d 02 29 bd
       0.028225426 -0.009131169 -0.013733286 -0.04126172
000330 f9 b2 44 bc aa 83 29 bd bf 95 c6 3c 64 6c f9 bc
       -0.012005561 -0.04138533 0.024241326 -0.030447192
000340 21 de 3d bc 49 6c 08 3d 7f b3 ea b7 7b 60 04 bd
       -0.011588604 0.033306394 -2.7978558e-05 -0.032318573
000350 6e 09 2c bd 91 3e 15 bd c0 cc 12 bc 86 5a c6 3c
       -0.04200118 -0.03643662 -0.008959949 0.024213087
000360 dc da c8 3c 11 df 24 bd fa 61 e3 bc e9 0d 98 bc
       0.024518423 -0.040251795 -0.02775668 -0.01856132
000370 61 9d 18 3d 89 58 aa bc 46 25 b3 3c 99 69 1f 3c
       0.037259463 -0.02079417 0.02186836 0.009729766
000380 24 6d b2 3b 7d 6c af bc 57 86 0d bd 84 e9 bb bc
       0.0054451395 -0.021414036 -0.034551945 -0.022938497
000390 40 6e 21 bd a3 fd 78 ba 86 57 99 3c a9 5c 31 bd
       -0.039411783 -0.0009498244 0.018718492 -0.04330126
0003a0 70 27 b3 3c 99 18 16 bd cd b4 62 3c 5f fb 25 bd
       0.021869391 -0.036644552 0.013837052 -0.04052293
0003b0 ad 38 9a bc e3 6b df bc 49 85 da 3b 74 23 ab 3c
       -0.018825853 -0.027273124 0.006668721 0.020890929
0003c0 c6 95 7c 3c 02 be 7b 3c e1 ed 12 bd 1a 10 66 3c
       0.015416568 0.015365126 -0.03587139 0.014041925
0003d0 a0 e2 fb bc c8 fd d1 3c 61 66 16 bd 4a 86 e4 bc
       -0.030747712 0.025633708 -0.03671873 -0.027896065
0003e0 1f 4f 89 bc 36 a0 20 3d 84 be 14 3c 05 21 c8 bc
       -0.01676136 0.03921529 0.009078626 -0.024429807
0003f0 7e 49 dd 3c d0 2a a1 3c 5f 72 06 3d b3 00 27 bc
       0.027012583 0.019673735 0.032823917 -0.010193038
