checkpoint/US/random-noise/classifier.pt (torch, 3111 bytes, 1 tensors)

linear.weight f4 [1, 512]
00000000: d625 5ebe 7c8c 0ebe 09fd 023e c3b6 2c3e
00000010: a126 ebbc 6b50 f63d e2da ecbc 175f afbd
00000020: b117 79be 33fa a1bd 5508 08be 8911 5d3e
00000030: 69cd 84bd d6ce 11bd 9268 b63d a3f5 9d3d
00000040: 677c 22be 1310 a0bc 2de9 413d c0b6 593c
00000050: e61e a73d fa01 06be 3c5f 47bd 7156 00be
00000060: 0136 4b3d 6b37 243d a424 803d a8d6 2dbe
00000070: 4188 8ebd 51d5 b1bb 51b8 9d3d 20e2 fabd
00000080: 407c 1d3e 17a8 50be 5295 ebbd fefa 6abe
00000090: aaa9 a2bd 5a8e e6bc f40c b93d 8dfb 12be
000000a0: 2f96 153e dd32 10be 46ad 53be 17b2 b83d
000000b0: 016e 05bd 7aa8 8f3d 10f6 91be b793 0e3e
000000c0: 27ef c23d 3412 e33b 5202 ee3d 92a5 f5bd
000000d0: 24ca 52be b647 283e beb9 87bd 26bf bd3d
000000e0: 266d 87be cfa9 27be 2947 c5bd 00ac efbd
000000f0: ee0c 58bd 3fc1 47bd 0dec 843c 15ec 4abe
00000100: f950 2cbb b2ca 133c 8ff0 a83d 7b00 bb3d
00000110: cfb1 793d 5011 3bbe 46e0 893c 6ae2 d8bd
00000120: c7e2 da3d 5bf0 5abe fbf5 4dbd ad47 98bd
00000130: 7ee1 bdbc d12e 44be a44c 9e3d 2e04 003e
00000140: 726d 68be de14 053e 5d17 0b3e dc93 46be
00000150: 9bbd 87bd 3574 ee3d f6af 18be d4cb 2cbc
00000160: b71f 0d3c 5bef 473d 8c28 d53c c6ad d63c
00000170: a9bd 64be 71ef 583d 467f 153d 1eb0 003e
00000180: 57fe 313d effe b7bd 23de a8bd c73c af3d
00000190: 1e06 803c 7989 1e3e 1af3 05be 8ee6 0fbe
000001a0: 7a00 903d 9441 04be b91a 983d c9e3 933d
000001b0: 1640 afbd 85b3 bdbc 31d7 49bd ea1b d83d
000001c0: 10c0 d5bd 45d3 103c a34d aebd ab1a 70bd
000001d0: c6bd 523d 450f 163d c784 a23d 1256 d03c
000001e0: 57dd ef3d 63c1 583c 8dd3 3ebe da62 27bd
000001f0: 00f1 bfbd 5053 a03d ad8d f7bd 5384 25be
00000200: 514a b7bd 6153 bfbd a7a2 dabc 5da7 59be
00000210: 89d3 1c3e fd1a ee3d 31d1 48be b481 bfbd
00000220: 581c aebc 8d5c b0bd 0c0a 4bbd cce8 63be
00000230: 9772 6c3c ac9e 003e 695d 07be 9d2f a03d
00000240: 0332 21be 05e3 02be 6384 4cbe 1db5 143e
00000250: 526b 193e 51e6 8bbd 1249 24be 3422 05bd
00000260: c28b 65be cebb 15be f013 c93a ae9a 9fbc
00000270: 012d b53d c06a 7cbe f4c6 d33d d862 abbd
00000280: 4cb7 e8bd 88e3 69bd 7957 783d 0f8c 93bd
00000290: 28ad c6bd 132b 643b cb84 c53d 9010 90bd
000002a0: 353c 063e 4b1d 8cbd 0879 4f3d 3891 4e3d
000002b0: 3ccc 553d 277a 023c b22a 083c d501 b93d
000002c0: 618b d6bd c636 79bc c723 8abd 6bbd c23d
000002d0: 9e8e 883d a662 2abe 502d 553d 5d7a b13d
000002e0: 31fd 63be 6059 1d3e f95f e43c 9063 e0bd
000002f0: ac61 60bd b709 433b 6326 b23d 3180 b13d
00000300: f896 73be b052 a5bc 5bfb d1bd b893 ca3d
00000310: 8180 cabd c1ad b8bc 1916 0fbe 4f32 49be
00000320: d503 943d 1d0e f6bd 8f59 e9bd aa0f 973d
00000330: c38c 083e f571 4a3d 99e2 a7bc c4fc 9dbd
00000340: ef05 873c c53f bfbd ae96 d2bb bbc9 1ebd
00000350: d6b4 473d 4f4b ecbd b63d aebd 17ce d43d
00000360: 4efb 903c 2884 19be 2838 1ebe f597 28be
00000370: 6d37 7b3d 8713 873d 1078 32be ffcf a9bd
00000380: 7dd5 13be d453 d6bd 6cb8 2e3d f574 e4bd
00000390: 483b 00bd f459 e6bd 4fe7 45b9 8364 a33c
000003a0: fae9 83bd 69e4 70bd df96 bdbd 71f2 d5bd
000003b0: 8576 36be befa f73d 2a47 f4bd f5b8 033d
000003c0: a1b0 f63d 6e9d 193d f56b 043e 9898 1cbe
000003d0: c29b 29be a5d7 063e adb1 86bd c18d d6bd
000003e0: 558d f23d a886 be3a fef1 1ebe 4beb f23d
000003f0: 130d 393e 137e 033e 3981 71bd cdd0 09be
-0.21694121 -0.13920778 0.12791838 0.16866593 -0.028704943 0.12027057 -0.028912965 -0.08563059
-0.24325444 -0.0790905 -0.13284428 0.2158872 -0.064844914 -0.035597645 0.08906664 0.07712867
-0.15867768 -0.019538915 0.047341514 0.0132882 0.0816019 -0.13086691 -0.048674807 -0.12532975
0.04961205 0.040091913 0.06256989 -0.16976416 -0.06959582 -0.0054270406 0.07701171 -0.12250161
0.15379429 -0.20376621 -0.1150309 -0.22947308 -0.07942517 -0.02814405 0.09035674 -0.14353772
0.14608072 -0.14081903 -0.20671567 0.09018343 -0.03257561 0.07014556 -0.28508043 0.13923536
0.09518271 0.00692966 0.11621536 -0.11994471 -0.20584923 0.16433606 -0.066272244 0.09264974
-0.2645046 -0.1637337 -0.09632713 -0.11702728 -0.052746706 -0.04876828 0.016225839 -0.1981662
-0.002629338 0.009020494 0.08249008 0.09130951 0.060960587 -0.18268323 0.016830575 -0.1059006
0.106877856 -0.21380751 -0.050283413 -0.07435546 -0.023178812 -0.19158484 0.07729462 0.12501594
-0.22698 0.12996241 0.13583131 -0.19392341 -0.06627961 0.116432585 -0.14910874 -0.010546643
0.008613518 0.04881225 0.02602031 0.026205909 -0.22337975 0.052962724 0.03649833 0.12567183
0.043455448 -0.089841716 -0.08245494 0.08556514 0.015627917 0.15482129 -0.13081017 -0.14052793
0.07031341 -0.12915641 0.07426972 0.07221181 -0.08557145 -0.02315689 -0.04927749 0.10552199
-0.10437024 0.008839433 -0.08510902 -0.058619183 0.051450513 0.036635656 0.079354815 0.025431667
0.11712139 0.013229701 -0.18635388 -0.040865757 -0.09372139 0.078283906 -0.120875694 -0.16163759
-0.089497216 -0.09342075 -0.026688887 -0.2125525 0.1531507 0.11626241 -0.1961105 -0.09350911
-0.02125375 -0.08611403 -0.04957013 -0.22256774 0.014431617 0.12560529 -0.13219227 0.078215815
-0.15741734 -0.12781914 -0.19972377 0.14522214 0.14982346 -0.06831039 -0.16043499 -0.03250332
-0.22416595 -0.14622423 0.0015341025 -0.019482937 0.088464744 -0.24650097 0.10340682 -0.08368462
-0.11363086 -0.057101756 0.060630295 -0.072044484 -0.09700996 0.0034815713 0.09644469 -0.07034409
0.13108905 -0.06841525 0.050652534 0.05043146 0.052196726 0.007963694 0.008310961 0.090335526
-0.10475803 -0.015210813 -0.06745105 0.09508785 0.06667827 -0.16639194 0.052045166 0.08665917
-0.22264554 0.15366125 0.027877795 -0.1095649 -0.054780647 0.002976043 0.08698728 0.08667029
-0.23788059 -0.02018103 -0.102530204 0.09891456 -0.098877914 -0.02254379 -0.13973273 -0.19648097
0.072272934 -0.12014411 -0.11394035 0.073760346 0.13334946 0.049425084 -0.020493792 -0.07714227
0.016482322 -0.09338335 -0.006426654 -0.038766604 0.048756443 -0.115378015 -0.08507864 0.10390871
0.017697956 -0.1499182 -0.1545111 -0.16464217 0.061332155 0.065955214 -0.17428613 -0.08291625
-0.14436908 -0.10465208 0.042656347 -0.1115512 -0.031306535 -0.11247626 -0.00018873553 0.019945389
-0.06441112 -0.05881158 -0.09257292 -0.10446633 -0.17818649 0.12108372 -0.11927636 0.03215881
0.12045408 0.037503652 0.12931807 -0.15292585 -0.16563323 0.131682 -0.06576858 -0.10476256
0.11843363 0.001453598 -0.15522 0.11861285 0.18071394 0.12841062 -0.058961127 -0.13458557
