checkpoint/SupCon/interpolate/classifier.pt (torch, 3111 bytes, 1 tensors)

linear.weight f4 [1, 512]
000000 8b 8f 58 be 2d 7c 36 be 7e 87 b9 bc 93 ed 3b 3e
       -0.21148507 -0.17820807 -0.022647616 0.18352346
000010 61 28 52 be 2c 68 31 be 67 5f 58 be 26 9e 21 3e
       -0.20523216 -0.17324895 -0.21130143 0.15782985
000020 06 d2 01 be cc 5a f7 3d af 23 4a be 12 0d 57 be
       -0.12677774 0.12077865 -0.19740175 -0.2100108
000030 d0 0f 58 3e 6c 3b 11 be 7e cf 33 3e 6c 75 f7 bd
       0.21099782 -0.14182824 0.1755962 -0.12082943
000040 40 9a 24 be 3d e7 70 3e 39 04 50 3e a4 34 ad 3d
       -0.16074467 0.2352571 0.20314111 0.08457306
000050 0c 4b 11 be ea 78 4e be 23 ff 3c be 09 75 48 be
       -0.14188784 -0.20163313 -0.18456702 -0.19575895
000060 0b 5c 21 be 60 58 64 be 9f 8d ed bd 7d ac 2a be
       -0.15757768 -0.22299337 -0.11599278 -0.16667362
000070 bd 22 50 3e 20 38 5d 3e fa 47 21 be 0e d0 4e 3e
       0.20325752 0.21603441 -0.15750113 0.20196554
000080 f0 40 6c 3e 0d 07 6c 3e 97 fb 34 3e 14 78 3e be
       0.23071647 0.23049565 0.17674099 -0.18600494
000090 11 95 49 be 5f 7c 1a be 9b b9 4f be e9 26 3f be
       -0.1968577 -0.15086506 -0.20285647 -0.18667187
0000a0 14 ff 0a be ad f5 4d 3e d0 1c 48 be 6b f4 0c 3e
       -0.13573867 0.20113249 -0.19542241 0.13765113
0000b0 41 b9 2c 3e 0f 48 00 be 9b 51 4d 3e ae 60 f9 bd
       0.16867544 -0.12527488 0.20050661 -0.12176643
0000c0 32 8b 52 be 04 6c 5a be 44 b3 17 3e d0 9a 46 be
       -0.20560911 -0.21330267 0.14814478 -0.19394994
0000d0 a0 4a 2f be ab 5c 57 bd 88 03 4b be cf 98 1a be
       -0.17118311 -0.05257861 -0.19825566 -0.15097354
0000e0 a8 5a 0d be f1 96 50 be 47 f4 24 be 4d ef 20 be
       -0.13804114 -0.2037008 -0.1610881 -0.15716286
0000f0 54 ba 21 3e 2e 89 23 be 51 00 23 be 93 04 36 3e
       0.15793735 -0.15970299 -0.1591809 0.17775182
000100 60 d3 0b be 92 b7 65 3e 5b 67 38 be ce d6 0f be
       -0.13654852 0.22433308 -0.18008177 -0.14046785
000110 59 b3 48 3e 60 f1 20 be 29 cb 31 be a8 aa 36 3e
       0.19599666 -0.15717077 -0.17362656 0.17838538
000120 c8 1a 3b be f0 f6 39 3e 67 06 22 be 40 52 01 3e
       -0.18271935 0.18160605 -0.15822755 0.12629032
000130 d8 a9 74 be 48 ad 40 be df 53 2b be 28 ab 1f 3e
       -0.23892915 -0.18816102 -0.16731213 0.15592635
000140 c5 0a 4b 3e 90 e7 15 be 24 d9 45 be 2b f0 f4 bd
       0.19828327 -0.14639115 -0.19321114 -0.11959871
000150 9c 12 5b 3e 98 37 33 be db 2b 32 be dd 80 13 be
       0.21393818 -0.17501676 -0.17399542 -0.14404626
000160 f0 8e 44 3e c8 f6 0c be 69 a6 d3 bd d3 b4 05 be
       0.19195151 -0.13766015 -0.103344746 -0.1305726
000170 5d cb 1c be a9 ed 12 be 60 84 54 be 2a c8 34 be
       -0.15311952 -0.14348473 -0.20753622 -0.17654482
000180 e1 5d 4c be e4 de 33 be 56 04 47 be 88 8e 18 be
       -0.19957687 -0.17565495 -0.19435248 -0.14898121
000190 38 67 2a be 4a 0c 3d be f2 34 45 be 2d d2 23 be
       -0.16640937 -0.18461719 -0.19258478 -0.15998144
0001a0 0a b7 1a be a9 02 28 3e 21 ad 6b 3e ac 4c 3f be
       -0.15108886 0.16407265 0.23015262 -0.18681592
0001b0 d3 26 fa bd d8 90 1b 3e c7 0b 0d be 56 8c 1b be
       -0.122144364 0.15191972 -0.13774024 -0.15190253
0001c0 5e ff 27 be 53 c2 19 be 37 bf 68 be 38 68 0f be
       -0.16406009 -0.15015535 -0.22729193 -0.140046
0001d0 ce 8c 19 be 87 44 3c be dc e7 06 3e b1 86 22 be
       -0.14995119 -0.18385516 0.13174385 -0.15871693
0001e0 51 28 2e be ec da 36 be 41 53 0d be 95 02 33 be
       -0.17007567 -0.1785695 -0.1380129 -0.17481454
0001f0 77 e8 13 be 7f 7c 2b be 56 27 1a be 40 76 35 3e
       -0.14444147 -0.1674671 -0.15054068 0.1772089
000200 d5 4c 81 3e 75 64 48 be 20 fd d1 bd 6d 8f 4c be
       0.2525393 -0.19569571 -0.10253358 -0.19976588
000210 2c a6 4c 3e 80 f9 05 be 40 ed 07 be f9 b1 20 be
       0.19985265 -0.13083458 -0.13274097 -0.15692891
000220 64 0c 28 be 58 72 b0 3d a7 46 46 3e ba 78 15 3e
       -0.16410977 0.08615559 0.19362889 0.14596835
000230 fa 93 1e be 8a 43 06 be d7 0c 32 3e e4 f2 21 be
       -0.15486136 -0.13111702 0.1738771 -0.15815312
000240 68 bc 06 be 52 5f e8 3d a0 ac 28 be 94 fc ec bd
       -0.13157809 0.11346306 -0.16472101 -0.11571613
000250 75 0e 34 3e 6e ca 03 be 43 08 d4 bd 5d 3f 71 3e
       0.1758364 -0.1287019 -0.10353138 0.23559327
000260 17 44 2d be 66 32 3d be 6c 0f 87 3e 29 d4 45 3e
       -0.16920505 -0.18476257 0.26378953 0.19319214
000270 4b 89 6b be 56 31 25 3e 63 ac f1 bd 69 84 35 3e
       -0.23001592 0.16132101 -0.11800458 0.17726292
000280 c8 d7 0b be 48 39 00 be 41 70 3f be 64 f7 75 3e
       -0.13656533 -0.12521851 -0.18695165 0.24020153
000290 3f 40 14 be d1 9e d9 bd b7 a8 04 be c7 dc 10 3e
       -0.14477633 -0.10625995 -0.12954985 0.1414672
0002a0 f3 db 56 be 62 da 1d 3e f2 dd 82 3d 46 85 7c 3e
       -0.20982341 0.15415338 0.06389989 0.24660215
0002b0 26 ae 1f be 99 23 4c be f0 88 25 be 38 1a 37 be
       -0.15593776 -0.19935454 -0.16165519 -0.17881095
0002c0 fe d4 3b 3e 21 ed 30 be b7 fe 54 be 48 f0 17 be
       0.18342969 -0.17277957 -0.20800291 -0.14837754
0002d0 c7 53 09 3e 0d 7a 24 be a1 ac 2a be 89 90 5c be
       0.13410865 -0.16062184 -0.16667415 -0.21539511
0002e0 e9 02 2c be 76 9d 38 be b0 cf 32 be ef 11 2c 3e
       -0.16797985 -0.18028817 -0.17462039 0.16803716
0002f0 da be 7a 3e de 4f ea bd 65 05 3e be 0b 0a 07 be
       0.24486867 -0.11441015 -0.18556745 -0.13187425
000300 09 6f 06 3e ae 46 0e 3e 92 21 eb bd b0 b0 29 be
       0.13128294 0.1389415 -0.114810124 -0.16571307
000310 bd 0f 0c be 28 a7 de bd c1 2e 5d be 54 8b 12 be
       -0.13677879 -0.10871726 -0.21599866 -0.14310962
000320 a7 44 37 be 48 bc 2e be 3c 6c 34 be a3 b8 1e be
       -0.17897283 -0.17064011 -0.17619413 -0.15500121
000330 a0 4a 3d be 9e 15 3b be c3 25 3c be 8a 8c 29 be
       -0.18485498 -0.18269965 -0.1837378 -0.16557518
000340 ed bc 20 be 6f 81 34 3e a6 2d 35 3e 3e da 0f be
       -0.1569707 0.176275 0.17693195 -0.14048097
000350 e8 10 4e 3e 3f 89 23 3e cf 4c 56 be 81 05 0a be
       0.20123637 0.15970324 -0.20927738 -0.13478662
000360 fb b7 0e be 96 8d 06 be 16 68 35 be c4 6a 0c be
       -0.1393737 -0.13139948 -0.17715487 -0.13712603
000370 cf b2 d5 bd 9f 15 10 3e e3 56 45 be 1d d0 2d 3e
       -0.10434496 0.14070748 -0.19271426 0.1697392
000380 9f 07 45 3e c9 c3 8b 3d 37 03 84 3e 14 37 3d be
       0.19241188 0.068244524 0.25783703 -0.18478042
000390 18 86 1d be 32 94 22 be 21 95 3a 3e 9b dc 2f be
       -0.15383184 -0.15876845 0.1822095 -0.17173998
0003a0 13 b4 1e 3e 3c df cd bd 14 0d 3e be f4 71 5c 3e
       0.1549838 -0.10052344 -0.18559676 0.21527845
0003b0 99 1c 3e be 8b d4 44 be 0b 63 48 be df 39 19 be
       -0.18565597 -0.19221704 -0.19569032 -0.14963482
0003c0 d4 59 07 3e b9 b3 3d 3e ab 19 33 be 31 51 20 3e
       0.1321786 0.1852559 -0.1749026 0.15655972
0003d0 a7 10 28 bd c5 27 52 be d9 4d 22 be dc bc 5b 3e
       -0.041031506 -0.20522983 -0.15850009 0.21458763
0003e0 6b ee 12 be 26 95 20 be d1 3f 53 3e 43 18 00 be
       -0.14348762 -0.15681896 0.20629813 -0.12509255
0003f0 f4 34 1d 3e e1 12 4d be 87 d4 24 3e c3 5c 33 be
       0.15352231 -0.20026733 0.16096698 -0.17515855
