checkpoint/OS/extrapolate_intra/classifier.pt (torch, 3111 bytes, 1 tensors)

linear.weight f4 [1, 512]
00000000: 9dcd cfbd 97ec 5a3d 94d0 84bd e15f 7fbd
00000010: 2849 c9bd 0b3e 24bd 3c43 2abe b730 41bd
00000020: 8951 37bd 6dde 27be 12b4 2dbe 56b7 10be
00000030: 92d7 cebd 640b 00be 8c45 1abe aaec 4d3e
00000040: 9972 febd e60b c93d 74fb 08be ec6e 0fbe
00000050: 2c84 95bd 0b6d 00be 0cf0 d1bd 187b 16be
00000060: 82ed 27be a0d9 4f3e a268 6e3e 9af3 b2bd
00000070: 7269 de3b 55b4 c33d 6be6 1ebe 3af1 683d
00000080: 883f 913e 67b6 22be d5c6 ffbd 98e8 0ebe
00000090: 41ee e0bd bdf1 07be 4b9a 4d3e fdba d4bd
000000a0: 8e2d b33c 03ce 37be 3137 16be 0f2a 1abe
000000b0: bbbe 9a3e fa9e 30be cc33 29bd 5200 623e
000000c0: f084 fe3d 93bf 05be a6d6 293e a28b efbd
000000d0: d21b 0fbe 44ef 523e 8811 1cbe ddbe 19be
000000e0: 2f59 1cbe 94a0 8f3e e7cf adbd f411 05be
000000f0: fc3d 833e fec0 e8bd b9d7 19be e229 8c3e
00000100: 74cd e1bd 28da cebd 784b d0bd 8565 d3bd
00000110: e142 efbd af92 20be 7019 6c3e 9964 943e
00000120: 10da b1bd 2155 ffbd 40aa 0dbe 1df3 023e
00000130: c187 3fbe bea0 fabd f246 06be 4269 0ebe
00000140: a5cb 07be 6fd7 4fbd ec5b 2d3d 73f6 23be
00000150: 9553 a2bd 1725 11be 8db4 c5bd e5a3 ce3d
00000160: 82bd b4bd af19 443e 8a6d 1bbe f6d5 27be
00000170: b822 c5bd 1626 7d3e 114e 0a3e b829 9c3e
00000180: 6c3b 11be 3f78 f4bd 040f 0c3e 76a5 f7bd
00000190: 1fe4 b2bd 2c75 813e 7d2e 38be bdc7 38be
000001a0: d67a 983e 77a9 f9bd bb4c 943d c4a9 05be
000001b0: a0eb 16be 7e2d 0d3e a31e eebd e581 fcbd
000001c0: 497b 6dbc a872 2d3e 8154 30be cc8e 0fbd
000001d0: b18c dcbd 6fe2 cbbd 345b cbbd 9fe0 0f3e
000001e0: 1211 0abe 676e 02be d027 07be 5999 11be
000001f0: a9b1 8abd 4d71 8c3e 9066 2abe 923a 2abe
00000200: 5485 413e 0bee 15be c254 203e d5f9 c43d
00000210: 3907 28bd a0e2 203e 2928 693e a7e0 ef3d
00000220: 57c4 32be 2c17 e4bd db5a 883d ce0b 53be
00000230: d94a 06be 50ff f0bd c550 03be 7991 f3bd
00000240: 3593 10be 0584 543e fbe2 26be 270b 9c3e
00000250: bdc1 dbbc c90c 31be 7e15 723e 31d5 f73d
00000260: d354 0dbe ee32 0fbe 97b4 3cbe 2cfb 09be
00000270: a9bf 783e bc1b 3a3e 5051 acbd 7b59 14bd
00000280: b2e9 1bbe dc94 d1bd 9052 afbd fdf3 09be
00000290: 4758 173e 7695 03be a5d6 38be 0aab 69bd
000002a0: a040 27be 56a5 7f3e 9824 0cbe 6cd7 c7bd
000002b0: 0308 07be 84fa 3abe 4ba4 1abe 7ea3 5c3e
000002c0: da0b 11be 028d 9d3b d6d4 29be 337b 42be
000002d0: 6e8d 3e3e 5700 25be 2667 c3bd 7454 f9bd
000002e0: e411 d5bd 4098 13be 5737 203e 7482 89bd
000002f0: 918f 563e b3e6 8cbd 5e09 f5bd e8d9 343e
00000300: a6af e9bd 8ee7 dabd e5c3 cbbd a992 113e
00000310: 85bf 49be 58c5 fabd 8d16 2a3e 6b20 983e
00000320: 33e4 223e 1442 6f3e 759c 563e d425 913d
00000330: fba1 8a3e d364 00be 3fba 0e3e ace3 ccbd
00000340: b6a0 efbd f157 22be 2b49 03be fd2a d73c
00000350: b0f2 fabd 8bd1 2ebe de1c 4cbe 8d49 f6bd
00000360: 4e93 693e 2130 32bd 7c10 1f3e 6093 02be
00000370: ae28 06be 1681 8ebd 30e8 f4bd bc4a 0abe
00000380: f6fc 903e 1bf0 09be 1e8e 2c3e 24a1 e9bd
00000390: 9c3c febd b087 07be 1bfe c5bd 63d3 c6bd
000003a0: 7955 823e 6752 99bd c2b8 0bbe 2c5d 00be
000003b0: e36e 143e dad4 a33d 0489 d13d 7fe4 01be
000003c0: 62ba b8bd 37da 6abd 4d5b 13be 5dd8 02be
000003d0: a6c3 e0bd c070 b0bd 544a 9a3e 548b 20be
000003e0: 82a3 013e 38dc 91bd bfb4 0dbe bdb0 29be
000003f0: cb26 2ebe f4b9 293d 4125 d2bd ac87 6f3e
-0.101466395 0.053448286 -0.064850956 -0.062347297 -0.098284066 -0.04009823 -0.1662721 -0.0471656
-0.044755492 -0.16393442 -0.16963223 -0.14132437 -0.100997105 -0.12504345 -0.15065593 0.20109811
-0.124242015 0.098167226 -0.13377172 -0.14007157 -0.073006004 -0.12541597 -0.102508634 -0.14695394
-0.16399196 0.20297861 0.23282102 -0.087378696 0.0067874724 0.0955588 -0.15517585 0.056870677
0.28368783 -0.15889893 -0.12489096 -0.13955915 -0.10982943 -0.1327581 0.2007839 -0.10387228
0.021872308 -0.17949681 -0.14669491 -0.15055107 0.3022364 -0.17248145 -0.041309163 0.22070435
0.124276996 -0.13061361 0.16585788 -0.11696555 -0.13975456 0.20599085 -0.15241063 -0.15014215
-0.15268396 0.280522 -0.0848692 -0.1299513 0.25633228 -0.11364935 -0.15023698 0.27375704
-0.11025515 -0.10100204 -0.101706445 -0.10322098 -0.11682678 -0.15680955 0.23056579 0.28983
-0.0868417 -0.12467409 -0.13834476 0.12788053 -0.1870413 -0.122376904 -0.13113001 -0.1390734
-0.13261278 -0.050742563 0.04232399 -0.16011982 -0.07926098 -0.14174305 -0.09653578 0.10089854
-0.08825208 0.19150423 -0.15178505 -0.16390213 -0.09625763 0.2472156 0.13506342 0.3050058
-0.14182824 -0.119369976 0.13677603 -0.12092106 -0.08734917 0.25284708 -0.17986484 -0.18044944
0.29781216 -0.12190526 0.07241198 -0.13053042 -0.14738321 0.13786885 -0.11626937 -0.12329463
-0.0144947255 0.16938269 -0.17219736 -0.03504829 -0.10769022 -0.09955298 -0.09929505 0.1405053
-0.13483074 -0.12737428 -0.13198781 -0.14218654 -0.06772167 0.27430192 -0.16640687 -0.16623905
0.18898517 -0.14641587 0.15657333 0.09617964 -0.041022513 0.1571145 0.22769226 0.11712771
-0.1745771 -0.11137232 0.06657954 -0.20609972 -0.1311449 -0.11767447 -0.1282378 -0.11892981
-0.14118655 0.20753486 -0.16297524 0.3047726 -0.02682578 -0.17290033 0.23641011 0.1210121
-0.13801889 -0.13984272 -0.18428265 -0.1347472 0.24291863 0.18174642 -0.08413947 -0.036218148
-0.15225866 -0.10233471 -0.085606694 -0.1347198 0.14779769 -0.12849984 -0.1805063 -0.05704788
-0.16333246 0.24965414 -0.13685834 -0.09757885 -0.1318665 -0.18259627 -0.15101735 0.21546742
-0.14164677 0.004808069 -0.16585097 -0.1899231 0.18608639 -0.16113411 -0.095411584 -0.12174311
-0.10403803 -0.14413548 0.1564611 -0.06714335 0.20953204 -0.0687994 -0.11964677 0.1766125
-0.114104554 -0.10688697 -0.09949473 0.14216103 -0.19701965 -0.122446716 0.16610165 0.29712233
0.15907364 0.2336505 0.20958121 0.07087293 0.27076706 -0.12538461 0.13938235 -0.100043625
-0.11700575 -0.1585386 -0.1282088 0.026265616 -0.1225332 -0.17072122 -0.19932887 -0.120257474
0.22810099 -0.04350293 0.15533632 -0.12751532 -0.13101456 -0.06958215 -0.11958349 -0.13505071
0.28317994 -0.13470499 0.16851088 -0.11407688 -0.12413904 -0.13235354 -0.096676074 -0.097082876
0.25455835 -0.0748642 -0.13644698 -0.12535542 0.14495425 0.079995826 0.10231212 -0.1268482
-0.09019925 -0.057337012 -0.14390297 -0.12777849 -0.10974817 -0.08615255 0.30134833 -0.1567815
0.1266003 -0.071220815 -0.1383848 -0.16571327 -0.17006986 0.041437104 -0.10261012 0.23391598
