checkpoint/Base/classifier.pt (torch, 3111 bytes, 1 tensors)

linear.weight f4 [1, 512]
-0.07759681 -0.0976502 -0.083379924 0.029038357 -0.058512222 -0.07057421 0.25159076 -0.1772814
0.23642913 -0.06513134 -0.06730691 -0.10355723 -0.15823713 -0.06894836 -0.048758052 -0.023532905
-0.14380813 -0.07257514 -0.19495992 -0.23153 -0.14223902 -0.20344794 -0.16983363 -0.08077927
-0.11114446 0.02988892 -0.082935445 -0.1514847 -0.11206739 -0.08359655 -0.14575951 -0.1707915
-0.08762972 -0.066318594 -0.14263155 -0.096876666 -0.048787802 -0.049317 -0.15816893 -0.066163346
0.14527984 -0.08543452 -0.04340038 -0.19669956 -0.072166145 0.27934918 -0.10647106 -0.2352691
-0.19120142 -0.17727235 -0.06229277 -0.16373293 -0.10158608 -0.11662278 -0.062276274 -0.040190917
-0.035867624 -0.16032591 -0.17635868 -0.13300654 -0.15150063 -0.04629116 -0.16867794 -0.13231106
0.42142743 -0.088843785 -0.09362021 -0.10529931 -0.14573248 -0.107472405 0.23354664 -0.038872227
-0.04836697 -0.09085249 -0.06424446 -0.14167088 -0.02660116 -0.11873595 -0.054329272 -0.029802747
-0.07898906 -0.009079831 -0.040138002 -0.064071745 -0.06669943 -0.09554916 -0.06263265 0.43727678
-0.09343244 -0.1574968 -0.15829517 -0.10432047 -0.051463928 -0.07395929 0.0065562413 -0.092354625
-0.042952757 -0.11417126 -0.003661429 0.011632706 -0.07498969 -0.12659924 -0.08961487 -0.14592661
-0.05754017 -0.06216076 -0.13408741 -0.06450877 -0.13933566 -0.056008957 -0.099711984 -0.10321649
0.21567182 -0.16100322 -0.129839 0.22781163 -0.058846455 -0.13459988 -0.12944026 -0.112695545
-0.12633015 -0.08252382 -0.13692762 -0.09531608 -0.10987109 -0.04477813 -0.12575014 -0.06603194
0.39591065 -0.16583076 -0.044810895 -0.06653585 -0.052209258 -0.05195781 -0.11622306 -0.10014467
-0.18119429 -0.2650771 -0.03516114 -0.12689081 0.18299617 -0.11566372 -0.085394114 -0.07260522
-0.13147426 -0.15796573 -0.094221674 -0.10029706 -0.069468886 -0.099773906 -0.05461559 -0.085627235
-0.07018255 -0.054761834 -0.16107844 0.22087207 -0.098951295 -0.080742195 -0.0604484 -0.07409708
-0.12418259 -0.07983966 -0.08333638 -0.11258063 -0.082554005 -0.054736268 -0.072543226 -0.07673119
-0.046242602 -0.06757417 -0.1423395 -0.09968771 0.058027893 -0.078847975 -0.13901167 -0.14990175
-0.06274435 -0.08274317 -0.11774646 -0.14862855 -0.0734035 -0.060180184 0.25449607 -0.018766688
-0.09491776 -0.09754642 -0.049737595 -0.12561543 -0.09522286 0.4037774 -0.062923655 0.36147642
-0.2256948 -0.09341686 -0.09206237 -0.1285153 -0.025940912 -0.08055843 -0.07295532 -0.0135539565
-0.015163566 -0.12644333 -0.18875225 -0.10045219 -0.13024998 -0.18337859 -0.101608165 -0.10582798
-0.118896395 -0.032181587 -0.069628626 -0.13454202 -0.19227324 -0.19387169 -0.07457726 0.22732557
-0.060377896 -0.05392386 -0.101114675 -0.07139451 0.27289248 -0.12336062 -0.10034859 -0.100993715
-0.081171274 -0.0713638 -0.073824205 -0.057263043 -0.07986799 -0.11450771 0.4404389 -0.03892845
-0.12501773 -0.032894902 -0.11806079 -0.108037405 0.090945475 0.17349756 0.08418463 -0.062805414
0.3366026 -0.04006074 -0.12231197 -0.09025687 -0.07388682 -0.11056036 -0.11892744 -0.1460663
-0.024642669 -0.13722958 -0.09873575 0.3787882 -0.08614279 -0.13068439 -0.11915727 -0.09764905
00000000: 14eb 9ebd d4fc c7bd 18c3 aabd d9e1 ed3c
00000010: 83aa 6fbd 3689 90bd 81d0 803e 4189 35be
00000020: 7a1a 723e 9463 85bd 35d8 89bd d015 d4bd
00000030: ea08 22be cc34 8dbd 86b6 47bd 14c8 c0bc
00000040: 7042 13be 46a2 94bd 93a3 47be 3316 6dbe
00000050: 1ba7 11be a854 50be dee8 2dbe 9a6f a5bd
00000060: b59f e3bd 9cd9 f43c 0fda a9bd ce1e 1bbe
00000070: 9683 e5bd ab34 abbd fb41 15be f8e3 2ebe
00000080: 3677 b3bd 0bd2 87bd 010e 12be 4667 c6bd
00000090: b8d5 47bd 9f00 4abd 09f7 21be a680 87bd
000000a0: 3dc4 143e 4bf8 aebd 99c4 31bd 9c6b 49be
000000b0: d8cb 93bd db06 8f3e 800d dabd 62ea 70be
000000c0: 4eca 43be e286 35be b426 7fbd 9ba9 27be
000000d0: 5d0c d0bd edd7 eebd 6815 7fbd 3b9f 24bd
000000e0: eee9 12bd 7a2c 24be 5f97 34be de32 08be
000000f0: fb22 1bbe cd9b 3dbd e9b9 2cbe 8d7c 07be
00000100: 56c5 d73e bbf3 b5bd f4bb bfbd 2aa7 d7bd
00000110: e53a 15be 7e1a dcbd da26 6f3e 7c38 1fbd
00000120: 721c 46bd df10 babd 9992 83bd 2c12 11be
00000130: adea d9bc d52b f3bd 5f88 5ebd e424 f4bc
00000140: 04c5 a1bd 92c3 14bc bf67 24bd 0c38 83bd
00000150: b699 88bd 47af c3bd 8c45 80bd bee2 df3e
00000160: 8259 bfbd d746 21be 2118 22be f8a5 d5bd
00000170: d7cb 52bd f877 97bd bdd5 d63b 6c24 bdbd
00000180: 3bef 2fbd 9fd2 e9bd 96f4 6fbb 1b97 3e3c
00000190: 3294 99bd 3ba3 01be 0088 b7bd c96d 15be
000001a0: 3eaf 6bbd 489c 7ebd 364e 09be 2d1d 84bd
000001b0: 02ae 0ebe a669 65bd cc35 ccbd 2b63 d3bd
000001c0: 13d9 5c3e 07de 24be 84f4 04be 7447 693e
000001d0: fb08 71bd 8dd4 09be fd8b 04be eccc e6bd
000001e0: b15c 01be 4002 a9bd c136 0cbe 1435 c3bd
000001f0: 1804 e1bd 4669 37bd a5c4 00be c13b 87bd
00000200: cdb4 ca3e 8acf 29be a18b 37bd f343 88bd
00000210: 60d9 55bd b6d1 54bd 5b06 eebd a618 cdbd
00000220: ff8a 39be 30b8 87be 2105 10bd aaef 01be
00000230: 5963 3b3e 1ae1 ecbd 1ce3 aebd 0cb2 94bd
00000240: 30a1 06be c5c1 21be 4bf7 c0bd 8c68 cdbd
00000250: b445 8ebd 4356 ccbd 99b4 5fbd 555d afbd
00000260: debb 8fbd f24d 60bd bff1 24be 4a2c 623e
00000270: faa6 cabd 2a5c a5bd be98 77bd 36c0 97bd
00000280: 7153 febd fa82 a3bd 44ac aabd ac90 e6bd
00000290: 1312 a9bd 2333 60bd 8b91 94bd 3e25 9dbd
000002a0: e268 3dbd 5464 8abd 72c1 11be 1229 ccbd
000002b0: a8ae 6d3d 0c7b a1bd 1359 0ebe d87f 19be
000002c0: 1c80 80bd 4075 a9bd 0e25 f1bd 1532 18be
000002d0: 9354 96bd 7f7f 76bd 4f4d 823e 99bc 99bc
000002e0: 3e64 c2bd 6bc6 c7bd a6b9 4bbd 55a1 00be
000002f0: 3404 c3bd e9bb ce3e 1ede 80bd 7013 b93e
00000300: 8a1c 67be 5751 bfbd 328b bcbd 8499 03be
00000310: 0982 d4bc d1fb a4bd 9969 95bd 6a11 5ebc
00000320: 9b70 78bc 5c7a 01be 4548 41be e1b9 cdbd
00000330: 4060 05be 99c7 3bbe f117 d0bd 57bc d8bd
00000340: f47f f3bd d7d0 03bd 7499 8ebd 62c5 09be
00000350: 47e3 44be 4d86 46be f6bb 98bd 09c8 683e
00000360: d04e 77bd 44df 5cbd 3615 cfbd 4937 92bd
00000370: 90b8 8b3e 7ea4 fcbd 9083 cdbd cbd5 cebd
00000380: 203d a6bd 2f27 92bd 2531 97bd a78c 6abd
00000390: d491 a3bd 0583 eabd 3581 e13e 7073 1fbd
000003a0: a604 00be cebc 06bd dbc9 f1bd b742 ddbd
000003b0: 9f41 ba3d 58a9 313e fe68 ac3d 20a0 80bd
000003c0: 2d57 ac3e bb16 24bd b37e fabd 98d8 b8bd
000003d0: f951 97bd 786d e2bd 3b90 f3bd 6792 15be
000003e0: 6cdf c9bc e985 0cbe f835 cabd 87f0 c13e
000003f0: a26b b0bd 21d2 05be ba08 f4bd 3afc c7bd
