checkpoint/Focal/classifier.pt (torch, 3111 bytes, 1 tensors)

linear.weight f4 [1, 512]
-0.06073078 0.0020065564 0.025660118 -0.027335148 -0.016481103 -0.005808278 -0.030840125 0.022094583
-0.010459479 -0.008523562 -0.0032128405 -0.023389077 -0.04371886 -0.026504593 -0.06764365 -0.046739552
-0.01010515 0.058376543 -0.008804781 -0.009061501 -0.024185568 -0.052231386 -0.029439623 -0.041604575
0.04014188 -0.03435945 -0.022773251 -0.046525713 -0.024123063 0.05132202 -0.032091424 -0.007985436
-0.043915525 -0.045110848 -0.009686598 -0.016586084 -0.020840915 0.043186303 -0.0105393315 -0.0361383
-0.012675264 -0.03233772 0.03865985 -0.02175794 -0.031107366 -0.0051660347 -0.011209979 0.02241991
0.025829956 -0.001580259 0.011109727 -0.04338391 0.009408027 0.02264607 0.038000096 -0.014246095
-0.0135441115 -0.022007922 -0.021974163 -0.043012235 0.024231248 -0.01148719 -0.021714006 -0.034225095
-0.0029693875 -0.020118764 0.033761803 -0.030294785 -0.017897017 -0.019999312 -0.0014697583 -0.023293894
-0.033738386 0.038080633 -0.018739892 0.0021106517 -0.02287308 -0.017198795 0.053964827 -0.030326847
-0.043715615 -0.025786765 -0.02938021 -0.01205042 -0.025812825 -0.013449919 -0.05485209 0.039304465
-0.0321642 0.0042533507 -0.01911024 0.0216447 -0.06790672 -0.02022201 0.0026885928 -0.018719899
-0.01981064 0.022203332 -0.042370416 -0.027323928 -0.029209 -0.0076772654 -0.02551552 -0.028395163
-0.031090634 -0.020040266 -0.039420184 -0.031244703 -0.05531819 -0.03050263 -0.03185142 0.085428596
-0.0039616153 -0.017448256 -0.042116065 -0.025349729 -0.02671372 -0.046945278 -0.05223626 0.042564742
-0.030770112 -0.057425458 -0.028418446 0.02486374 0.026760854 -0.023162633 -0.054858875 -0.027672108
-0.024236098 0.056571007 0.0019394474 0.06920436 -0.017237386 -0.018084686 -0.011076625 -0.021432856
-0.04020589 -0.016675418 0.04148123 -0.043669846 0.018048761 0.027701424 -0.064405076 -0.006649488
-0.029780036 -0.013344185 -0.005034268 -0.00025086585 -0.026190683 -0.022835724 -0.003479019 -0.005904774
0.042709675 0.0015029628 0.041337524 -0.020805594 -0.028951181 -0.008214647 -0.022348825 -0.0052875187
0.0028932074 -0.017062936 -0.04899518 -0.04353722 -0.056220833 0.0071280976 -0.051998492 -0.050146863
-0.036212765 -0.032539893 -0.023828179 -0.014369725 0.05356993 0.0040222164 0.042681567 -0.021225223
-0.0126272645 -0.035397004 0.018011458 -0.0072469767 0.009397253 0.046143856 -0.0330674 -0.030614793
-0.05640628 -0.012823117 -0.02835694 0.049531493 0.052653454 -0.006421634 -0.024515077 0.023173673
-0.018304257 -0.008877355 -0.023903113 -0.011022083 -0.05497415 -0.022067375 0.021186635 -0.019482158
-0.030088745 -0.036711626 0.030058563 0.05615437 0.0009203912 -0.04460606 -0.024489634 0.06403301
-0.0038519104 -0.024041943 -0.029841598 -0.044460118 -0.025586573 0.024153093 -0.027305098 0.039036356
-0.021611843 -0.032062303 0.0014197187 -0.0028343417 -0.06321918 -0.009996766 0.01901352 0.06212094
0.004583581 0.035170812 0.047029126 -0.032442257 -0.050245844 -0.025037836 -0.024666063 -0.061334558
-0.056545835 -0.021981277 -0.006310721 0.026025128 -0.046328012 -0.010782653 -0.03913565 -0.04312232
-0.029401112 -0.013185966 0.010402668 -0.017237673 -0.040955592 -0.047427412 0.010275998 0.051444557
0.05700884 -0.03945667 -0.037422806 0.0007211656 -0.013170045 0.0052073565 -0.018552663 0.02412639
00000000: d7c0 78bd 6e80 033b 2b35 d23c f6ed dfbc
00000010: 6103 87bc 5e53 bebb 6ea4 fcbc b3ff b43c
00000020: 3c5e 2bbc 69a6 0bbc 858e 52bb 739a bfbc
00000030: 8c12 33bd 2920 d9bc c188 8abd f971 3fbd
00000040: 1290 25bc 3e1c 6f3d ee41 10bc b176 14bc
00000050: d020 c6bc 94f0 55bd 5d2b f1bc 8f69 2abd
00000060: d06b 243d 7fbc 0cbd f88e babc bf91 3ebd
00000070: bb9d c5bc 0a37 523d 4c72 03bd 59d5 02bc
00000080: c4e0 33bd 27c6 38bd 89b4 1ebc 8adf 87bc
00000090: 91ba aabc 1fe4 303d 29ad 2cbc c105 14bd
000000a0: e9ab 4fbc 8f74 04bd ca59 1e3d b53d b2bc
000000b0: e0d4 febc d747 a9bb 0faa 37bc f6a9 b73c
000000c0: 5899 d33c b120 cfba 9305 363c 54b3 31bd
000000d0: 2024 1a3c 4084 b93c fda5 1b3d 7468 69bc
000000e0: 1fe8 5dbc f549 b4bc 2903 b4bc 992d 30bd
000000f0: 9c80 c63c c434 3cbc 92e1 b1bc 9d2f 0cbd
00000100: 0e9a 42bb 1bd0 a4bc d149 0a3d c52c f8bc
00000110: c49c 92bc 99d5 a3bc e8a4 c0ba d6d2 bebc
00000120: 4331 0abd 70fa 1b3d 6784 99bc dc52 0a3b
00000130: 5360 bbbc 7de4 8cbc 390a 5d3d 0270 f8bc
00000140: 250f 33bd c43e d3bc c4ae f0bc 206f 45bc
00000150: 6b75 d3bc 0d5d 5cbc 96ac 60bd b8fd 203d
00000160: 9cbe 03bd b15f 8b3b 148d 9cbc 3a50 b13c
00000170: ae12 8bbd a1a8 a5bc 1a33 303b 795a 99bc
00000180: ec49 a2bc c3e3 b53c 9a8c 2dbd 6ed6 dfbc
00000190: b647 efbc 9291 fbbb ec05 d1bc f99c e8bc
000001a0: c9b1 febc 7c2b a4bc 0f77 21bd e4f4 ffbc
000001b0: 5495 62bd a7e0 f9bc a276 02bd 30f5 ae3d
000001c0: 70d0 81bb a5ef 8ebc e581 2cbd 3caa cfbc
000001d0: bbd6 dabc b149 40bd b0f5 55bd 5e58 2e3d
000001e0: 9a11 fcbc f536 6bbd cdcd e8bc 0baf cb3c
000001f0: 9439 db3c 90bf bdbc b3b3 60bd 9eb0 e2bc
00000200: c88a c6bc 00b7 673d 0e35 fe3a 04bb 8d3d
00000210: 6b35 8dbc 5626 94bc bc7a 35bc f593 afbc
00000220: eeae 24bd e39a 88bc 39e8 293d 27df 32bd
00000230: ffda 933c 19ee e23c cfe6 83bd f3e3 d9bb
00000240: 43f5 f3bc 92a1 5abc 80f6 a4bb a586 83b9
00000250: d88d d6bc fc11 bbbc 4100 64bb d67c c1bb
00000260: 57f0 2e3d 10ff c43a 8951 293d 7e70 aabc
00000270: 072b edbc ba96 06bc e214 b7bc ec42 adbb
00000280: f79b 3d3b 92c7 8bbc 2baf 48bd 1654 32bd
00000290: d147 66bd d192 e93b 5ffc 54bd cc66 4dbd
000002a0: d653 14bd 8d48 05bd 5033 c3bc ff6e 6bbc
000002b0: 256c 5b3d cccc 833b ded2 2e3d 85e0 adbc
000002c0: 96e2 4ebc 73fc 10bd c48c 933c 0c78 edbb
000002d0: f0f6 193c 5701 3d3d af71 07bd e0cb fabc
000002e0: 450a 67bd 0d18 52bc d04c e8bc 89e1 4a3d
000002f0: 26ab 573d 926c d2bb d8d3 c8bc b7d6 bd3c
00000300: cff2 95bc 5372 11bc 76d0 c3bc f895 34bc
00000310: 932c 61bd a4c6 b4bc 988f ad3c 0c99 9fbc
00000320: ac7c f6bc ee5e 16bd 603d f63c 2002 663d
00000330: 6846 713a d8b4 36bd 7c9e c8bc bd23 833d
00000340: 5570 7cbb 9cf3 c4bc 5e76 f4bc d01b 36bd
00000350: ef9a d1bc b5dc c53c f1ae dfbc 96e4 1f3d
00000360: 520b b1bc c353 03bd db15 ba3a 5dc0 39bb
00000370: 0f79 81bd 7ac9 23bc 3ec2 9b3c 8772 7e3d
00000380: dd31 963b 450f 103d 9da1 403d 2ce2 04bd
00000390: 96ce 4dbd 261c cdbc 7c10 cabc f239 7bbd
000003a0: 9b9c 67bd 1412 b4bc 2aca cebb a632 d53c
000003b0: 71c2 3dbd b9a9 30bc b44c 20bd 08a1 30bd
000003c0: 9ada f0bc f309 58bc f46f 2a3c 0536 8dbc
000003d0: 0dc1 27bd 3f43 42bd a95c 283c 87b7 523d
000003e0: 1a82 693d 519d 21bd a848 19bd 9b0c 3d3a
000003f0: 2cc7 57bc 79a2 aa3b c1fb 97bc b5a4 c53c
