checkpoint/CB/extrapolate-intra/classifier.pt (torch, 3111 bytes, 1 tensors)

linear.weight f4 [1, 512]
00000000: e0b3 b4bb bd2b e3bb 13ee 42bd 499c 583a
00000010: b04f 873c f439 d13b cb77 aebb e462 fabb
00000020: 8535 663c cb30 ddbc 2ec0 1fbd 9ca4 a5bc
00000030: 31b5 42bd dc7b 0ebc 84b6 923c 945c 753c
00000040: ccbc 4a3c 7af9 41bc 296f 52bd 4123 a83c
00000050: f802 f2bc c839 15bd bb02 1a3d c1b4 99ba
00000060: 9e5d d43c af97 92bc fbb7 93bc 832a 46bd
00000070: 0d9b 47bd d771 34bc 7ee7 b9bc 42c2 c03c
00000080: 1a2a 0abd 2dd5 c2bc 7c9a 303d d5bf 32bd
00000090: 2973 edbc 7d04 443c c459 0dbd 337c 8f3c
000000a0: a06b e53c cfc1 33bd 510a cfbc c163 9a3c
000000b0: fe2a 47bd bbbe d13c 82d4 12bd b6b5 243d
000000c0: a8c0 81bc 4197 75b8 de7c 29bd 45d2 44bd
000000d0: 4063 b23c 67ff d33c 224f bebc b79b f83b
000000e0: 9095 b33b 27b9 02bc e704 5a3b e6c8 f4bc
000000f0: 3bee d83c 138c a339 6467 aabc 7778 3cbb
00000100: a34c a6bc 2dfc 1e3d 7797 c13c 49c4 7fbc
00000110: aa9e 7ebc cef8 a93c 1753 00bd 8551 25bd
00000120: df4e fbbb 9478 e0bc 14b6 5bbc f56f 53bd
00000130: e6f7 4dbd 1b67 21bd 8259 c73c c5ee fd3c
00000140: d135 ab3b 6f26 6c3d ccf9 64bd 913d 0bbc
00000150: f740 7cbb 8ae5 163d 5ef7 223d da8d 1ebd
00000160: 5e9e 12bd 38d8 833c 8f04 d3bc fd22 04bd
00000170: c897 0dbd 2a41 ffbb 65dd eb3c b5b1 bebc
00000180: ba86 923c 0eff c93c 523c 1cbc 27c7 023d
00000190: f050 46bb 4768 70bc e760 8cbb 7d32 083d
000001a0: b98c 2abd d008 203d d3ea 08bd 1bc7 05bc
000001b0: 86bf 02bc e4bd 26bb f608 52bd 8c42 4dbc
000001c0: a4db d23c 5c99 413c 2cc8 133c 17eb 103c
000001d0: 86b9 39bc c37a 073d be19 123d fe87 54bb
000001e0: 7eb5 f0bb 1c09 533c 7727 6fbb 1f31 ecbc
000001f0: 47d9 2cbb 3513 393c e34a 3dbc 91d6 71bc
00000200: e342 54bc ac8b 00bc f39a 42bd 8015 8abc
00000210: 45ca 623c 7da0 f13c 4218 bd3a 5612 31bd
00000220: 5ab7 86bb 5336 53bb 8e3c 313b 9d28 c03c
00000230: 0ab8 38bc 769b 0fbd 85cc e63b ae4a 173d
00000240: b66a c63a cdf0 40bd fc8b 00bd 6ce3 f43a
00000250: 70e7 95b6 c787 633c bb99 023c ba8d 32bd
00000260: 6e06 febc c49b 7fbc a4bf 983c 0bb7 dc3a
00000270: a668 063d 9315 543c bd22 813c 1e6d b63c
00000280: 443d f1bc 6600 35bd 8331 fcbc 86ae 08bd
00000290: 1b47 48bd 532e e23c 56b8 18bd 2f31 c9bb
000002a0: db12 673c cfcb 783a a7e1 cb3c eeab 56ba
000002b0: 262a 803c bda6 203d dbbf a43b 6c82 cd3c
000002c0: e94b 36bd af41 6cbc 7477 233c 4f5a 533d
000002d0: 5130 043d 45b7 a1bc 145b abbc cc46 8fbc
000002e0: 848a a1bc 6b72 2d3d 99fa 043d 77d8 023b
000002f0: d684 8abc 20dc 1cbc 52b0 093b 93dd 573d
00000300: 2d02 24bd 0f69 ff3c 75f0 1f3d 44eb d83b
00000310: 9019 b73c 0ddc 15bc 5e4f 19bd 735b 12bd
00000320: f37e c33b 6b95 20bd e801 bfbc e4ec bebc
00000330: 0cd7 53bc d5e2 51bd fe61 2c3b 4099 d2bc
00000340: 0026 12bc ce57 383c 5df5 8e3c cc53 d2bc
00000350: d216 92bc e5ae 4f3b 69ff b6bc 45de b33c
00000360: dab1 953c 8e0a 47bd af05 41bb 22b7 04bb
00000370: d5c4 0a3d 80b8 2dbd 84a3 d93c 76f0 4f3c
00000380: 0780 cc3c f6af ddbc fecf 2a37 8b37 7fbb
00000390: de70 13bc 5959 debc 470f 013d 7c55 01bd
000003a0: 0aba 1e3d 20a5 8bbb 06e3 a8b9 05da 15bc
000003b0: e41e 1b3b e2e6 cc37 235e c7bb c991 203c
000003c0: 96f6 06bb 4289 3d3c 3587 dabc 9c43 bb3c
000003d0: 9d5a 0dbc f755 8b3c 4a10 4ebd 7fcc e1bb
000003e0: 4eb7 88bc 3a4e b73c acdd f7bb 5937 26bd
000003f0: f10b 3fbc d9c5 fc3c b990 313d ad5c d2bc
-0.005514607 -0.0069327042 -0.047590327 0.00082630344 0.01651749 0.0063850824 -0.005324339 -0.007641183
0.014050846 -0.027000805 -0.039001636 -0.020220093 -0.04753608 -0.008696523 0.017909296 0.014975686
0.012374114 -0.011839265 -0.05137554 0.020524623 -0.029542431 -0.036432058 0.03760026 -0.0011726842
0.025923546 -0.017894594 -0.018032065 -0.048380386 -0.048731852 -0.01101347 -0.022693392 0.02353013
-0.033731557 -0.02378329 0.043116078 -0.043639977 -0.028985577 0.011963961 -0.034509435 0.017515277
0.028005421 -0.043886002 -0.025273474 0.018846394 -0.048624985 0.025603643 -0.035847194 0.040212356
-0.015838936 -5.8553418e-05 -0.04137885 -0.04805209 0.021775842 0.025878621 -0.023231093 0.007586922
0.0054804757 -0.007978714 0.0033267082 -0.029880952 0.026480785 0.00031194146 -0.020801254 -0.0028758326
-0.020300215 0.038814712 0.023631794 -0.015610763 -0.015540758 0.020748522 -0.03132924 -0.040360946
-0.0076693143 -0.027401246 -0.01341011 -0.051620442 -0.050285242 -0.03940497 0.024334673 0.030997643
0.0052249213 0.05765384 -0.055902287 -0.008498565 -0.003849087 0.03684 0.03978669 -0.0387095
-0.035795562 0.016094312 -0.02575901 -0.03225993 -0.034568578 -0.0077897506 0.028792093 -0.023278097
0.017886508 0.024657752 -0.009535866 0.031928208 -0.0030260645 -0.014673299 -0.0042840126 0.033251274
-0.04163811 0.039070904 -0.03342707 -0.008165146 -0.007980233 -0.0025442773 -0.051278077 -0.012528073
0.025739498 0.011816349 0.009019893 0.008845112 -0.011335736 0.03307606 0.03566908 -0.003242969
-0.0073458543 0.01288059 -0.0036492029 -0.028832017 -0.0026374625 0.011296083 -0.011553499 -0.014760629
-0.0129554 -0.0078458 -0.047511052 -0.016855955 0.01384217 0.029495472 0.0014426785 -0.043230377
-0.0041112127 -0.0032228425 0.002704415 0.023456866 -0.011274347 -0.03506037 0.0070434236 0.036936454
0.0015138004 -0.047104646 -0.0313835 0.00186835 -4.467489e-06 0.013887352 0.0079712225 -0.043592192
-0.031008925 -0.015601102 0.018646069 0.0016839219 0.032814644 0.012944597 0.015763635 0.022268828
-0.029448159 -0.044189833 -0.030785328 -0.033369564 -0.048895936 0.02760998 -0.03728517 -0.0061398963
0.014103617 0.0009490819 0.024887873 -0.00081890717 0.015645098 0.039221514 0.0050277538 0.025086604
-0.044505987 -0.014419957 0.00997721 0.051599797 0.03227264 -0.01974071 -0.020917453 -0.017489813
-0.01971937 0.042345446 0.03246555 0.001996545 -0.016909044 -0.009573966 0.0021009636 0.052701544
-0.040041137 0.031178026 0.039047677 0.0066198427 0.022351056 -0.0091467025 -0.037429206 -0.035731744
0.0059660613 -0.039204996 -0.023316339 -0.023306318 -0.012929689 -0.051241715 0.0026303525 -0.02570784
-0.008920193 0.011251403 0.017450983 -0.025674723 -0.017833147 0.0031689939 -0.022338586 0.021956572
0.018273283 -0.04859405 -0.002945285 -0.0020250757 0.03387912 -0.04241228 0.026567228 0.012691608
0.024963392 -0.027061444 1.0181217e-05 -0.0038943018 -0.008999078 -0.027142214 0.03150871 -0.031575665
0.03875164 -0.004261628 -0.00032212603 -0.009146218 0.0023669535 2.4426208e-05 -0.00608422 0.009800383
-0.0020593754 0.011568369 -0.0266758 0.022859387 -0.008627561 0.017008765 -0.050308503 -0.006890833
-0.016688969 0.022376169 -0.007564267 -0.040580127 -0.011660562 0.03085606 0.04335091 -0.025678957
