checkpoint/US/extrapolate-intra/classifier.pt (torch, 3111 bytes, 1 tensors)

linear.weight f4 [1, 512]
000000 33 80 07 be 72 ad d5 bd 1a 6c 8a 3d d4 c6 3d 3e
       -0.13232498 -0.10433473 0.067589 0.18532878
000010 cf 50 63 bd c7 6d c3 3d 3c 9b ee 3b 4e 76 99 bd
       -0.055496987 0.09542423 0.007281689 -0.07493268
000020 ea d4 35 be f4 21 f4 3b 2c 46 b9 bd e0 7f 36 3e
       -0.17757002 0.0074503366 -0.09046587 0.17822218
000030 2b 9a 39 3c 2a 6a 8c bc 56 07 a6 3d 18 c4 bf 3d
       0.01132826 -0.017140467 0.08106868 0.09363574
000040 e8 c9 c9 bd a5 3d 2a bc af ee 48 3a 5b 7e 3b bd
       -0.09852964 -0.010390674 0.0007664961 -0.0457748
000050 04 c6 76 3d c4 a3 fc bd f8 0f 6a bd f3 ac d2 bd
       0.060247436 -0.12335923 -0.057144135 -0.10286894
000060 b1 31 e2 3d 5a e8 18 3d 0c 77 c1 3c 21 c7 2c be
       0.11044634 0.037330963 0.023616336 -0.16872837
000070 b2 ce 82 bd 42 9a 52 bd 71 27 5c 3d 96 9b d3 bd
       -0.0638708 -0.051416643 0.05374855 -0.1033241
000080 30 91 df 3d 37 d9 13 be bf 07 20 3c 6c 8f 0c be
       0.10916364 -0.1443833 0.009767472 -0.13726586
000090 35 fe 95 bc 24 80 a3 3b 40 1e 14 3a 9e 3b 51 bd
       -0.018309692 0.004989641 0.00056502596 -0.051082246
0000a0 83 5f d6 3d 00 ff a7 bd 2f 63 69 be 1d af 92 3d
       0.10467436 -0.08202934 -0.22791742 0.071623065
0000b0 ac 4c a4 bd 10 10 bb bb dd f0 67 be ec 99 d4 3d
       -0.080224365 -0.005708702 -0.22650476 0.10380921
0000c0 9c 49 a9 3b 55 d3 1e 3c ba 0b a4 3d 6d 44 ab bd
       0.0051662456 0.00969394 0.08010049 -0.083626606
0000d0 fc 9a 49 be 9d de 09 3e a9 d6 a7 bd a1 42 ae 3d
       -0.19688028 0.13463826 -0.0819524 0.08508802
0000e0 08 02 0b be c9 09 1e be 11 f9 9e bd c0 d3 00 be
       -0.13574994 -0.1543342 -0.077623494 -0.12580776
0000f0 06 21 a3 bd 8d 4a 09 3d b5 7a 5f bc f5 05 d3 bd
       -0.07965283 0.033518363 -0.0136400955 -0.103038706
000100 d7 47 d6 b9 25 8c 38 3d f5 18 2f 3d 83 2a b8 3d
       -0.00040870786 0.045055527 0.04274841 0.089924835
000110 2a 54 56 3d 92 3b e0 bd b6 00 f2 3c 60 9e b6 bd
       0.05232636 -0.10948862 0.029541355 -0.089169264
000120 61 3d b3 3d e5 17 0f be 00 ab 53 3d 0c 37 a5 bd
       0.087519415 -0.13973959 0.05167675 -0.0806714
000130 3c 91 5b 3d c3 f2 f3 bd b2 b3 b0 3d fb 3c 19 3e
       0.053605303 -0.119115375 0.08628024 0.14964668
000140 8a 30 3e be 6f 10 37 3d 7f 19 96 3d e1 f0 57 be
       -0.18573204 0.044693407 0.07329082 -0.21087982
000150 ca f8 8a bd ed 5f 07 3e e1 0e 57 bd d4 90 d1 3b
       -0.06785734 0.13220187 -0.052504424 0.0063954387
000160 3d fe 1e 3c 10 91 20 3d 4e d5 bc 3c 2b 4a 48 3d
       0.00970417 0.039200842 0.02305093 0.048898857
000170 64 a0 f8 bd 24 59 46 3d dd 8b 79 3d ca f2 87 3d
       -0.12139967 0.048424855 0.0609244 0.06638105
000180 f1 2a 35 3b 09 54 d6 bd 6c 9d 96 bd 07 30 12 3d
       0.0027644003 -0.10465247 -0.073542446 0.035690334
000190 f2 51 e2 bc 76 73 b9 3d 20 4d bc bd 46 05 13 bd
       -0.027626965 0.090552256 -0.09194398 -0.0358937
0001a0 f3 bf 84 3d 79 cf 1e be b8 c0 c7 3c d3 6a 1b 3d
       0.06481924 -0.15508832 0.024383888 0.037943672
0001b0 d3 68 10 bd 50 26 41 bd b3 a3 10 bd 9c 53 88 3d
       -0.03525622 -0.04715568 -0.035312366 0.06656572
0001c0 0c 2a 3c bc 8c e5 6d 3b 43 ac 8f bd e5 e8 e7 bb
       -0.011484634 0.003630015 -0.07015278 -0.0070773237
0001d0 c1 23 61 3d a0 09 6b bc 90 e9 17 3c eb 41 e5 3c
       0.05496574 -0.0143455565 0.009271994 0.027985534
0001e0 76 ec 04 3e 9b d1 fd 3c 51 df 08 be 92 c8 1b bd
       0.12980828 0.030983737 -0.13366438 -0.038033076
0001f0 9d 10 81 bc 03 6a f9 bb 6e a3 38 bc 6f e1 ba bd
       -0.015754992 -0.0076115145 -0.011269433 -0.09125029
000200 2d ae 97 bc d2 69 5f bd 05 74 26 bb 94 ac 39 be
       -0.01851567 -0.054544277 -0.0025398743 -0.1813224
000210 2b 8c 0b 3e 46 18 c9 3d 64 e5 33 be 10 30 06 be
       0.13627689 0.09819083 -0.17567974 -0.13104272
000220 ec d2 93 bd 44 a0 80 bd 2d dd cd bb 8d 29 4e be
       -0.072179645 -0.06280568 -0.0062824697 -0.20133038
000230 18 ac a9 38 97 e5 c8 3d 82 25 39 be 21 8a 49 3d
       8.090603e-05 0.09809416 -0.18080714 0.049203996
000240 4f 87 fd bd 5a 72 13 be fe 0b 81 be 9e e5 7f 3c
       -0.12379324 -0.1439909 -0.25204462 0.01561871
000250 38 43 ff 3d d8 aa c8 bc a9 3c 73 be 0d a4 8c 3c
       0.12463993 -0.024495527 -0.23753609 0.01716807
000260 0e cb fd bd 3c e0 02 be 67 2b 86 bb 8e 0c af 39
       -0.12392245 -0.12780851 -0.0040945294 0.00033387955
000270 61 c1 55 3d db 8a 60 be db 19 5a 3d ea aa b2 bd
       0.052186374 -0.21927969 0.053247314 -0.087240055
000280 1d 2b 65 bd 20 db 2a bd 86 4d 2d 3d 2a 85 e3 bd
       -0.05594932 -0.04171288 0.04231026 -0.111093834
000290 14 dc 86 bd 7e 4b 92 3b 39 f4 14 3d a5 c2 db 3c
       -0.06584945 0.004464566 0.03636572 0.026826212
0002a0 a2 4f 1a 3e e7 4e ef bc e0 ec d9 3c 11 b2 65 3d
       0.1506944 -0.029212428 0.026602209 0.05607802
0002b0 c0 b1 21 3d 5b d3 a7 3c 69 c3 6e 3c d3 1d 9b 3d
       0.039476156 0.020486524 0.014572957 0.07574048
0002c0 6b 8f c7 bd 7d 4e a1 bc 28 e2 a7 bd 4d f8 83 3d
       -0.09744152 -0.019690746 -0.08197433 0.06443844
0002d0 db cb 87 3c 0a 64 c2 bd 0d 56 3e 3d ae 6a 3b 3d
       0.016576698 -0.09491737 0.046468783 0.045756035
0002e0 06 0d 1d be 67 9a cd 3d 95 aa 3e 3d 95 84 c2 bd
       -0.15337 0.100392155 0.0465494 -0.09497944
0002f0 c9 5b 0c bd eb 40 98 3d d3 44 5a 3d 98 8e c3 3c
       -0.03426722 0.07434257 0.053288292 0.023871705
000300 22 8c f6 bd 7b 9a 0e bd a0 e0 ee bd 28 e0 95 3d
       -0.12038447 -0.034815293 -0.116639376 0.07318145
000310 c4 41 8c bc ff f7 e0 3c 92 16 0f be c2 c0 c8 bd
       -0.017121203 0.027462004 -0.13973454 -0.09802391
000320 36 97 aa 3d 72 43 81 bd da e2 d1 bd 09 e5 ba 3d
       0.083296224 -0.06311692 -0.102483466 0.09125716
000330 e1 56 16 3e f5 3d cd 3d c8 38 6e bd c7 82 03 be
       0.14681579 0.10021583 -0.05815962 -0.12842856
000340 fd 22 57 3c e9 4c ca bd 8b 0b 59 3c 4d a0 fc bc
       0.0131309 -0.09877951 0.013247381 -0.030838156
000350 ce 86 df bb ec b2 b0 bd 5e b0 71 bc 57 d4 52 3d
       -0.00682149 -0.08627877 -0.014751522 0.051472034
000360 12 6f 97 bc 06 97 e2 bd d7 7b 32 be ab a0 18 be
       -0.01848558 -0.11063962 -0.17430054 -0.1490504
000370 25 1c 5e 3d a3 06 92 bc 7e 5d 07 be 18 80 89 bd
       0.05422606 -0.01782543 -0.13219258 -0.06713885
000380 6b 93 e9 bd 40 60 e1 bd 8e 47 84 3d 24 af 29 bd
       -0.11405071 -0.11004686 0.064589605 -0.041426793
000390 47 b3 6b bc 40 74 44 bd 8e 17 81 3b e7 86 db ba
       -0.014386005 -0.047962427 0.0039395755 -0.0016748578
0003a0 70 18 22 bd e5 7e 8f 3c aa de a9 bc 83 86 d9 bd
       -0.039574087 0.017516563 -0.020736057 -0.10621359
0003b0 cd 70 5f be 5e b5 30 bc d4 39 4c bd 78 87 28 bd
       -0.21820374 -0.010785429 -0.049859837 -0.041144818
0003c0 09 7b d1 3d de 3f 2e bd f7 33 b1 3d e0 48 97 bd
       0.10228545 -0.042541377 0.0865249 -0.07386947
0003d0 14 06 ef bd 44 4c c0 3d 33 0d b2 bd 39 dd a5 bd
       -0.11671081 0.093895465 -0.08693924 -0.080988355
0003e0 13 33 00 3e 98 96 17 3c b1 52 05 be 31 a2 88 3d
       0.12519483 0.009252213 -0.13019826 0.066715606
0003f0 7c 96 bc 3d f4 32 a4 3d 2a 1b 80 3c 7b bc 63 bd
       0.0920839 0.08017531 0.015637953 -0.05559967
