checkpoint/Base/interpolate/classifier.pt (torch, 3111 bytes, 1 tensors)

linear.weight f4 [1, 512]
000000 f8 c9 1b be 76 13 0e be 0d 73 c2 bd e3 f1 93 3d
       -0.15213764 -0.13874611 -0.094946004 0.072238706
000010 b8 ce c0 bd 99 9e ef bd 68 b4 a5 3e 95 7e af bd
       -0.094144285 -0.11700172 0.32364202 -0.085690655
000020 c1 e3 97 3e 41 f9 94 bd c4 5c 04 be 4b 1a 68 bd
       0.2966595 -0.07274104 -0.12926012 -0.0566657
000030 da c3 18 be a2 2e 91 bd be 97 ee bd 78 43 55 bd
       -0.14918461 -0.07088973 -0.11650036 -0.052066296
000040 00 b5 1b be 15 5e e3 bd 66 c6 b8 bd 13 f8 27 be
       -0.15205765 -0.11101929 -0.090222165 -0.16403227
000050 46 98 cf bd ff a5 33 be 1d ae 04 be ea 5a ac bd
       -0.10136466 -0.17543791 -0.12957044 -0.08415778
000060 73 79 b9 bd 67 73 a4 bd 6b 4c 94 bd 9e 98 40 be
       -0.09056368 -0.08029824 -0.07241138 -0.18808219
000070 b8 0f f4 bd 5d 0b a8 bd 27 80 8c bd 4e 8d db bd
       -0.119170606 -0.082052924 -0.068603806 -0.10720311
000080 88 3f ec bd 03 ce 12 be eb 21 07 be 3b d7 04 be
       -0.11535555 -0.143364 -0.13196532 -0.12972729
000090 d8 6e 96 bd ab 7f 9c bd 6b a4 e3 bd 0d f1 ba bd
       -0.073453605 -0.07641538 -0.111153446 -0.09128008
0000a0 00 77 90 3e 5d 98 06 be 99 38 83 bd 7c 2d 19 be
       0.2821579 -0.1314406 -0.064072795 -0.14958757
0000b0 ba 0e 0b be b2 a2 a0 3e bc fc 28 be f2 ca 14 be
       -0.13579836 0.31374127 -0.1650266 -0.14530542
0000c0 00 c1 21 be 19 99 78 bd 46 71 bc bd 45 67 af bd
       -0.1579628 -0.06069288 -0.09201293 -0.08564619
0000d0 49 69 f5 bd 3c 92 d3 bd 40 c7 73 bd 4c b1 98 bd
       -0.11982972 -0.10330626 -0.05951619 -0.07455692
0000e0 79 ac ae bd d7 44 fe bd 78 e5 de bd fc 0f 29 be
       -0.0852899 -0.12415474 -0.108836114 -0.16510004
0000f0 b0 1c df bd 22 53 ad bd 0f f4 30 be 36 16 a2 bd
       -0.108941436 -0.08463122 -0.17280601 -0.07914393
000100 32 5f bb 3e ed 54 b0 bd 66 46 a0 bd d5 e0 e8 bd
       0.36596066 -0.08609948 -0.078259274 -0.11371008
000110 bb 94 13 be 26 47 f6 bd 98 b4 95 3e 49 a0 32 bd
       -0.14412205 -0.12025289 0.29239345 -0.04360989
000120 25 63 e6 bd a9 ee 9c bd 3a 98 06 be fa 7b 2a be
       -0.11249379 -0.07662708 -0.13144007 -0.16648856
000130 35 50 ba bd e0 40 e1 bd 97 aa 02 be fc 7d b1 bd
       -0.090973295 -0.10998702 -0.12760387 -0.08666608
000140 1b a4 46 bd 2e cd 5a bd 71 a5 ae bd 3a cf 0b be
       -0.048496347 -0.05341833 -0.08527649 -0.1365327
000150 ef fa d5 bd 48 ed c7 bd 97 72 d3 bd 75 c6 c0 3e
       -0.104482524 -0.09762055 -0.10324591 0.3765141
000160 0d cf 26 be 0c a9 da bd 2b 10 fc bd 74 da 41 bd
       -0.16289921 -0.106767744 -0.12307771 -0.047327474
000170 58 8b ff bd 37 1f 79 bd 1e 87 b2 bd e8 92 23 be
       -0.124777496 -0.060820784 -0.08717178 -0.15974009
000180 41 89 07 be a0 b0 00 be 69 23 c7 bd dd a9 11 bb
       -0.13235952 -0.12567377 -0.09723551 -0.002222649
000190 cd 84 e3 bd 15 67 b2 bd 8c c3 f4 bd 47 4d 25 be
       -0.11109314 -0.087110676 -0.1195136 -0.1614276
0001a0 15 90 78 bd 9c 26 f0 bd 71 c8 da bd a9 fd 14 be
       -0.060684282 -0.11726114 -0.106827624 -0.14549889
0001b0 ec 6e b5 bd 4f 35 83 bd 14 0f f3 bd a9 19 e0 bd
       -0.08859047 -0.06406652 -0.1186811 -0.10942394
0001c0 da fb 7e 3e 7c 55 dd bd 05 db af bd 3d a5 aa 3e
       0.24900761 -0.108073205 -0.085866965 0.33329192
0001d0 db 2b fc bd 19 a6 00 be f1 d0 ae bd 3f 94 20 be
       -0.12313052 -0.12563361 -0.08535946 -0.15681551
0001e0 33 52 eb bd 80 bf 09 be b5 0c b6 bd f1 f5 00 be
       -0.11490288 -0.13451958 -0.088891424 -0.12593819
0001f0 81 12 f0 bd b5 fb a0 bd 3b 30 94 bd 2d a2 db bd
       -0.11722279 -0.07860509 -0.07235762 -0.10724292
000200 9c 32 db 3e b0 94 4e bd d8 99 bb bd dc 59 fa bd
       0.4281205 -0.05043477 -0.09160203 -0.122241706
000210 73 c8 51 bd b5 68 af bd fd e1 d4 bd a9 42 cd bd
       -0.051216554 -0.08564893 -0.10394666 -0.1002248
000220 59 24 cb bd da 7e 6c be ab 9b 4b bd b4 bf fc bd
       -0.09919042 -0.23095265 -0.049709003 -0.12341252
000230 e5 e7 8e 3e b0 49 07 be 20 98 b9 bd c4 fb af bd
       0.27911296 -0.13211703 -0.09062219 -0.08592942
000240 93 36 e7 bd 7d ff 8c bd ae e8 01 be 7c be f3 bd
       -0.11289706 -0.06884668 -0.12686417 -0.119015664
000250 70 cf fd bd e6 61 e4 bd 6e d2 dc bd b7 95 95 bd
       -0.12393081 -0.11151485 -0.10782324 -0.073039465
000260 b6 a7 f5 bd 5a 1b 02 be 36 bf 0a be 78 c2 7d 3e
       -0.11994879 -0.12705746 -0.13549504 0.24781215
000270 27 06 81 bd 51 d7 ad bd 6f 8c 96 bd 2b 70 08 be
       -0.063000016 -0.08488334 -0.07351004 -0.13324039
000280 56 de 94 bd 6b 1a a0 bd 47 af c4 bd a3 d8 00 be
       -0.0726897 -0.07817539 -0.09603744 -0.1258264
000290 f0 36 c5 bd f1 46 01 be 4b 7c 18 be a7 69 c7 bd
       -0.09629619 -0.12624718 -0.14891164 -0.097369485
0002a0 a2 45 e1 bd 5b cd 8f bd be 45 13 be 47 b1 04 be
       -0.109996095 -0.0702159 -0.14382073 -0.12958251
0002b0 66 bd 7f 3e 55 05 8e bd 03 43 a1 bd 90 b7 13 be
       0.24974594 -0.06934611 -0.078741096 -0.14425492
0002c0 d8 67 00 be 20 04 da bd cd e4 02 be 85 f4 17 be
       -0.12539613 -0.10645318 -0.12782593 -0.1483937
0002d0 48 3a 18 be 65 c6 6d bd 84 73 a4 3e dc d4 cd bd
       -0.14865983 -0.058050532 0.3211938 -0.10050365
0002e0 0c 18 b6 bd f9 df 12 be 41 6e f3 bd 3f 4d b8 bd
       -0.08891305 -0.14343251 -0.11886264 -0.089991085
0002f0 b5 8b 83 bd 59 c2 b1 3e 00 06 a8 bd f4 24 a8 3e
       -0.064231314 0.34718588 -0.082042694 0.32840693
000300 c6 97 00 be 42 79 07 be ec f9 bd bd 12 1f 86 bd
       -0.12557897 -0.1322985 -0.092761844 -0.06548895
000310 d5 34 ed bd 8e 85 b5 bd fc 7e b9 bd 8d 6c 2c bd
       -0.115823425 -0.08863364 -0.090574235 -0.04209571
000320 99 e5 d1 bd 2f 9e 2b be 5a eb 0f be aa ad a7 bd
       -0.102488704 -0.16759561 -0.14054623 -0.08187421
000330 4f 8b 93 bd f0 0c d1 bd 48 7b ff bd 50 5b 15 be
       -0.072043054 -0.10207546 -0.12474686 -0.14585614
000340 b4 f2 0d be 25 39 d8 bd 69 70 01 be f2 1d cc bd
       -0.13862115 -0.105577745 -0.12640537 -0.09966649
000350 a6 96 06 be 5e 24 03 be 2b a5 0d be ea 2c a1 3e
       -0.13143405 -0.12806842 -0.13832538 0.3147958
000360 28 12 1d be f0 aa 6e bd 59 78 05 be 4f 1b e5 bd
       -0.15338957 -0.058268487 -0.1303419 -0.11186849
000370 0b 16 ac 3e 8e ef 9c bd 71 52 df bd 3b e3 c8 bd
       0.33610567 -0.07662879 -0.10904396 -0.09808966
000380 87 c3 cb bd e8 19 0e be 1f c6 12 be 20 a7 9c bd
       -0.09949403 -0.1387707 -0.1433339 -0.07649064
000390 eb 10 11 be a4 85 d4 bd 04 58 df 3e bd e3 87 bd
       -0.1416661 -0.103770524 0.43621838 -0.066352345
0003a0 f7 01 84 bd a4 66 43 bd 60 ef c2 bd 32 ed c4 bd
       -0.06445687 -0.047705308 -0.095183134 -0.09615554
0003b0 d8 ea 8c 3e dc 72 6e 3e a4 bb 38 3e bb df 1b be
       0.27522922 0.23286003 0.18040329 -0.15222065
0003c0 bc 93 a7 3e 1e 74 cb bd 40 aa f8 bd 50 9f bc bd
       0.327299 -0.09934257 -0.121418476 -0.09210074
0003d0 f4 c1 d4 bd b0 e6 ef bd e9 32 e5 bd 56 1b a1 bd
       -0.10388556 -0.11713922 -0.11191351 -0.07866542
0003e0 3e 0a fa bd 08 0e 0c be 6d 1d c4 bd b7 0f a7 3e
       -0.12208985 -0.13677227 -0.09575925 0.32629177
0003f0 75 1c 03 be 92 94 0a be 27 0f a2 bd c6 ae dc bd
       -0.12803824 -0.13533238 -0.07913046 -0.10775523
