checkpoint/CB/extrapolate-inter/classifier.pt (torch, 3111 bytes, 1 tensors)

linear.weight f4 [1, 512]
0	0x3c45117d	0.012028095
1	0x3ab30d50	0.0013660584
2	0x3c6080c8	0.013702579
3	0xbb1b84e5	-0.0023730334
4	0x3ce75406	0.028238308
5	0xbc8b39bd	-0.016995305
6	0x3c54cb03	0.012987855
7	0xbd2ffd58	-0.042966217
8	0xbb708bc1	-0.0036704394
9	0xbd0f7981	-0.035027985
10	0xbcccf182	-0.025017504
11	0x3c71affe	0.014751432
12	0xbc6e8bb6	-0.014559677
13	0xbcca8bbf	-0.02472484
14	0x3d3fccb5	0.046826083
15	0xbccb4f38	-0.024818048
16	0x3bba6328	0.00568809
17	0xbd1acac3	-0.037791025
18	0xbc42ae0d	-0.011882317
19	0x3cd40157	0.025879545
20	0x3c7c7924	0.015409742
21	0xbce8cc94	-0.028417863
22	0x3cb0456d	0.02151748
23	0x3b38ff51	0.0028228352
24	0x3cfcc1fe	0.030854221
25	0x397c9aa7	0.00024090205
26	0xbceeeb20	-0.02916485
27	0xbd0a9f29	-0.033843193
28	0xbca89638	-0.020579442
29	0xbcbf0f2a	-0.02332266
30	0xbc5a37b9	-0.013318949
31	0x3d4710dd	0.048600066
32	0x3a52d292	0.00080422417
33	0x3c4e1cb6	0.012580087
34	0xb851bc02	-5.000458e-05
35	0x3c204010	0.009780899
36	0x3c3b7d52	0.011443453
37	0x3d07b3f9	0.03313062
38	0xbd0bce36	-0.034132205
39	0x3cac6b39	0.021047221
40	0x3d53e5bc	0.051732764
41	0xba802b85	-0.0009778595
42	0xbd0eed65	-0.034894366
43	0xbc7a0d3c	-0.015261944
44	0x3b4d40db	0.0031319174
45	0xbc1ca410	-0.0095606
46	0xbcde3d35	-0.027128795
47	0x3c79ea33	0.015253591
48	0x3c14da6e	0.009085281
49	0x3d035ceb	0.032071035
50	0xbc8bf9b0	-0.017086834
51	0xbc95f693	-0.018306052
52	0x3d429a35	0.047510345
53	0xbbc77d7c	-0.006087957
54	0xbcceb7dd	-0.025234157
55	0xbad5de53	-0.0016316868
56	0xbcc5fcff	-0.02416849
57	0x3ce80f66	0.028327655
58	0xbc7e75b6	-0.015530994
59	0xbbb938f4	-0.0056525413
60	0x3c597d27	0.013274468
61	0x3d34a632	0.04410381
62	0xbceaaa24	-0.028645582
63	0x3c767a0a	0.015043745
64	0xbcf5dc8a	-0.030012388
65	0x3d5f029b	0.054445844
66	0x3baefa83	0.005339922
67	0x3ba244c7	0.0049520466
68	0xbcc3fda0	-0.023924649
69	0x3c749a8f	0.014929428
70	0xbce55379	-0.027993904
71	0x3a0c041a	0.00053411874
72	0xbd0d5937	-0.03450891
73	0x3c095f8a	0.008384595
74	0xbd067bea	-0.032833017
75	0x3bfa7e64	0.0076444615
76	0xbb1e0bc8	-0.002411591
77	0xbcd07921	-0.025448384
78	0x3d1f647c	0.03891419
79	0x3c2d7ab4	0.010588337
80	0x3cb8f3a3	0.022577113
81	0x3d1a6be0	0.037700534
82	0x3c4b2a73	0.012400257
83	0x3bd23c1f	0.0064158584
84	0xbd289718	-0.04115972
85	0x3b8172ec	0.0039504673
86	0x3ce808db	0.028324535
87	0x3c469837	0.012121252
88	0xbce9d365	-0.028543184
89	0xbc19af14	-0.009380121
90	0xbcebfb80	-0.028806448
91	0xbca88832	-0.020572755
92	0xbd052b21	-0.032511834
93	0x3cbcb5d3	0.02303592
94	0x3c8166af	0.015796034
95	0x3b05f93d	0.0020442747
96	0x3cbe7152	0.023247395
97	0x3d10511b	0.0352336
98	0xbd142c40	-0.036175013
99	0x3cdae536	0.026720624
100	0xbc104098	-0.008804463
101	0x3c0ae0e9	0.008476474
102	0x3d4c593f	0.0498898
103	0x3ce6575c	0.028117828
104	0xbd326308	-0.043551475
105	0x3d1e6557	0.038670864
106	0xbd17e126	-0.037079953
107	0xbcc8fcda	-0.024534632
108	0xbcb35ccc	-0.021894835
109	0x3bc8226b	0.0061076186
110	0x3ac2335e	0.0014816334
111	0xbd126c6c	-0.03574793
112	0xbb9c116d	-0.0047628195
113	0xbc409b53	-0.011755782
114	0x3d5c2f09	0.053755794
115	0x3c03f275	0.008053412
116	0x3cad9155	0.021187464
117	0x3c9334f8	0.017969593
118	0x3c4521d7	0.012031994
119	0xbc37c148	-0.011215515
120	0x3d2b32b0	0.041796386
121	0x3bbdebfa	0.005795953
122	0x3d156bdb	0.036479812
123	0xbd02f26a	-0.031969465
124	0x3bbb3302	0.0057128677
125	0xbc0a3326	-0.008435046
126	0x3c5161fe	0.012779711
127	0xbd1f64f4	-0.038914636
128	0x3c7312d1	0.014836029
129	0x3ccd5923	0.025066918
130	0xbcf77a10	-0.030209571
131	0xbd0a7d5f	-0.03381097
132	0x3d1ca6cd	0.03824501
133	0x3cec52ce	0.028848078
134	0xbc21f488	-0.009884961
135	0xbb87fd03	-0.0041500344
136	0xbd29906c	-0.041397497
137	0xbcbcf900	-0.023067951
138	0x3bb42e14	0.005498657
139	0x3c80b079	0.015709149
140	0x3cb7a682	0.022418264
141	0xbcc37bd0	-0.02386275
142	0xbd07b05a	-0.033127166
143	0x3bb577ce	0.0055379635
144	0x3c9b58f4	0.018963315
145	0x3c7ffcea	0.015624264
146	0xbd26af4e	-0.040694527
147	0xbcedd83f	-0.029033778
148	0xbd2317cc	-0.039817616
149	0x3d176459	0.036960933
150	0x3c9ee3b0	0.01939568
151	0xbc922d94	-0.017843999
152	0xbaa21c53	-0.001236806
153	0xba0c21a6	-0.000534559
154	0xbcb5ff71	-0.02221653
155	0x3b433811	0.0029788057
156	0x3d0141fe	0.031557076
157	0x3c92bee5	0.017913291
158	0x3d3be655	0.04587396
159	0xbca9ee00	-0.02074337
160	0x3c481579	0.012212151
161	0x3c50db34	0.012747575
162	0x3c3e9e30	0.0116343945
163	0xbc8e8775	-0.017398575
164	0x3c736304	0.01485515
165	0x3ce3024e	0.02771106
166	0xbca64a4f	-0.020299105
167	0x3b85d53c	0.0040842574
168	0x3ab24169	0.0013599816
169	0xbce2c6e7	-0.027682735
170	0x3d40c29b	0.04706059
171	0x3d18225e	0.03714215
172	0x3cc55d74	0.024092413
173	0x3ce7574c	0.028239869
174	0x3cdecd5a	0.027197529
175	0x3c2b42f1	0.010452972
176	0x3c83ac11	0.016073259
177	0x3b86e7af	0.0041169743
178	0xb94f7361	-0.0001978404
179	0x3cc94d95	0.024573127
180	0x3d455eb4	0.04818602
181	0xbcd2849b	-0.025697997
182	0xbd19d9df	-0.037561294
183	0x3bf4aaf4	0.0074666683
184	0xbc612a38	-0.013742976
185	0x3d4d049a	0.050053217
186	0x3c8fac49	0.017538207
187	0x3d636e74	0.05552526
188	0xb99f2bd2	-0.00030359492
189	0x3b249989	0.0025115928
190	0x3c2355a5	0.00996915
191	0x3cce300d	0.025169397
192	0x3c62b018	0.013835929
193	0xba163ad8	-0.00057308143
194	0x3ca44c36	0.020055871
195	0x3c328784	0.010896567
196	0x3c92b23f	0.01790726
197	0x3cf47eb7	0.029845579
198	0x3bdf2091	0.006809302
199	0x3c2ac882	0.010423781
200	0xbba19142	-0.004930646
201	0x3c5eda21	0.013601811
202	0xbccd2d9f	-0.025046168
203	0x3c06c8a3	0.008226546
204	0xbc5cb349	-0.013470479
205	0xbcf53e98	-0.029937074
206	0x3c8a5aa5	0.016888926
207	0xbcff4c87	-0.03116442
208	0xbd0aed16	-0.03391751
209	0x3d2de6ee	0.04245656
210	0x3c0d3b5d	0.00862011
211	0xbbbf2df4	-0.0058343355
212	0xbcb04653	-0.021517908
213	0xbd2ccd12	-0.042187758
214	0xbd025739	-0.031821463
215	0xbb93a1d5	-0.004505376
216	0x3cee3ce9	0.029081779
217	0xbd039488	-0.032124072
218	0xbcb6533f	-0.022256492
219	0xbc142230	-0.009041354
220	0x3cf80f77	0.030280812
221	0xbd0da029	-0.03457657
222	0x3d421cda	0.047390796
223	0x3cbbf678	0.022944674
224	0x3c9256bf	0.01786363
225	0xbb7cff5c	-0.0038604354
226	0xbc42a740	-0.011880696
227	0xbc8cb06f	-0.017173974
228	0xbd219cab	-0.03945605
229	0x3b95d3b8	0.004572358
230	0x3c61bcb0	0.013777897
231	0xbc769618	-0.015050434
232	0x3d2243ca	0.03961543
233	0xbcd0a4dd	-0.025469238
234	0x3d39a738	0.045325488
235	0xbd383d46	-0.04498031
236	0xbce5b631	-0.028040977
237	0xbd1d375d	-0.038382877
238	0xbbf73ceb	-0.007545104
239	0x3d408076	0.04699751
240	0x3d11cfa2	0.035598405
241	0x3d0d0b17	0.034434404
242	0xbcc9f508	-0.024652973
243	0xbb92bd07	-0.0044781
244	0xbcbaba52	-0.022793923
245	0xbae3de46	-0.0017384968
246	0x3a26419b	0.00063421734
247	0x3c90a61f	0.017657338
248	0xbcbe67c2	-0.023242835
249	0x3ce867ca	0.028369803
250	0x3d216f34	0.039412692
251	0xbd02be26	-0.03191962
252	0xbc05ca23	-0.008165869
253	0x3d132d75	0.035932023
254	0x3a3afff8	0.0007133479
255	0xbb377868	-0.0027995352
