checkpoint/Base/random-noise/classifier.pt (torch, 3111 bytes, 1 tensors)

linear.weight f4 [1, 512]
000000 83 d5 b5 bd af 0f 05 be 02 e0 f1 bd 86 d4 d5 3d
       -0.08878615 -0.12994264 -0.11810304 0.10440926
000010 c6 59 19 be 31 58 08 be 33 8c 88 3e 2f a4 19 be
       -0.14975652 -0.13314892 0.26669464 -0.15004037
000020 ae b7 9c 3e 42 dc fa bd 89 d8 b1 bd 6a 0f ca bd
       0.30608886 -0.12249042 -0.08683879 -0.09866221
000030 90 29 43 be d0 54 9f bd 82 53 04 be 4f 13 0e be
       -0.19058824 -0.077798486 -0.1292248 -0.13874553
000040 c7 6e 27 be 0b 4b 9e bd 8b ae ca bd bc 6b 2a be
       -0.16350852 -0.07729157 -0.09896573 -0.1664266
000050 78 a1 91 bd 78 be 46 be 5e 6f 2f be c7 b2 d8 bd
       -0.07110876 -0.19408596 -0.17132327 -0.10580974
000060 76 fa e2 bd c2 65 89 bd 91 e3 1d be fa c8 48 be
       -0.11082928 -0.06708862 -0.15418841 -0.19607916
000070 b0 dc 2b be b5 2a e6 bd 16 dd ee bd be 1d d1 bd
       -0.16783404 -0.112386145 -0.116632625 -0.10210751
000080 f6 b4 06 be 2c 8f 19 be 07 67 12 be 55 2e ef bd
       -0.13154969 -0.14996022 -0.14297114 -0.11678759
000090 ec 82 00 be 3f e4 fd bd c3 c2 cf bd 3b d2 23 be
       -0.12549943 -0.1239705 -0.1014457 -0.15998165
0000a0 d4 a4 9c 3e d8 74 b9 bd 3f a8 e2 bd c2 a3 6d be
       0.30594504 -0.09055489 -0.11067247 -0.23207
0000b0 0e 12 fd bd 36 06 99 3e 06 a6 42 be 66 41 1a be
       -0.12356959 0.2988755 -0.19008645 -0.1506401
0000c0 3a db 21 be 4e 36 00 be fc a0 ce bd 96 9f ef bd
       -0.15806285 -0.12520716 -0.10089299 -0.117003605
0000d0 5f 92 16 be ab 5e 28 be c2 af b7 bd ec f9 9f bd
       -0.14704274 -0.16442363 -0.0896907 -0.07811341
0000e0 e5 a5 02 be e4 0c 4a be 0d 08 08 be 68 20 1c be
       -0.12758596 -0.1973148 -0.13284321 -0.15246737
0000f0 04 13 40 be d5 e2 fb bd 07 02 27 be fd ae 16 be
       -0.18757254 -0.12299124 -0.16309367 -0.1471519
000100 a1 54 c7 3e a8 64 20 be 77 05 ed bd 75 a9 2f be
       0.38931754 -0.15663397 -0.11573308 -0.17154486
000110 c5 c7 a2 bd 11 c4 1c be a7 72 9b 3e c5 99 c8 bd
       -0.07948259 -0.15309168 0.3036091 -0.09794954
000120 94 92 17 be e6 20 d5 bd 2e c6 2a be 6d 9f 38 be
       -0.14802009 -0.104066655 -0.16677162 -0.18029566
000130 ac 9a 95 bd 69 22 02 be ee 8e ca bd c5 a5 9b bd
       -0.07304892 -0.12708439 -0.09890543 -0.075999774
000140 0d 3d ab bd b7 24 a2 bd 41 4e fb bd 12 8e 04 be
       -0.08361254 -0.07917159 -0.12270785 -0.1294482
000150 0c b0 d5 bd ae 6f c4 bd c0 50 ef bd 26 7c ca 3e
       -0.10433969 -0.09591614 -0.11685324 0.39547843
000160 de ea 20 be cc 4f 2a be d9 3d ff bd 0b cc d2 bd
       -0.15714595 -0.16632003 -0.124629684 -0.10292824
000170 b7 0d ed bd e2 2d c1 bd 7b b4 44 bd a7 5d 19 be
       -0.115748815 -0.094325796 -0.048023682 -0.14977132
000180 20 d5 7f bd 36 60 c2 bd bd 55 c1 bd 07 6b 52 bd
       -0.06245911 -0.09491007 -0.094401814 -0.0513716
000190 02 5e ae bd 94 2b bd bd b3 25 0e be 1f 66 25 be
       -0.08514024 -0.092368275 -0.13881569 -0.16152237
0001a0 cf b8 ba bd 51 f7 e5 bd 56 0b bd bd a4 81 b9 bd
       -0.09117281 -0.112288125 -0.09230678 -0.0905793
0001b0 f8 27 b7 bd e2 2b e7 bd 15 b9 0c be 1a b4 21 be
       -0.0894317 -0.11287667 -0.13742478 -0.1579136
0001c0 b2 3d 80 3e 29 1e 18 be 4d 4d fc bd 3c 69 a1 3e
       0.2504707 -0.14855255 -0.123194315 0.315256
0001d0 82 49 b8 bd 8f b2 b3 bd d2 11 05 be 6f d7 27 be
       -0.089983955 -0.08774292 -0.12995079 -0.16390775
0001e0 98 e2 05 be 5b cc f4 bd bf 6a 0c be 5d 5a a6 bd
       -0.1307472 -0.1195304 -0.13712595 -0.08122704
0001f0 6f fa 2c be 46 a3 d1 bd 7c e9 06 be a0 ea 0e be
       -0.16892408 -0.1023622 -0.13175005 -0.1395669
000200 e0 c1 c9 3e ed 4b b6 bd 30 47 00 be a4 fe 08 be
       0.39405727 -0.089012004 -0.12527156 -0.13378388
000210 a2 2c d3 bd f7 b2 cf bd dd 60 06 be ab 7f f8 bd
       -0.103112474 -0.10141557 -0.13122888 -0.12133726
000220 fd 9d 19 be 26 df 48 be 56 36 00 be 72 1f 22 be
       -0.15001674 -0.19616374 -0.12520728 -0.15832308
000230 91 c2 94 3e 30 b4 bb bd 85 c2 eb bd 03 91 bd bd
       0.29054692 -0.091652274 -0.11511711 -0.092561744
000240 98 01 33 be 20 ad c5 bd 12 f9 a8 bd f5 e8 b4 bd
       -0.17481077 -0.096521616 -0.082506314 -0.088334955
000250 62 6b e8 bd c2 59 18 be 71 7e b9 bd b6 f6 d9 bd
       -0.11348607 -0.1487799 -0.0905732 -0.106427595
000260 d0 41 d6 bd 26 b5 dc bd 02 5d 0a be 05 8c 9a 3e
       -0.104617715 -0.10776739 -0.13512042 0.3018495
000270 f5 36 0c be 3a c2 15 be 7f 76 d7 bd 28 19 ce bd
       -0.1369284 -0.14624873 -0.10520648 -0.10063392
000280 3c 8c 20 be 18 f0 f1 bd d8 38 aa bd e9 f9 02 be
       -0.15678495 -0.118133724 -0.08311623 -0.12790646
000290 de 8a 1e be 91 dc 10 be da c8 13 be 2d 42 f1 bd
       -0.15482661 -0.1414664 -0.14432088 -0.117802
0002a0 c0 81 cc bd 3c 86 09 be 9a b8 10 be fe e1 d2 bd
       -0.09985685 -0.13430113 -0.1413292 -0.10297011
0002b0 af db 37 3e de 75 ac bd 5e ed 0e be 56 3f e0 bd
       0.17954896 -0.08420919 -0.13957736 -0.1094958
0002c0 da fe d4 bd 43 08 dd bd 9c e1 b4 bd 37 92 33 be
       -0.104001716 -0.107925914 -0.08832094 -0.17536245
0002d0 4e 30 e2 bd a2 5d e7 bd 4c f4 a7 3e b9 16 10 be
       -0.1104437 -0.11297156 0.3280357 -0.14071168
0002e0 33 c4 f2 bd 4e d8 1e be f2 bb d4 bd 1d b4 43 be
       -0.11853828 -0.15512201 -0.1038741 -0.19111677
0002f0 7d 36 a5 bd e9 1a cd 3e b2 f9 01 be 9d 07 9c 3e
       -0.080670334 0.40059593 -0.12692907 0.30474558
000300 cf e0 26 be 7a ab 1f be 63 a6 1b be 22 6b a8 bd
       -0.16296695 -0.15592757 -0.1520019 -0.08223559
000310 e2 6b eb bd 45 f8 b3 bd 44 54 f8 bd e7 5d 05 be
       -0.114951864 -0.08787588 -0.121254474 -0.13024102
000320 e1 0a d0 bd 25 2b 39 be 27 ae e7 bd 36 65 ec bd
       -0.10158325 -0.18082865 -0.11312514 -0.11542742
000330 22 aa 99 bd 00 e9 30 be 6d 8b 9a bd 3d e9 0d be
       -0.075031534 -0.17276382 -0.075461246 -0.13858505
000340 40 92 2c be e0 ff 8b bd 6a 5f 8d bd fb 3f 1d be
       -0.16852665 -0.06835914 -0.069029644 -0.15356438
000350 53 65 2f be ec 1b 3d be 48 50 00 be 08 be 98 3e
       -0.17128496 -0.18467683 -0.12530625 0.29832482
000360 2f 72 c1 bd 57 cb 1d be 65 ef 0d be 3d 69 f1 bd
       -0.09445607 -0.15409599 -0.13860853 -0.11787651
000370 fa 43 93 3e 99 35 aa bd 8f 66 1b be b6 52 d2 bd
       0.287628 -0.08311004 -0.15175842 -0.10269682
000380 3c 6c b7 bd 4e 08 17 be dc c1 1f be c4 1c 0f be
       -0.08956191 -0.14749262 -0.15601295 -0.13975817
000390 39 2b c8 bd 39 94 49 be cd 11 c2 3e 19 4c 8e bd
       -0.09773869 -0.19685449 0.37904206 -0.06948108
0003a0 be cb 12 be c6 3a 9b bd 37 8b 08 be ef e8 48 be
       -0.14335534 -0.075795695 -0.13334356 -0.19620107
0003b0 9c 87 5b 3e bc 0d 87 3e 46 b3 31 3e c8 43 fb bd
       0.2143845 0.26377666 0.17353544 -0.122687876
0003c0 8b 59 b5 3e 2c d3 9a bd 0e 9a 1d be d9 75 22 be
       0.35419878 -0.07559809 -0.15390798 -0.15865268
0003d0 f6 5c 96 bd b7 05 25 be 2a d0 ac bd ca 35 a4 bd
       -0.0734195 -0.16115461 -0.08438142 -0.08018072
0003e0 88 b6 c9 bd ad 89 f0 bd 13 06 2f be 20 55 c6 3e
       -0.09849268 -0.117450096 -0.17092161 0.3873682
0003f0 9c 99 1a be f7 62 bf bd 3b 5f 9c bd a0 b9 bc bd
       -0.1509766 -0.09345048 -0.07635351 -0.09215093
