checkpoint/OS/random-noise/classifier.pt (torch, 3111 bytes, 1 tensors)

linear.weight f4 [1, 512]
000000 d5 41 0c be 6b c0 14 3d 8a 39 d3 bd 38 e9 2e bd
       -0.13696988 0.036316317 -0.10313709 -0.042702883
000010 5e 69 aa bd c2 fa b6 bc 6b 08 f1 bd 16 18 b4 3b
       -0.083208784 -0.022336368 -0.11769184 0.0054960353
000020 b1 f4 38 bd f1 8f 19 be fa db ed bd 34 2a d1 bd
       -0.04515523 -0.14996316 -0.11614223 -0.10213128
000030 4e 71 c2 bd e5 a9 11 be 5b a1 16 be 10 ae 48 3e
       -0.094942674 -0.14224966 -0.1470999 0.1959765
000040 f9 02 cb bd be 22 f1 3d b4 0a 2e be 54 8e 07 be
       -0.09912676 0.11774205 -0.1699627 -0.13237888
000050 d4 96 3a bd 5f 80 18 be e5 44 80 bd e4 bb 51 be
       -0.045553997 -0.1489272 -0.062631406 -0.20481831
000060 f4 47 0d be 90 bf 48 3e e9 d1 3a 3e c1 94 d3 bd
       -0.13796979 0.19604325 0.18244137 -0.10331107
000070 0b e0 ef bc 16 b8 96 3d d1 cd 26 be 87 7a 8c 3d
       -0.029281637 0.0735933 -0.1628945 0.06859308
000080 79 57 8a 3e bd 49 2b be 70 65 1c be 1b 55 f9 bd
       0.2701986 -0.16727348 -0.1527307 -0.12174436
000090 2e 93 f6 bd 88 b3 07 be 69 b6 62 3e d3 45 04 be
       -0.12039791 -0.1325208 0.22139896 -0.12917261
0000a0 05 83 71 3d 5b 3b 4b be 41 c9 f9 bd 06 15 26 be
       0.05896284 -0.19846861 -0.12196589 -0.16218957
0000b0 b1 ab a4 3e 2b c1 36 be b6 2b 0a bd a3 0f 32 3e
       0.3216224 -0.17847125 -0.033733092 0.17388777
0000c0 71 7e d6 3d ca 5d 03 be 49 56 04 3e dc e0 cb bd
       0.104733355 -0.12828746 0.1292354 -0.09954998
0000d0 88 91 e0 bd 8b 6d 3a 3e c2 34 27 be 49 86 2c be
       -0.10965258 0.1820585 -0.1632872 -0.168481
0000e0 3e a4 06 be aa 27 81 3e 28 9a f3 bd 3c 41 05 be
       -0.13148591 0.25225574 -0.11894637 -0.13013166
0000f0 ab fc 82 3e 46 10 29 be 08 4c 05 be 55 8b 80 3e
       0.25583395 -0.16510114 -0.13017285 0.25106302
000100 b8 78 09 be 0d 00 8e bd c6 39 f1 bd 4b ce f2 bd
       -0.13424957 -0.069336034 -0.117785975 -0.118557535
000110 4d 4f 33 be 4c 34 ff bd 24 7f 4f 3e 77 ec 94 3e
       -0.1751072 -0.12461147 0.20263344 0.29086658
000120 0d 81 01 be 5b 8a 13 be 32 a9 35 be e9 9d 1d 3e
       -0.12646885 -0.14408247 -0.17740324 0.15392269
000130 64 f2 27 be 24 e4 03 be 1f 71 94 bd 67 f9 14 be
       -0.16401058 -0.12879997 -0.07248139 -0.14548264
000140 47 ea f3 bd 78 54 01 bd 7b 18 6e 3d a4 22 2e be
       -0.11909919 -0.031574696 0.058128815 -0.17005402
000150 ff 96 cb bd ee 8e 0b be bb 64 0a be 4e ae b8 3d
       -0.099409096 -0.13628742 -0.13514988 0.09017621
000160 4a 94 9f bd 4e 06 38 3e dd 3c e0 bd e8 67 4a be
       -0.07791956 0.17971155 -0.10949109 -0.197662
000170 4a 84 cf bd 25 34 74 3e 15 33 2c 3e 21 f3 76 3e
       -0.10132654 0.23848017 0.16816361 0.24116184
000180 28 70 38 be 86 a8 18 be 13 99 07 3e 3f fa 36 be
       -0.18011534 -0.14908037 0.13241987 -0.17868899
000190 fb 4e 05 be b3 b2 81 3e 5e 20 12 be 43 31 55 be
       -0.1301841 0.2533165 -0.1427016 -0.20819573
0001a0 ca 24 70 3e f8 d9 12 be db c9 b7 3d 74 ee e6 bd
       0.23451534 -0.14340961 0.08974048 -0.1127595
0001b0 9f 3b 4b be f1 c0 11 3e ae 32 05 be bc 95 da bd
       -0.19846962 0.14233758 -0.13007614 -0.10673091
0001c0 26 6c f0 bb 57 d1 d2 3d e7 f6 27 be 38 3a 16 bc
       -0.007337111 0.10293835 -0.1640278 -0.009169154
0001d0 5b 76 bb bd 03 a9 f5 bd 0c 90 e1 bd 64 dd 0c 3e
       -0.09153434 -0.11995127 -0.11013803 0.13756329
0001e0 84 ac 17 be 55 4c 18 be 9a 35 1a be 93 83 ed bd
       -0.14811903 -0.14872868 -0.1505951 -0.115973614
0001f0 e0 a2 bf bd 03 01 8f 3e 08 16 17 be c2 f3 da bd
       -0.09357238 0.2793046 -0.14754498 -0.10691024
000200 55 e7 5a 3e 0d cb e3 bd 10 33 1a 3e 60 f3 71 3d
       0.21377309 -0.11122713 0.15058541 0.05906999
000210 36 8f b7 bc 26 e2 36 3e 80 de 7a 3e 80 90 c2 3d
       -0.022407155 0.17859706 0.2449894 0.095002174
000220 1f 67 29 be 7e 7d 81 bd 38 dd 71 3d 84 e9 50 be
       -0.16543244 -0.06322764 0.05904886 -0.20401579
000230 03 41 97 bd 5f 06 ec bd 0a 4f 1f be a5 5f 30 be
       -0.07385447 -0.11524653 -0.15557495 -0.17223985
000240 01 37 3d be 92 d1 2e 3e dd 11 3c be 03 c9 aa 3e
       -0.18478014 0.17072132 -0.1836619 0.33356485
000250 bd bc 1d bd d0 f8 02 be 5b 4f 45 3e 32 56 de 3d
       -0.038510073 -0.12790227 0.19268553 0.10856284
000260 f0 8c b5 bd b1 81 cc bd 77 c5 2e be ec cf d1 bd
       -0.08864772 -0.09985674 -0.17067514 -0.10244736
000270 9a ea 89 3e ca aa 3e 3e 4d 94 bd bd 44 b3 2b bd
       0.269368 0.18619838 -0.09256802 -0.041919008
000280 b9 d0 15 be 0f 3d 12 be 17 dd d4 bd 87 b3 c6 bd
       -0.14630403 -0.14281105 -0.10393732 -0.09702211
000290 97 a6 d9 3d cf dc 17 be 2e 39 1e be 17 56 1b bd
       0.106274776 -0.14830326 -0.154515 -0.0379239
0002a0 d4 fe 04 be cb 87 98 3e 2d cd 2d be 8e 02 04 be
       -0.12987834 0.29791102 -0.169728 -0.128916
0002b0 4a 37 c6 bd 3b 7c 15 be 64 23 05 be f7 b5 2c 3e
       -0.09678514 -0.14598171 -0.13001782 0.16866289
0002c0 e0 1f f2 bd 0f 93 94 3a 65 74 1a be 7e 98 3b be
       -0.11822486 0.0011335331 -0.15083463 -0.1831989
0002d0 0c 38 20 3e 0d da 15 be fd ce bf bd 73 e1 e7 bd
       0.1564638 -0.14633961 -0.09365652 -0.11322298
0002e0 f8 ec 10 be 2c 76 a9 bd 2d 81 27 3e 29 1e cf bd
       -0.14152896 -0.082744926 0.1635787 -0.101131745
0002f0 8e 61 6a 3e 97 98 d5 bd 60 60 1a be 58 72 0d 3e
       0.22888777 -0.10429495 -0.15075827 0.1381315
000300 be 7b d6 bd 3c dd 48 bd de 3b 9d bd 8c f3 f6 3d
       -0.10472821 -0.04903911 -0.076774344 0.12058172
000310 18 d7 09 be 5f fa b0 bd 31 32 09 3e 16 6b 9e 3e
       -0.13460958 -0.086415045 0.13398053 0.30941075
000320 51 91 fb 3d c8 a9 61 3e 0f ae 15 3e fc f3 94 3d
       0.12283576 0.22037423 0.1461718 0.07273099
000330 94 e1 92 3e 31 c5 ce bd 81 70 a2 3d b3 1d d5 bd
       0.28687727 -0.10096205 0.07931615 -0.10406055
000340 6d 74 22 be 0a 14 ff bd bb c9 c0 bd e7 7a 8e 3c
       -0.15864725 -0.12454994 -0.09413477 0.017392589
000350 4b dd 05 be a1 f8 17 be f7 43 0a be f5 e8 fc bd
       -0.13072698 -0.14840938 -0.13502489 -0.123491205
000360 40 30 5c 3e 52 15 22 bc cb 6b e8 3d 90 fd 2b be
       0.21502781 -0.0098927785 0.11348685 -0.16795945
000370 47 ee 23 be 98 e0 10 bd 8d 38 d9 bd 47 2b 0b be
       -0.16008864 -0.03537044 -0.10606489 -0.13590728
000380 91 47 92 3e fd 31 09 be 85 19 1c 3e 41 40 25 be
       0.28570226 -0.13397975 0.1524411 -0.16137792
000390 c2 b3 16 be ed 9e 21 be 42 6a f5 bd c0 f1 0e be
       -0.1471701 -0.15783282 -0.11983158 -0.13959408
0003a0 26 aa 95 3e 27 fa d5 bd 4f 02 03 be 84 37 16 be
       0.29231375 -0.104481034 -0.1279385 -0.14669615
0003b0 d1 b4 2c 3e 1c b3 98 3d a6 a4 93 3d e1 85 0b be
       0.16865851 0.074560374 0.072091386 -0.1362529
0003c0 6c df 17 be 94 b9 d1 bd 7b e1 3e be a2 10 fd bd
       -0.14831322 -0.10240474 -0.18640701 -0.12356688
0003d0 6a 59 f4 bd 77 b0 6f bd 67 89 88 3e 9e 3c 19 be
       -0.11931117 -0.0585179 0.2666733 -0.1496453
0003e0 92 c8 29 3e 90 0f 83 bd 87 54 33 be 2f af 20 be
       0.16580418 -0.06399453 -0.17512713 -0.15691827
0003f0 e5 a6 0b be 31 66 ba 3c 83 fd 04 be 03 d0 72 3e
       -0.13637884 0.022753807 -0.12987332 0.23712163
