checkpoint/OS/interpolate/classifier.pt (torch, 3111 bytes, 1 tensors)

linear.weight f4 [1, 512]
0	0xbdf42140	-0.119204044
1	0x3d26362b	0.040579002
2	0xbdc58ecf	-0.09646379
3	0xbd909a8d	-0.07060728
4	0xbdfe88f3	-0.12428465
5	0x3c45aee2	0.012065621
6	0xbe05460d	-0.13015004
7	0xbcaefdc0	-0.021361232
8	0xbdcc4c69	-0.099755116
9	0xbe1c5174	-0.15265447
10	0xbdfb1635	-0.12260095
11	0xbde20017	-0.110351734
12	0xbdaeb659	-0.08530874
13	0xbde60034	-0.112305075
14	0xbe02adbb	-0.12761585
15	0x3e596f9a	0.21233979
16	0xbdcf6444	-0.10126546
17	0x3df4590c	0.11931047
18	0xbe2640e6	-0.16235694
19	0xbded6dd0	-0.11593211
20	0xbd854e47	-0.06509071
21	0xbe0c50ee	-0.13702747
22	0xbdd6f3e5	-0.10495738
23	0xbe55d4bc	-0.20881933
24	0xbe09324c	-0.13398093
25	0x3e497648	0.19674027
26	0x3e678aa7	0.22611485
27	0xbe0cbb56	-0.13743338
28	0x3bca2688	0.006169144
29	0x3daa9e7e	0.08331011
30	0xbde773e2	-0.113014
31	0x3d8e4bb2	0.069480315
32	0x3e951a27	0.29121515
33	0xbe3ef542	-0.18648246
34	0xbe15a459	-0.14613475
35	0xbde439c0	-0.111438274
36	0xbdde20ab	-0.10846075
37	0xbe0251db	-0.12726538
38	0x3e5a0f6d	0.21294947
39	0xbe22877e	-0.15871999
40	0x3d4e2b46	0.050334238
41	0xbe27be8d	-0.16381283
42	0xbde71707	-0.11283689
43	0xbdd9b73b	-0.106306516
44	0x3e9778c5	0.29584327
45	0xbe1fe6fc	-0.15615457
46	0xbd627fbe	-0.055297606
47	0x3e5c2988	0.21500218
48	0x3e1bee97	0.15227734
49	0xbe257fd7	-0.16162048
50	0x3e05ae36	0.13054737
51	0xbe0a81da	-0.13526097
52	0xbde8cdb7	-0.11367362
53	0x3e5e5780	0.21713066
54	0xbe170940	-0.14749622
55	0xbe29835e	-0.16554019
56	0xbe0ab8dd	-0.13547082
57	0x3e79d446	0.24397382
58	0xbd9cc96d	-0.076556064
59	0xbe0ee169	-0.13953175
60	0x3e67f625	0.2265249
61	0xbe1f401c	-0.155518
62	0xbe2b9484	-0.16755873
63	0x3e9571a7	0.29188272
64	0xbd9faff3	-0.077972315
65	0xbd92ed79	-0.071742006
66	0xbd804d0c	-0.062646955
67	0xbddbd64e	-0.10734235
68	0xbdf01266	-0.11722259
69	0xbe2a0448	-0.16603196
70	0x3e46526f	0.19367383
71	0x3e8e68c8	0.27814317
72	0xbe01dd4b	-0.12682073
73	0xbe11b877	-0.14230524
74	0xbe22394d	-0.15842171
75	0x3df460b3	0.119325064
76	0xbe402c0e	-0.18766806
77	0xbdb8f713	-0.09031501
78	0xbdfd8c2b	-0.123802505
79	0xbe381a70	-0.17978835
80	0xbdb06799	-0.0861351
81	0xbd2a375d	-0.041556705
82	0x3d2aa83e	0.041664355
83	0xbdf0cafd	-0.11757467
84	0xbdd7670f	-0.10517704
85	0xbe36783f	-0.17819308
86	0xbdf9cc87	-0.121972136
87	0x3d9915c4	0.074748546
88	0xbdbafbbf	-0.09130048
89	0x3e53724a	0.20649067
90	0xbe317c85	-0.17332657
91	0xbe4a3161	-0.19745399
92	0xbe18cb2b	-0.14921252
93	0x3e852d8a	0.26011306
94	0x3ddf6709	0.10908324
95	0x3e9d79df	0.30757043
96	0xbdf15bd8	-0.11785096
97	0xbe094fb7	-0.13409315
98	0x3e021334	0.12702638
99	0xbe288b8b	-0.16459481
100	0xbdd38ab0	-0.10329187
101	0x3e930d14	0.28720915
102	0xbdfa358f	-0.12217247
103	0xbe5ff8eb	-0.21872298
104	0x3e75c091	0.2399924
105	0xbe090a9e	-0.13382956
106	0x3d68f44f	0.056873616
107	0xbe1d557a	-0.15364638
108	0xbe17e50b	-0.14833467
109	0x3de45131	0.111482985
110	0xbde15fda	-0.1100461
111	0xbe16787b	-0.14694397
112	0x3ce67ba5	0.02813513
113	0x3de2b032	0.11068763
114	0xbe338cb0	-0.17534137
115	0xbd1f3785	-0.038871307
116	0xbe16f5d8	-0.1474222
117	0xbe04d77a	-0.12972823
118	0xbdedcc60	-0.11611247
119	0x3e0f0a8c	0.13968867
120	0xbe242ea2	-0.16033414
121	0xbdd3f1bc	-0.103488415
122	0xbdba801a	-0.09106465
123	0xbdabe87f	-0.083939545
124	0xbdfce508	-0.12348372
125	0x3e92f7f4	0.28704798
126	0xbe2d4807	-0.16922008
127	0xbe056553	-0.13026933
128	0x3e31432c	0.1731078
129	0xbe31014c	-0.17285651
130	0x3e48d3e5	0.19612081
131	0x3deed71c	0.116621226
132	0xbd73f799	-0.0595623
133	0x3e0a1146	0.13483152
134	0x3e4cddad	0.20006438
135	0x3e05530b	0.1301996
136	0xbe36c6e9	-0.17849316
137	0xbd9aeca7	-0.07564669
138	0x3d71cd14	0.05903347
139	0xbe3de3d4	-0.18543941
140	0xbe115b66	-0.14195022
141	0xbda628f3	-0.08113279
142	0xbe2bc0a4	-0.16772705
143	0xbe110485	-0.1416188
144	0xbe0dc459	-0.13844432
145	0x3e242bb2	0.16032293
146	0xbdfab0ea	-0.12240775
147	0x3e8f3a02	0.27973944
148	0xbcda3e35	-0.02664099
149	0xbe3bdca6	-0.1834589
150	0x3e579592	0.2105315
151	0x3e285724	0.16439492
152	0xbe0b2e15	-0.13591798
153	0xbe1fd2c7	-0.15607749
154	0xbe31fc89	-0.17381491
155	0xbe0402a2	-0.1289163
156	0x3e7aa039	0.24475183
157	0x3e52ab9c	0.20573276
158	0xbde8a750	-0.11360037
159	0xbc9f5eda	-0.019454408
160	0xbe27b27c	-0.1637668
161	0xbe028ee8	-0.12749827
162	0xbd91c689	-0.07117946
163	0xbe11ce0a	-0.14238754
164	0x3de89a94	0.113576084
165	0xbe1612e2	-0.1465564
166	0xbe0c6af2	-0.13712671
167	0xbcdf720a	-0.027276058
168	0xbe3a234c	-0.18177527
169	0x3e8a739f	0.27041337
170	0xbe091554	-0.13387042
171	0xbdfd3ac5	-0.12364725
172	0xbde64b0f	-0.11244785
173	0xbe42f903	-0.19040303
174	0xbe0f7bc5	-0.14012058
175	0x3e53b09b	0.20672838
176	0xbe256ca5	-0.16154726
177	0x3d3e1e64	0.0464157
178	0xbe40f315	-0.18842728
179	0xbe2f9c31	-0.17149426
180	0x3e1fbcb9	0.15599336
181	0xbdf3156d	-0.11869321
182	0xbe25264c	-0.1612789
183	0xbe1c2c59	-0.15251292
184	0xbe07ea69	-0.13273014
185	0xbdcd1d17	-0.10015314
186	0x3e170f8a	0.14752021
187	0xbdd8cf47	-0.1058641
188	0x3e505c26	0.20347652
189	0xbd7cf8b7	-0.06176063
190	0xbdcaaf0a	-0.09896667
191	0x3e35d2ce	0.17756197
192	0xbdf01f09	-0.117246695
193	0xbddf4a25	-0.10902814
194	0xbdb08f5e	-0.08621095
195	0x3e04b658	0.12960184
196	0xbe4392a0	-0.19098902
197	0xbdf85b43	-0.12126782
198	0x3e0e017a	0.13867751
199	0x3e91bcd9	0.28464392
200	0x3e32ff27	0.17480145
201	0x3e62ea67	0.2215973
202	0x3e2f0866	0.17093047
203	0x3d9b8204	0.07593158
204	0x3e93f7bf	0.28899953
205	0xbdf71f2b	-0.12066492
206	0x3db88199	0.09009094
207	0xbdb9b69b	-0.09068032
208	0xbde81f18	-0.11334056
209	0xbe278214	-0.16358215
210	0xbdcd4eac	-0.10024771
211	0x3aa81090	0.0012822319
212	0xbdc076b7	-0.09397643
213	0xbe1fe9b7	-0.15616499
214	0xbe2c5c98	-0.16832197
215	0xbe3612af	-0.17780565
216	0x3e7fda67	0.24985658
217	0xbd4ec216	-0.050478064
218	0x3e1e8437	0.15480123
219	0xbe2dd2fc	-0.16975015
220	0xbdf97a16	-0.12181489
221	0xbd75a867	-0.059975054
222	0xbe0341cd	-0.1281807
223	0xbe231ccd	-0.15928955
224	0x3e7f9f08	0.2496301
225	0xbdef7d87	-0.11693864
226	0x3e215c00	0.15757751
227	0xbe192f0b	-0.14959352
228	0xbe2a22bd	-0.16614814
229	0xbdfd8765	-0.1237934
230	0xbd9a2af4	-0.07527724
231	0xbdb0c661	-0.08631588
232	0x3e6e2cc6	0.23259267
233	0xbdc43a72	-0.0958146
234	0xbe04ec0a	-0.12980667
235	0xbe079583	-0.13240628
236	0x3e3a3dbe	0.18187615
237	0x3dba9522	0.09110476
238	0x3d5ae79f	0.053443547
239	0xbdb75c24	-0.08953121
240	0xbde736ae	-0.11289726
241	0xbdb85e22	-0.090023294
242	0xbe0b055d	-0.13576265
243	0xbdb299b0	-0.0872072
244	0xbdf10ffe	-0.117706284
245	0xbd4a08a7	-0.049324658
246	0x3e88d4c7	0.26724836
247	0xbe1c50aa	-0.15265146
248	0x3e14c7b9	0.14529313
249	0xbdb40e05	-0.087917365
250	0xbe04ef7a	-0.12981978
251	0xbdf50ba3	-0.1196511
252	0xbe3775e7	-0.1791607
253	0x3d1d3978	0.038384885
254	0xbe16e12a	-0.14734331
255	0x3e8024dd	0.25028124
