checkpoint/US/interpolate/classifier.pt (torch, 3111 bytes, 1 tensors)

linear.weight f4 [1, 512]
000000 96 56 3f be db 44 03 be 7d 55 d8 3d d8 48 ac 3d
       -0.18685374 -0.12819235 0.105631806 0.08412331
000010 83 f9 a5 bd a7 05 42 3d 6a 5d 81 bc e4 08 95 bd
       -0.08104231 0.04736867 -0.015791614 -0.072770864
000020 2c 4c 55 be 88 3b 81 3b a8 33 70 bd b8 8b ba 3d
       -0.20829839 0.0039438643 -0.058643013 0.091086805
000030 a2 42 0a bd f6 5e 85 3c cd 54 22 3d 29 01 0d 3e
       -0.033754952 0.016280632 0.039631654 0.13769974
000040 93 6d 0d be de b7 78 3c de 94 0e 3c ac 84 12 3c
       -0.1381133 0.015180556 0.008702485 0.008942764
000050 97 f1 19 bd a0 ac d7 bd 0c 47 b1 3b 5e 49 1c be
       -0.037583914 -0.105309725 0.005410081 -0.15262362
000060 bc 3d ec 3d 09 8d 33 bb c5 6d 6f 3d d5 98 0a be
       0.115352124 -0.0027397296 0.058454294 -0.13534863
000070 b3 e6 51 bd 23 b1 c0 bb 2e 3a 50 3c 2b 0e 4f bd
       -0.051245403 -0.0058804913 0.012709184 -0.05055062
000080 31 9d 97 3d aa ae 22 be fe 82 9c 3c 1b 33 1f be
       0.07403029 -0.15886942 0.01910543 -0.15546839
000090 c4 49 8c bd 50 94 bb 3c a0 d3 43 3d 36 58 7d bd
       -0.06850007 0.02289787 0.047809243 -0.061851703
0000a0 fd e7 37 3e ad 51 fc bd c1 9c 34 be 16 ea 9b 3d
       0.1795959 -0.12320266 -0.17637922 0.07613008
0000b0 35 9c 75 bd 54 7b 65 3d 20 68 75 be fc f9 60 3d
       -0.059963424 0.056025818 -0.23965502 0.054925904
0000c0 77 9c a9 3d ad b2 04 3d fe b0 44 3d ef e6 8d bd
       0.082817964 0.03239696 0.048020355 -0.06928813
0000d0 14 e4 4c be 9b e6 c6 3d 10 07 68 bd ea 68 0c 3d
       -0.2000888 0.09711953 -0.05664736 0.03427974
0000e0 55 ad 1d be f2 fc f8 bd d5 d3 70 bd d3 21 cd bd
       -0.15398152 -0.121576205 -0.05879577 -0.10016217
0000f0 5c 27 2f bd 75 fb 0d 3a 06 4e 46 3b 06 54 31 be
       -0.042762145 0.0005416193 0.0030258908 -0.17317209
000100 5c 13 67 bd 82 fb 1e 3d 0b 20 29 3d 27 ea 8e bc
       -0.056414947 0.038814075 0.041290324 -0.017445637
000110 45 13 31 3d 47 5e 1f be ea 83 fa bc 25 5c b3 bd
       0.043231267 -0.15563308 -0.03058048 -0.087578095
000120 6b 5c a9 3d 89 f0 12 be bd 1b cf bb 47 64 74 bd
       0.082695805 -0.1434957 -0.0063204453 -0.059665944
000130 97 e9 99 bc b7 65 1e be 6b 0e bf 3d eb ad bd 3d
       -0.018788142 -0.15468489 0.09328922 0.09261688
000140 f5 3a 2f be 70 41 ca 3b 6d ce 45 3d c1 25 1a be
       -0.17112334 0.0061723515 0.048292566 -0.15053464
000150 b9 12 ab bd 0a 94 97 3d 95 4b a3 bd 15 1c 9d bc
       -0.083531804 0.07401283 -0.079734005 -0.01917843
000160 d3 aa 2e bc 3f f0 88 3b b2 2a 0c 3d 69 f1 ec 3c
       -0.010660845 0.00417903 0.034220405 0.028923707
000170 85 16 f5 bd 05 4d 4b 3d 32 3e 53 3d c9 df a3 3c
       -0.11967186 0.049634 0.051572986 0.02000417
000180 60 b9 84 3c ad 30 b3 bd 01 8f d2 bc 26 8e 71 3d
       0.016201675 -0.087495185 -0.025702955 0.058973454
000190 4a 46 af bb 96 c1 c2 3d 43 ff 88 bd e7 0f 2c bd
       -0.0053489553 0.0950958 -0.06689312 -0.042007353
0001a0 eb a3 31 bd 61 c1 04 be e6 e2 ff 3b c8 82 cb 3d
       -0.043369215 -0.12964393 0.007809031 0.09937054
0001b0 9d 9f f2 3c 2d 72 28 bd 72 54 f7 3b ae 33 e4 3d
       0.029617125 -0.04112451 0.0075479085 0.111426696
0001c0 1c e0 89 bd 39 ab 63 3d 8c 64 63 bd 6f bf 9a 3a
       -0.067321986 0.055583213 -0.05551581 0.0011806319
0001d0 eb e6 d6 3c 86 ca 24 bd 03 80 42 3d 2a b8 aa 3d
       0.026233157 -0.040232204 0.047485363 0.08335908
0001e0 47 07 9c 3d 31 0e 20 3d 59 b0 0a be a4 56 e8 3c
       0.076185755 0.039076034 -0.13543834 0.028361626
0001f0 b4 8e 8b bd 6a 53 89 3d 8a d9 41 bd a8 51 8e bd
       -0.06814328 0.06705363 -0.047326602 -0.069491684
000200 1f 60 88 bd 43 bd 54 bd 3c da 73 bd 51 a0 31 be
       -0.06658959 -0.051938307 -0.059534296 -0.17346312
000210 e8 82 d9 3d 30 5b 56 3d 89 d4 1d be 05 43 e0 bd
       0.106206715 0.052333057 -0.15413107 -0.10950283
000220 49 0d fe bd 17 e8 c5 bd 57 17 2d 3c f3 20 3f be
       -0.12404878 -0.09663408 0.010564647 -0.18664913
000230 c6 36 3a 3c b8 cf bf 3d a8 2d 14 be bb f9 7b ba
       0.011365598 0.09365791 -0.14470541 -0.0009612103
000240 1c 97 1c be 07 6b 0a be 41 87 2b be d7 30 ff 3c
       -0.15292019 -0.1351739 -0.16750814 0.031151218
000250 a4 8b a0 3d f2 92 32 3d 86 f2 67 be 4d 02 65 bd
       0.07839134 0.04359717 -0.22651109 -0.055910397
000260 e4 d3 d4 bd b7 38 e3 bd 06 2d 65 bb 00 ee d4 bc
       -0.103919774 -0.11094802 -0.0034969463 -0.025992393
000270 cc 11 79 3d c0 56 3d be b3 2d bd 3d ca 96 f0 bd
       0.060807988 -0.18490124 0.09237232 -0.11747511
000280 78 28 fd bd 09 29 aa bd 2f 0a 5a 3d 4e e5 8a bc
       -0.123612344 -0.08308608 0.053232368 -0.016955044
000290 fc 6f 51 bd d5 ac 73 bc 19 f6 23 3c f1 cd c3 bc
       -0.051132187 -0.014872749 0.010007405 -0.023901911
0002a0 86 e8 a6 3d 73 69 52 3b df e3 7e 3c 55 cc 20 3d
       0.08149819 0.003210631 0.015557258 0.039257366
0002b0 e9 0b 44 bd a4 52 85 bc 98 10 31 3b c7 9b 6f 3d
       -0.04786292 -0.016274758 0.0027017947 0.05849817
0002c0 2f f3 c0 bd ca 34 41 38 3a 69 eb bd c0 c5 89 3d
       -0.094213836 4.606395e-05 -0.1149468 0.06727171
0002d0 0e 57 2f 3d 05 3c c6 bd 5e 33 6e 3c 74 af 38 3d
       0.04280763 -0.096794166 0.014538614 0.0450892
0002e0 6f 2d 4f be b0 ca 3e 3d a3 b5 aa 3c 52 bf 14 be
       -0.20232175 0.046580017 0.020838564 -0.14526108
0002f0 ee 1e 89 3d 19 1b 6c 3d 62 9c 79 3c 66 7e 85 3d
       0.066953525 0.05764303 0.0152350385 0.06518249
000300 b2 56 46 be 61 e4 01 bb bd 64 07 be a7 96 92 3d
       -0.19369009 -0.0019819962 -0.13222022 0.07157641
000310 7a dc 89 bd 8a 57 1d bd 17 5a ec bd 56 6f ef bd
       -0.06731506 -0.038413562 -0.11540621 -0.116911575
000320 e0 b4 ac 3c 5f b4 f4 bd a1 57 22 be 29 c7 d4 3d
       0.021082342 -0.119484656 -0.1585374 0.10389549
000330 06 bd 06 3e 9a 97 9d 3a 18 47 1d 3d 91 a3 03 bd
       0.13158044 0.001202333 0.03839788 -0.03213841
000340 fa 74 ba bc 94 67 17 be 86 83 4e 3d 24 42 64 3b
       -0.022760857 -0.14785606 0.0504184 0.0034829462
000350 af 36 45 3d a7 17 11 be 4a 61 bc bd f5 7b 31 3d
       0.048147853 -0.14169179 -0.09198244 0.043331105
000360 e6 01 8b 3d b4 79 1a be 3f f0 32 be 60 49 eb bd
       0.067874715 -0.15085489 -0.17474459 -0.114886045
000370 c8 55 03 bb 00 47 66 bd 31 ad 46 be 0a 94 7a bd
       -0.0020040143 -0.056220055 -0.19402005 -0.061176337
000380 5f b5 09 be c3 e9 10 be 8f f7 4b 3d 5f 81 4f bd
       -0.13448094 -0.14151673 0.049796637 -0.050660487
000390 b4 24 1b 3d d9 59 b8 bd 04 4b e9 3b ba 43 90 bc
       0.0378768 -0.09001512 0.0071195383 -0.01761042
0003a0 d7 5d 90 bc 8a 3c 30 bd d6 bd 2a bd 6d 8a 97 bd
       -0.017622871 -0.043026485 -0.041684948 -0.073994495
0003b0 47 e0 20 be 07 34 35 3d 3d 06 a7 bd a4 2b 2c 3d
       -0.15710555 0.04423907 -0.08155487 0.042033806
0003c0 22 f9 b5 3d 3c 99 8f 3b 8d f6 77 3d 03 f0 e3 bd
       0.08885409 0.0043822806 0.060537864 -0.11129763
0003d0 2c 2c 63 be 5c e6 0a 3e a5 5f a7 bd 1b f3 ca bd
       -0.22184819 0.13564438 -0.081725396 -0.0990965
0003e0 1c 48 c4 3d 59 f3 bd 3c 33 72 31 be 4d 34 97 3d
       0.09584066 0.023187326 -0.1732872 0.073830225
0003f0 04 2c f1 3d 14 71 f4 3c 2d 9e a2 bd 69 45 a7 bd
       0.117759734 0.029839076 -0.07940326 -0.08167536
