checkpoint/OS/extrapolate_inter/classifier.pt (torch, 3111 bytes, 1 tensors)

linear.weight f4 [1, 512]
000000 85 67 58 3e 91 57 22 bb 14 56 90 3e 14 ea c3 bd
       0.2113324 -0.0024771432 0.28190672 -0.09566131
000010 6a c2 70 bc a8 ba 84 3e a5 13 1b 3d 5f b3 69 bd
       -0.014694789 0.25923657 0.03786053 -0.057055827
000020 07 18 28 be 2d 44 71 be 3f 83 5b 3d 9b e4 64 bd
       -0.16415416 -0.23561163 0.053591963 -0.055882078
000030 1a 05 a5 3d 29 84 a7 be 6c 57 c0 3d 8d 8d c3 3e
       0.08057614 -0.32718018 0.093916744 0.38193932
000040 ee 50 f2 bd f8 a6 65 3d a0 97 15 3e 1e ea a6 3d
       -0.11831842 0.056067437 0.14608622 0.08150123
000050 88 b6 8b 3d 14 95 77 bd 6c 02 b2 bc f5 18 0e bd
       0.068219244 -0.060444906 -0.02172967 -0.03469177
000060 16 fc 62 3b 1c d7 93 3e 3b fd 1e 3e a1 e3 51 3c
       0.0034635118 0.28875053 0.15526287 0.012810619
000070 65 a3 53 be e3 bc ee bc 58 1a fe bb ba cb 0a 39
       -0.20667799 -0.029142803 -0.0077546053 0.000132366
000080 26 ca b5 3d 33 de 49 be ce af 76 bc da e8 9d 3d
       0.088764474 -0.19713669 -0.015056564 0.077104285
000090 b9 cb 3b 3e 45 58 af 3c e3 b1 5d 3c c0 a7 38 be
       0.18339433 0.021404395 0.013531181 -0.18032742
0000a0 9a 20 57 3e fb 4a 01 be 90 66 24 b9 ce aa 9d 3a
       0.2100853 -0.12626259 -0.00015678466 0.0012029053
0000b0 3b 2b 2f 3f f5 e5 8d bd a0 dc 92 bd 09 d2 b3 3e
       0.6842534 -0.069286264 -0.07170987 0.35121182
0000c0 16 9d 36 3e 4f 25 80 bd 6d db 23 3e 90 32 fb 3d
       0.17833361 -0.06257116 0.16001673 0.122655034
0000d0 b9 2a ec 3d b4 ae 93 3d 37 a6 63 3d 6c 7f 2e 3d
       0.11531586 0.07211056 0.055578437 0.042601988
0000e0 fc 8e dc 3d 5e c5 04 3f ca 55 3f 3e 78 17 82 3d
       0.107694596 0.5186366 0.1868507 0.063521326
0000f0 a5 de 16 3f cd 2d 89 3d 53 18 a0 bd c6 ed de 3e
       0.5893348 0.06698189 -0.078171395 0.43540782
000100 28 d5 c5 3d 7a 2b fd bd 10 54 92 bc 97 5d 2a 3e
       0.09659797 -0.12361808 -0.01786235 0.16637264
000110 45 d9 fe bb 16 9e 30 be 30 ae c5 bd 36 d6 3c bd
       -0.0077773654 -0.17247805 -0.09652364 -0.046102725
000120 53 7e 49 3d d2 3f 8e 3d e0 95 9f 3d 35 40 78 be
       0.049192738 0.069457665 0.07792258 -0.24243243
000130 d0 0f 17 be f5 8d 48 3c 37 d6 d4 3c b4 f1 12 be
       -0.14752126 0.012240876 0.025981052 -0.14350015
000140 86 28 24 3e 24 2e 02 be 97 7a 3d be ef e0 37 3d
       0.16031083 -0.12712914 -0.18503796 0.044892248
000150 2e ef 92 3c 09 f0 03 be c0 6a 97 bd f1 a8 ba 3d
       0.017936315 -0.12884535 -0.07393408 0.09114254
000160 74 b9 b2 3d 75 69 b9 3e cb 8c 80 3d ba 0b 91 bd
       0.087267786 0.3621327 0.06276854 -0.07082315
000170 70 4a be 3b 3d 8f cc 3d 7e 9c ab bd 96 6c 10 3f
       0.0058072135 0.09988258 -0.08379458 0.5641569
000180 0e 82 b9 3d c9 eb 21 3d f6 2d 2f 3e e4 ca 0a be
       0.09058009 0.039531503 0.17107376 -0.13553959
000190 7e 61 d5 3c d7 5c 17 3f ab 42 a3 bd 03 ef ee bd
       0.026047464 0.5912604 -0.079717 -0.116666816
0001a0 7a 0f 13 3f 1f ab 86 bc b7 dd f2 3c db e8 86 bb
       0.5744549 -0.016439019 0.029646738 -0.004117114
0001b0 02 20 e0 bd 8f 4a 20 3d d9 ad f1 bd 88 a5 e2 bd
       -0.10943605 0.039133605 -0.11800737 -0.11066729
0001c0 16 7a 11 bd a1 50 5d 3e bf bb 55 bd b8 e9 2e bc
       -0.03551682 0.21612789 -0.052181 -0.01067584
0001d0 57 ee 8f 3d fb ef fc 3c 7d 62 ec bb b1 2a c4 ba
       0.070278816 0.03087615 -0.007213889 -0.0014966336
0001e0 70 5c ec 3d ec 46 88 3d 92 ba a5 bd df ed 83 be
       0.115410686 0.06654152 -0.08092226 -0.2576742
0001f0 33 55 d8 3d d5 5e fd 3d d0 53 cf bd e6 89 d0 bc
       0.105631255 0.123716034 -0.10123408 -0.02545638
000200 09 f6 08 be 83 05 fd bd bc 63 6b 3d d8 20 74 bd
       -0.13375105 -0.12354567 0.05746816 -0.059601635
000210 49 53 bd bd df cb 50 3d 02 83 ea 3d 10 4b 35 3e
       -0.09244401 0.050975677 0.11450769 0.17704415
000220 15 90 f4 bd 19 c1 6b 3e 70 9a 2a bd ad 77 dc bd
       -0.11941544 0.2302288 -0.04165119 -0.10765014
000230 63 1f 27 3d 4d e5 74 3d 9e bf 84 3c 40 d4 23 3d
       0.040801417 0.05978899 0.016204651 0.03999734
000240 88 17 07 be d4 50 dd 3c c6 0e c2 bd 88 bd 17 3f
       -0.1319257 0.02701608 -0.09475474 0.59273577
000250 b1 bf 46 3d 2b b1 0c be ef af fd 3c 01 ed f7 3d
       0.048522655 -0.13739459 0.03096768 0.12105752
000260 f6 84 1a bd 4a db 8e bd b5 49 5f bd 9c 03 d7 3c
       -0.037724458 -0.0697542 -0.054513652 0.026246838
000270 9a 07 cc bd d9 06 c0 3e 78 99 0b 3e 42 5f a6 be
       -0.099623874 0.37505224 0.13632762 -0.3249455
000280 76 50 ad 3d f0 1c 2e 3e 25 22 3d 3d a7 87 06 bb
       0.08462612 0.17003226 0.04617514 -0.0020527632
000290 b7 9d 72 3e 1e 34 1a bc b0 8b 01 3d 19 9e e4 3d
       0.23692976 -0.00941184 0.031627357 0.11162967
0002a0 20 09 2d bd 31 59 a5 3d c9 30 a0 3d c2 77 cc 3d
       -0.04224503 0.080736525 0.07821805 0.099837795
0002b0 3b 95 cc bd 5b e2 90 bd ef 3e a2 3c a0 26 cc 3e
       -0.09989401 -0.07074424 0.0198054 0.3987322
0002c0 77 ca 98 bd d6 c1 d9 bb 8f 33 79 bd 52 64 d3 bd
       -0.07460492 -0.0066454215 -0.060840186 -0.10321869
0002d0 16 20 69 3d e0 aa 56 3c 74 f5 89 3c 5c 9b 8e 3d
       0.056915365 0.013102263 0.016840674 0.06963226
0002e0 49 79 a0 bd 07 f1 86 3d 32 a6 fe 3d 34 d5 6f 3e
       -0.07835633 0.06588941 0.12434043 0.23421174
0002f0 7a 0c 16 3f 39 27 9d bb 5f 1f 33 3e 80 98 99 3e
       0.5861279 -0.0047959355 0.17492436 0.2999916
000300 f0 6a aa 3c 0e e7 23 be c8 71 6f 3c 18 0d 47 3e
       0.020802945 -0.16006109 0.01461453 0.19438589
000310 fd b4 d4 be 1c d6 0c bd 7f 58 ca 3e 33 d0 3a 3f
       -0.41544333 -0.034383878 0.39520642 0.72973937
000320 0d 7d 3d 3e 90 20 27 be b7 c8 fe 3e 9c d4 78 3d
       0.18504734 -0.16321015 0.49762508 0.060749635
000330 2a 31 1e 3f 5d 99 fe 3d c3 e2 04 bc 28 2d 2d 3e
       0.6179377 0.124315955 -0.008110705 0.16911757
000340 c8 78 ae 3d 7c 49 c6 bd 79 fb 38 3e ea 38 5f bd
       0.08519131 -0.09681985 0.18064679 -0.054497637
000350 8b 5a 91 be 90 20 4b 3b 26 df b0 3c a3 85 8a 3c
       -0.2838939 0.003099475 0.02159078 0.016909426
000360 d9 10 89 3e 83 29 f8 bd 27 de d6 3d f1 ac 24 bd
       0.26770666 -0.12117293 0.10491591 -0.040203992
000370 5e b0 1a 3d 66 3e 09 bd 85 11 8f bd f9 d8 25 3b
       0.037765853 -0.033506773 -0.069857635 0.0025306328
000380 a1 6a 15 3f 66 83 8b bd c9 9e 3c bd 35 17 94 bd
       0.5836583 -0.06812172 -0.046049867 -0.07230989
000390 d6 7f 9c 3d de 72 f0 bc 4a bd 76 bd 36 b2 2d 3b
       0.0764157 -0.029351648 -0.060239114 0.0026503927
0003a0 1b a0 fc 3e e1 90 00 3e 06 7c 7c 3c 82 f0 0c 3d
       0.493409 0.12555267 0.015410429 0.034409054
0003b0 e4 b4 53 3e 9b 35 52 be 56 c6 94 3d 74 3e 74 3d
       0.20674473 -0.20528261 0.07264392 0.059629872
0003c0 6f f7 49 3e e3 92 88 be 80 35 03 be da b7 d2 bd
       0.19723295 -0.26674566 -0.12813377 -0.10288973
0003d0 54 7f a6 bd 73 31 99 3e 1b 81 11 3f 0f e7 86 3e
       -0.08129755 0.2992054 0.56837624 0.2634816
0003e0 34 03 4c 3e 4e 99 3e 3b 33 6a d9 bd 0a 1a 3e bd
       0.19923097 0.0029083076 -0.10615959 -0.04641155
0003f0 eb 1b 95 3c 89 a7 ac bc df 1c 54 3e 75 27 14 3d
       0.018201789 -0.02107598 0.20714138 0.03617044
