checkpoint/OS/classifier.pt (torch, 3111 bytes, 1 tensors)

linear.weight f4 [1, 512]
-0.08150172 0.052996095 -0.07702609 -0.08353211 -0.068170525 -0.011039558 -0.19360784 0.027179819
-0.05318023 -0.20430975 -0.083151445 -0.17585477 -0.08735439 -0.104019925 -0.13639954 0.1544692
-0.12040514 0.042241894 -0.14064707 -0.062839605 -0.07676268 -0.093543835 -0.05766081 -0.22789185
-0.079242 0.10269066 0.20409511 -0.092311226 0.007563575 0.1367314 -0.15318842 0.052090548
0.3803427 -0.23764561 -0.23687287 -0.10144352 -0.08297671 -0.1875361 0.12755774 -0.13033114
0.014948584 -0.14114897 -0.085927054 -0.116043255 0.27631652 -0.19618727 -0.036307734 0.22865602
0.12502117 -0.20919912 0.15491743 -0.12922984 -0.12632072 0.18850684 -0.14544189 -0.208603
-0.1944682 0.30270958 -0.07540705 -0.15404181 0.20101653 -0.107694715 -0.22796409 0.25618637
-0.054114893 -0.05445344 -0.03791719 -0.081370436 -0.14394458 -0.08727062 0.110541016 0.3086614
-0.097604305 -0.15051967 -0.17420879 0.06597131 -0.188612 -0.08363758 -0.105820455 -0.11589048
-0.0860508 -0.015514524 0.01762432 -0.19470415 -0.10405756 -0.107121885 -0.077157624 0.045881268
-0.09568335 0.16079913 -0.1387493 -0.21428877 -0.097254515 0.2253134 0.10405072 0.33090448
-0.1436453 -0.114933714 0.21551652 -0.18811148 -0.101247996 0.31322622 -0.21866374 -0.250254
0.3489418 -0.0890465 0.020191144 -0.17942554 -0.20127152 0.061674535 -0.13046333 -0.14414762
-0.004400826 0.07368073 -0.15928382 0.02236977 -0.09036851 -0.08352583 -0.07633055 0.05168779
-0.17329304 -0.10309195 -0.1080887 -0.057211824 -0.10916606 0.27830762 -0.24436726 -0.1405753
0.1281583 -0.14279698 0.12710156 0.06940055 -0.012460382 0.082824424 0.19168453 0.07843805
-0.19266216 -0.0647355 0.035523 -0.07981143 -0.07561989 -0.03463762 -0.23812181 -0.18604267
-0.18939999 0.14850043 -0.18403411 0.36510915 -0.0063402983 -0.20109032 0.15654698 0.20692483
-0.08379518 -0.09602775 -0.19676849 -0.09955615 0.300614 0.093225814 -0.04568554 -0.012134102
-0.13003024 -0.10280897 -0.084956385 -0.12716264 0.06617916 -0.1752344 -0.18209866 -0.02544559
-0.2026962 0.24956311 -0.11550674 -0.11046767 -0.06584007 -0.2176766 -0.11618657 0.13853297
-0.13706042 0.010334918 -0.101514466 -0.19436026 0.13197932 -0.15587886 -0.13025114 -0.13833922
-0.10007797 -0.09720059 0.068137005 -0.10801143 0.25101307 -0.14394908 -0.095259085 0.09236847
-0.14360209 -0.06936905 -0.07568267 0.088373475 -0.2122079 -0.07824727 0.101722755 0.36405358
0.0857653 0.1930833 0.17690574 0.03811033 0.30683178 -0.08942509 0.06422124 -0.08557576
-0.11755527 -0.22045913 -0.11031137 -0.000368751 -0.029534573 -0.2439681 -0.22550826 -0.12456147
0.1897029 -0.015766403 0.060670763 -0.093638815 -0.13460241 -0.02400133 -0.110549495 -0.16898778
0.30295786 -0.116593644 0.0779911 -0.13361779 -0.16633537 -0.1886968 -0.042962503 -0.11056872
0.33081302 -0.09965255 -0.15887399 -0.12083162 0.12488728 0.038689964 0.07642088 -0.10275858
-0.07154128 -0.032444224 -0.26559532 -0.1131251 -0.09100276 -0.027102897 0.3270291 -0.16869499
0.15913613 -0.08075348 -0.1435813 -0.15620194 -0.20288584 0.0053106607 -0.101553194 0.23727027
00000000: 60ea a6bd 6f12 593d dbbf 9dbd e212 abbd
00000010: fd9c 8bbd 43df 34bc 2241 46be 36a8 de3c
00000020: 83d3 59bd 9336 51be 4e4b aabd 4613 34be
00000030: dce6 b2bd 6608 d5bd 52ac 0bbe 2d2d 1e3e
00000040: f896 f6bd d605 2d3d c905 10be 0db2 80bd
00000050: c135 9dbd e993 bfbd be2d 6cbd 7b5c 69be
00000060: a149 a2bd 7b4f d23d 4ffe 503e ab0d bdbd
00000070: ded7 f73b 5103 0c3e 6ddd 1cbe e65c 553d
00000080: 47bc c23e 5f59 73be cd8e 72be 9fc1 cfbd
00000090: b1ef a9bd 7709 40be 7f9e 023e 8775 05be
000000a0: e8ea 743c 5b89 10be 86fa afbd 16a8 edbd
000000b0: 5c79 8d3e 51e5 48be 6bb7 14bd ce24 6a3e
000000c0: 8d05 003e 4b38 56be ada2 1e3e d454 04be
000000d0: 385a 01be f007 413e b8ee 14be 069c 55be
000000e0: ac22 47be c0fc 9a3e 036f 9abd 23bd 1dbe
000000f0: 47d7 4d3e 0c8f dcbd 6b6f 69be dc2a 833e
00000100: 94a7 5dbd 920a 5fbd 0e4f 1bbd 8ba5 a6bd
00000110: 3566 13be f0ba b2bd 5463 e23d de08 9e3e
00000120: c4e4 c7bd d421 1abe ca63 32be f71b 873d
00000130: 8123 41be 2e4a abbd 65b8 d8bd fd57 edbd
00000140: 673b b0bd a130 7ebc e160 903c 8660 47be
00000150: 211c d5bd b862 dbbd d104 9ebd ffed 3b3d
00000160: a2f5 c3bd 87a8 243e 4c14 0ebe 846e 5bbe
00000170: 602d c7bd 8eb8 663e 8b18 d53d 506c a93e
00000180: c117 13be 5e62 ebbd 5db0 5c3e 4ca0 40be
00000190: 1c5b cfbd 305f a03e 63e9 5fbe 4b21 80be
000001a0: 80a8 b23e 035e b6bd e667 a53c 54bb 37be
000001b0: 1f1a 4ebe 709e 7c3d 2e98 05be 6f9b 13be
000001c0: ce34 90bb ece5 963d 4c1b 23be cf40 b73c
000001d0: 2013 b9bd 970f abbd 3153 9cbd 93b6 533d
000001e0: bb73 31be df21 d3bd 9c5d ddbd f256 6abd
000001f0: 7592 dfbd 567e 8e3e 693b 7abe f9f2 0fbe
00000200: ee3b 033e 5f39 12be e926 023e e021 8e3d
00000210: a126 4cbc da9f a93d f348 443e 21a4 a03d
00000220: 3b49 45be 0c94 84bd 9180 113d 2d74 a3bd
00000230: 9ade 9abd 2de0 0dbd 34d6 73be f881 3ebe
00000240: 12f2 41be 7f10 183e 7073 3cbe 96ef ba3e
00000250: 47c2 cfbb 9fea 4dbe da4d 203e 1ae4 533e
00000260: cf9c abbd 32aa c4bd ae7d 49be 18e4 cbbd
00000270: 14ea 993e 2ded be3d c320 3bbd 1dce 46bc
00000280: a626 05be 828d d2bd 9dfd adbd ec36 02be
00000290: f088 873d a670 33be 1278 3abe 4573 d0bc
000002a0: 988f 4fbe 798d 7f3e cc8e ecbd e03c e2bd
000002b0: 29d7 86bd 9de6 5ebe 39f3 edbd 96db 0d3e
000002c0: 9159 0cbe ca53 293c d1e6 cfbd 6006 47be
000002d0: 9625 073e b59e 1fbe 8e60 05be cca8 0dbe
000002e0: aef5 ccbd 1a11 c7bd 6a8b 8b3d 1935 ddbd
000002f0: c984 803e 6367 13be 3217 c3bd ae2b bd3d
00000300: 6d0c 13be 5c11 8ebd 84ff 9abd 27fd b43d
00000310: 074d 59be 1b40 a0bd 0554 d03d 3b65 ba3e
00000320: b8a5 af3d a1b7 453e c726 353e 9419 1c3d
00000330: 0e19 9d3e 8024 b7bd 6d86 833d 5842 afbd
00000340: d1c0 f0bd 0ac0 61be edea e1bd ec54 c1b9
00000350: 7df2 f1bc c6d2 79be a3eb 66be 151a ffbd
00000360: 7a41 423e 8b28 81bc e881 783d b5c5 bfbd
00000370: 37d5 09be 709e c4bc c667 e2bd 220b 2dbe
00000380: 4b1d 9b3e a6c8 eebd ccb9 9f3d 1ad3 08be
00000390: d253 2abe bc39 41be 73f9 2fbd da71 e2bd
000003a0: 5360 a93e a316 ccbd ddaf 22be 9276 f7bd
000003b0: e7c4 ff3d 5e79 1e3d 8d82 9c3d 1773 d2bd
000003c0: 3c84 92bd 3ce4 04bd 1cfc 87be 22ae e7bd
000003d0: a85f babd e506 debc 5c70 a73e 61be 2cbe
000003e0: 95f4 223e 1562 a5bd fa06 13be 67f3 1fbe
000003f0: 4ec1 4fbe 0d05 ae3b 1ffb cfbd faf6 723e
